fantasy_draft_agent.pth (torch, 29399 bytes, 11 tensors)

context_encoder.0.weight f4 [32, 10]
000000 bc 06 86 3e 85 92 95 3e 02 85 7c bd 97 ae b4 3e
       0.26177013 0.29213348 -0.061650284 0.3528945
000010 96 9e 38 bd 73 1e db 3d 0c 82 ad bd 56 f4 4e 3e
       -0.045073114 0.10699167 -0.0847207 0.20210394
000020 43 2d b2 3e 7b fc 4b be 15 1c 96 3e e3 de 08 3e
       0.34800157 -0.19920532 0.293183 0.13366275
000030 87 31 a1 3e 02 f9 11 3e 08 38 71 3e 5b 14 25 3d
       0.314831 0.14255145 0.2355653 0.040302616
000040 6c 62 ae 3e 87 32 29 3d 09 1d 50 bd 3d 7b 1a 3e
       0.34059465 0.041307952 -0.05080894 0.15086074
000050 da d1 11 be fd b0 10 bd f8 b6 ff bd 66 b9 5a 3e
       -0.14240208 -0.03532504 -0.124860704 0.21359786
000060 96 9c 7f be f0 53 17 be 3f 93 ab bd f6 78 3f be
       -0.24962077 -0.14778113 -0.08377694 -0.18698487
000070 bf d9 10 3d 41 55 a1 be 07 f3 90 3e 46 c9 7b be
       0.03536391 -0.31510356 0.28310415 -0.24588498
000080 14 0d 8d 3e a2 df d7 3d b8 83 b8 bd a4 50 58 3e
       0.2754904 0.105407014 -0.09009498 0.21124512
000090 97 45 af 3d 99 c7 7e 3e d9 22 91 3d f4 52 aa bd
       0.08558195 0.24880828 0.07086725 -0.08316603
0000a0 33 8c fe 3d ee 63 eb bb f6 77 54 3e 7b 2c c4 3e
       0.12429085 -0.0071835434 0.20748886 0.38315186
0000b0 3a 4f 87 3e e8 b9 53 bd 59 25 8f 3e 1e 29 9c 3d
       0.26427633 -0.051690966 0.27958182 0.0762503
0000c0 88 e7 83 3e 19 e7 f9 bd 17 0e c0 be 2c 48 3c be
       0.25762582 -0.122022815 -0.3751075 -0.18386906
0000d0 d4 8a 98 be de 3b 46 3e 01 21 c2 3c 43 9f 9a 3d
       -0.29793417 0.19358775 0.023697378 0.07549908
0000e0 b1 b7 10 3d 30 6c 7e bd dd 30 3b 3e 62 16 8e be
       0.03533143 -0.062114894 0.18280359 -0.27751452
0000f0 98 e2 3d 3d d3 89 1d be 26 78 15 3e a4 4d 3c bc
       0.046358675 -0.15384607 0.14596614 -0.01149312
000100 77 bb 1e 3e 66 8d c5 3a 3c 1b b2 3e 8d db 2f be
       0.155012 0.0015072047 0.34786403 -0.17173596
000110 c3 f7 d2 bd 16 28 02 be 87 cf 8e 3e dd ed d1 3d
       -0.10301163 -0.12710604 0.27892706 0.10250447
000120 f3 cb 9b 3e 8d 9e 85 be e2 97 a0 be c6 57 7d be
       0.30429038 -0.26097527 -0.31365877 -0.24740514
000130 33 76 5f be 14 0d fb 3d 33 a4 dc 3d 9b e2 83 3e
       -0.21822433 0.12258354 0.10773506 0.25758824
000140 ad c6 00 be d1 7b 16 be 93 06 6f 3e ed dc 14 bd
       -0.12575789 -0.1469567 0.23342352 -0.036343504
000150 b6 ca 84 3e 3a ec 81 bb 0e 40 87 3e 39 e7 65 be
       0.25935906 -0.003964928 0.26416057 -0.22451486
000160 15 4e 9c bd 91 fc 1d 3e e5 dd f6 3d 03 a4 7f bb
       -0.076320805 0.15428378 0.12054042 -0.003900767
000170 06 d9 77 3e 69 38 9c 3e 62 47 12 be ea d7 b4 bd
       0.24203882 0.30511788 -0.14285043 -0.08830245
000180 2c bc c3 3e 00 dd 83 bd da b0 9e bc ce 81 70 be
       0.382295 -0.06438637 -0.019371439 -0.23487017
000190 c4 70 39 be 0e c8 a1 3d 77 f7 2a bd ec 0d 6b be
       -0.18109423 0.078994855 -0.041739907 -0.2295453
0001a0 d2 0f f3 3b 8d 31 5d be dc 5c 89 be 66 50 32 be
       0.0074176574 -0.21600933 -0.2682866 -0.17413482
0001b0 52 b4 8d be cf 2f 4e be d0 b4 a4 3e 8a 70 80 3d
       -0.27676636 -0.20135425 0.321692 0.06271465
0001c0 9c 5d be 3d c3 a6 99 be 09 12 53 be 4a 3c dd bd
       0.09295198 -0.30010042 -0.20612349 -0.10802515
0001d0 fe 58 5a 3d 72 9a 8b be 00 93 07 be 36 36 3f be
       0.053307526 -0.2726627 -0.1323967 -0.18673024
0001e0 c6 ba 65 3a a3 fc f0 bd 68 83 b3 bc 9d 6d 5b be
       0.0008763488 -0.11766937 -0.021913245 -0.21428533
0001f0 3f 44 5e be 62 ea 3c be 01 af dd bd 2f 95 7f be
       -0.21705721 -0.18448785 -0.10824395 -0.24959253
000200 68 c1 87 3e 3b 88 80 bd c6 95 8c 3e a1 d0 ce 3d
       0.26514745 -0.06275984 0.27458018 0.100983866
000210 8e 1a 89 be f2 a6 62 3e 7a 31 b2 bd 52 41 f8 bd
       -0.26778072 0.22133997 -0.08700843 -0.12121834
000220 bd 1d 85 be 0d af 9f be 7b 67 be 3d 8f 41 8b bd
       -0.2599925 -0.3118824 0.09297081 -0.06799614
000230 13 08 20 3e 9a 64 3a be c5 78 a1 3e c4 de 03 be
       0.1562808 -0.18202439 0.31537452 -0.12877947
000240 cf e7 dc 3c d0 0e 1a 3e 85 95 85 3e d5 8a 88 3e
       0.026966004 0.15044713 0.26090637 0.2666842
000250 88 7d c5 3e cc de 37 be a1 36 ba 3d 84 46 be bd
       0.38572335 -0.17956084 0.09092451 -0.092907935
000260 42 73 86 bb 3d 4f 2a be 70 31 a9 3e 0c 71 40 be
       -0.0041030953 -0.1663179 0.3304553 -0.18793124
000270 3e 44 6a 3e 3e 38 ea 3d 8e 6d 26 3e 54 47 06 be
       0.22877595 0.114365086 0.1625273 -0.13113147
000280 c3 0e a9 3e 86 28 ce 3d 1b fa 1f 3d c5 3a 90 be
       0.33019075 0.10066323 0.03905688 -0.28169838
000290 03 03 34 3e fe 20 8e bd 35 20 f4 bd 69 2b a1 3e
       0.17579274 -0.069398865 -0.119202055 0.31478432
0002a0 76 f6 c4 3d 83 05 10 be 81 e5 23 be 0e 6d 77 bc
       0.09617321 -0.14064603 -0.16005518 -0.015101684
0002b0 98 ce 34 3e 15 7e a5 bd 11 c3 38 be 1e c7 dd bd
       0.17656934 -0.08080689 -0.18043162 -0.10828994
0002c0 6c ea 71 be ad f7 e6 3d c7 a5 7a 3e 64 6d 98 be
       -0.23624581 0.11277709 0.24477302 -0.29770958
0002d0 8c 7c cd 3d 6b b1 6c 3e d8 7e fa 3d 4e 51 33 bc
       0.10033521 0.23114555 0.12231225 -0.0109446775
0002e0 07 04 70 3e ea 1c 80 3e b6 31 58 3e 40 44 3b bd
       0.23439036 0.2502206 0.21112713 -0.045719385
0002f0 06 cc 15 3c bb 8f ca 3d c6 60 25 bd 35 15 07 bd
       0.009142881 0.09890696 -0.040375493 -0.03297921
000300 a6 0e 89 3e 2e 63 bb 3e 9e 24 09 3d 35 b8 9e 3a
       0.26768988 0.36599106 0.033482186 0.0012109341
000310 f2 c2 b5 3d f2 50 b2 bc 16 01 24 3e b6 11 12 3e
       0.088750735 -0.021767113 0.16016039 0.14264569
000320 fa 0d 93 be 66 00 ef bd 18 59 88 3e 0b 4a fc 3d
       -0.287216 -0.11669998 0.26630473 0.1231881
000330 d9 d8 80 bc 35 3b 43 be ef 1c 46 be 49 08 91 be
       -0.015728401 -0.19065554 -0.19346975 -0.28326634
000340 c0 1a d3 bd 78 b5 da 3d 31 fa 4b 3e 3e 2a 46 3e
       -0.103078365 0.10679144 0.19919659 0.19352052
000350 62 90 5b be b8 ee bb bd 50 07 52 3a ef 4c be 3e
       -0.21441796 -0.09176391 0.0008011954 0.3716807
000360 c0 cf 06 3e c9 8c c8 bd cd ef 5d 3e f7 7f 97 bd
       0.13165188 -0.09792478 0.21673508 -0.07397454
000370 d2 49 7a be ff fd 3c 3e 7d 27 44 be dc cb eb bd
       -0.24442223 0.18456267 -0.19155689 -0.115134925
000380 21 61 ba be a0 ae 24 3e 5f fe 3f 3e b0 3f b2 3d
       -0.36402228 0.16082239 0.18749379 0.08703554
000390 b9 90 8b be 4d 5d b5 be ea 93 92 be cd ab 50 3e
       -0.27258852 -0.35422745 -0.28628474 0.20378037
0003a0 0f 1e f8 3d 5b 77 6f 3e 9d 4d 08 3e 6d ea 44 3d
       0.12115108 0.23385374 0.13310857 0.04807513
0003b0 16 4b 12 bd a7 1d 87 be 6f 6b 9b be 2c 1d a2 be
       -0.03571614 -0.2638981 -0.30355403 -0.3166288
0003c0 f7 8e 04 3e e0 fb 1e be 8e 56 82 bd c8 5b 3a be
       0.12945162 -0.1552577 -0.06364165 -0.18199074
0003d0 4d 07 6c bd f3 e9 63 be 56 96 53 be ce d3 d6 3d
       -0.05762415 -0.22257213 -0.20662817 0.10489617
0003e0 81 79 c0 bd 07 e8 47 3e b7 01 02 bd e5 e5 19 be
       -0.09398175 0.19522105 -0.031739917 -0.15029104
0003f0 86 ba de 3b 5c 27 79 bd 5c 11 85 bc 86 28 67 be
       0.0067971377 -0.06082855 -0.01624363 -0.22574052

context_encoder.0.bias f4 [32]
000000 09 f2 38 be 47 49 59 3c d0 e5 73 3e 1a c2 38 3e
       -0.18061079 0.0132621 0.23818135 0.18042794
000010 75 a7 ed bd 18 5a a3 be 66 c8 19 be d3 99 a2 be
       -0.116042055 -0.31904674 -0.15017852 -0.31757984
000020 0c a2 30 be e5 b6 bc 3b 6f 89 5a 3e 71 61 6f 3d
       -0.17249316 0.0057591074 0.2134149 0.058442537
000030 12 4c 76 be 89 9b 80 be 1b 5e 75 3e a7 fe 41 be
       -0.24052456 -0.25118664 0.2396168 -0.18944798
000040 7a 1a 85 3a 4b 56 1b 3e 7c f1 8d bd 92 b9 00 3d
       0.0010154985 0.15169637 -0.06930825 0.031426974
000050 f5 7d e1 bc b1 44 bf bc a7 76 58 be 11 e2 a0 be
       -0.027525881 -0.023348184 -0.21139012 -0.31422475
000060 45 e1 82 be 01 d3 ad bd f5 70 b3 3e d3 ab db bd
       -0.25562492 -0.084875114 0.35047117 -0.10726132
000070 cc 73 59 be 9c fb 9c 3d dd 15 b8 3d 8e b4 7a 3e
       -0.21235579 0.07665178 0.08988545 0.24482939

context_encoder.2.weight f4 [16, 32]
000000 0e cf 2b 3e 7a 9b 3b 3e 51 5c 30 be 2b ec be 3d
       0.16778204 0.18321028 -0.17222716 0.09322389
000010 dc 31 48 3e ef 08 08 3d 69 22 7c bc 20 d3 32 3e
       0.1955027 0.033211645 -0.015389063 0.1746335
000020 8b a5 ba 3c 15 5e 0f bc eb 32 23 be 66 45 5b 3c
       0.022784015 -0.008750458 -0.15937392 0.013383245
000030 6b 6e a0 3d e1 b4 17 3d 74 26 fb 3d 7d e5 5b bd
       0.078335606 0.037037734 0.12263194 -0.053685654
000040 39 d3 70 be 33 02 4c 3b 7c 98 80 3e f3 ba 4d 3e
       -0.23518075 0.003112924 0.25116336 0.20090847
000050 94 ca d2 bd 53 1b a0 3d d5 ee c1 bd c5 8b 79 bd
       -0.10292545 0.07817712 -0.09469382 -0.06092431
000060 14 21 03 3d be a6 4c 3e 57 44 68 3e 21 be 6d be
       0.032013968 0.19985482 0.2268232 -0.2321706
000070 87 10 f2 3d d0 57 ff bd 0e dd 90 3d 5b d2 6d 3e
       0.118195586 -0.12467921 0.07073413 0.23224775
000080 1b 2f 2b 3c 41 12 6c 3e 65 0f 1e be 85 69 a1 bb
       0.010448243 0.23053838 -0.1543556 -0.004925909
000090 af a7 32 3e b0 94 04 3b 1a ae 1d 3d c8 82 9c bd
       0.17446779 0.0020230226 0.038496114 -0.07642132
0000a0 56 6d 4c 3e 94 b1 22 3e d7 07 68 3d f4 2c c1 bd
       0.19963583 0.15888053 0.0566481 -0.09432402
0000b0 3f f1 12 be 1d 28 95 3c 39 ca 02 3e e7 03 1a bc
       -0.1434984 0.018207604 0.12772454 -0.009400344
0000c0 4e b6 89 bd 5d 82 f4 3d 01 01 b9 3d 68 cf af 3d
       -0.06724225 0.11938927 0.090333946 0.085844815
0000d0 22 32 32 bd 6f 1b 9b bd f1 9d 0d be 65 ff 8b bd
       -0.04350484 -0.07573592 -0.13829781 -0.06835822
0000e0 31 08 b8 bd 2c d9 13 3e b2 8b 02 3d 84 0b bb bd
       -0.089859374 0.14438313 0.031871505 -0.09133056
0000f0 d8 96 2c 3e 73 36 7c 3d ec 96 07 3e e4 a7 99 bc
       0.16854417 0.061575364 0.13241166 -0.018756814
000100 7b f5 8f bd 8f 4a fa 3d 9d 4c 00 be cc 2a 94 bd
       -0.070292436 0.12221252 -0.12529226 -0.07234725
000110 7b 74 5f 3d 08 40 1b bd ba 98 88 bd 10 93 c3 3d
       0.054554444 -0.03790286 -0.06669755 0.09549534
000120 d3 0d 58 3e 2b 54 c3 3d 98 24 fc bc 71 c7 2d be
       0.21099024 0.09537538 -0.030779168 -0.16970612
000130 56 de 83 bd 31 89 31 3d f9 dc 12 3e 85 43 ec 3c
       -0.064388916 0.043343727 0.14342107 0.02884079
000140 cd da e6 bd c5 bc c9 3d 14 ec 9e bd c5 43 3e 3e
       -0.11272202 0.09850458 -0.07759872 0.1858054
000150 64 74 8c bd 0f ae 8e 3d db cb 93 bc c4 f3 eb 3c
       -0.06858137 0.06966793 -0.018041542 0.02880276
000160 a5 d0 5a bd 98 6d 5c 3e cb a6 0b 3d 70 7c d5 3d
       -0.053421635 0.21526182 0.034094613 0.10424125
000170 eb 0b 2e 3e c9 61 b0 bd c2 fe 02 be 33 02 46 3e
       0.16996734 -0.08612401 -0.12792495 0.19336776
000180 bc 66 0a 3e de 10 0d be 50 ab 74 bc bf d6 34 be
       0.13515753 -0.13775966 -0.014933422 -0.17660044
000190 4e c6 15 be f8 63 09 3d 22 ea 39 3d 9d 7d 19 3d
       -0.14626428 0.033542603 0.045389302 0.03747331
0001a0 6d 8f 4b bd 73 ad 25 3e df 0d cf 3c 8b 7a de bd
       -0.04969733 0.16179447 0.025275169 -0.10863217
0001b0 99 f8 23 bc 18 0f 27 3d e4 5d 74 3d ce ff 02 be
       -0.010008001 0.04078588 0.059659854 -0.12792894
0001c0 b1 d8 7b 3d 7b f5 b8 bd 45 1f 19 be 27 c9 c7 bd
       0.06148595 -0.09031197 -0.14953335 -0.09755164
0001d0 a5 93 2e 3e ba ce 17 3e 4c bd 20 3e 1a a6 d2 3d
       0.1704851 0.14824954 0.15697211 0.102855876
0001e0 40 c0 08 3e cb d5 c1 bc 8d 97 ca bd 1e e5 b4 3d
       0.13354588 -0.023661515 -0.09892187 0.08832763
0001f0 29 9a bb bd d9 53 f4 bd 10 b8 66 bd 2b 38 0b 3d
       -0.09160263 -0.11930055 -0.05632788 0.033989113
000200 54 60 ba 3d 7c 9e 8c bd 71 15 d5 bd 94 58 c3 3c
       0.091004044 -0.06866166 -0.1040448 0.023845948
000210 ca 65 d5 bd 9c b5 eb bd 9e b6 bc 3d 87 44 f3 bc
       -0.10419805 -0.115092486 0.09214519 -0.029695762
000220 aa 69 25 3e ab 17 30 3e 56 93 58 3d 61 32 79 3d
       0.16153589 0.17196529 0.052874885 0.06083906
000230 45 be 26 3d 5e 6f 35 3b da a7 52 bc 95 3a 1f 3b
       0.0407088 0.0027684788 -0.012857402 0.0024296392
000240 b7 31 87 3d 76 4e 28 3e b6 a6 3b bd 1a 0a 99 bd
       0.06601279 0.1643618 -0.045813285 -0.0747263
000250 99 58 2f bd e0 e8 ae bd 0a 3e f6 3c 21 1f 07 3e
       -0.042809103 -0.08540511 0.03005888 0.13195468
000260 93 8d 0d 3e a0 38 a6 3d c4 37 05 be d1 4e c2 bd
       0.13823538 0.08116269 -0.13009554 -0.09487689
000270 8b 16 1f bd 06 77 05 bd 02 37 6e 3c ac 2b 26 be
       -0.038839858 -0.032584213 0.014539482 -0.16227597
000280 a2 29 aa 3d ee 17 67 bd bf 7b eb bd 0f 2d 9f bd
       0.08308722 -0.056419306 -0.11498212 -0.07772266
000290 0e d8 72 3e af 1e 03 be b3 7c 5f 3e 52 81 13 3c
       0.23715231 -0.12804674 0.21824913 0.009003
0002a0 8e 09 87 3d b0 0e 4a 3e 77 d9 85 bc 84 35 e0 3d
       0.06593619 0.19732165 -0.016339047 0.10947707
0002b0 33 e1 02 3e 0d 19 21 be 6b ae 19 3e 18 ec d2 3d
       0.12781219 -0.15732212 0.15007941 0.102989376
0002c0 44 8b 8e bc 0f 6b d3 3c 28 32 07 3e b7 a1 1e 3c
       -0.017400391 0.025807885 0.13202727 0.0096821105
0002d0 4f 47 b9 bc 6d d4 84 3e 4e 8f 12 3e 27 38 a9 3b
       -0.02261701 0.25943318 0.14312479 0.0051641646
0002e0 18 41 2a be 14 19 e2 3d 53 15 5e bd 3c 07 ca 3d
       -0.16626394 0.110399395 -0.054219555 0.09864661
0002f0 03 ca db bd 42 1e 51 bc 47 04 cb bc a4 6d d8 3d
       -0.1073189 -0.012763562 -0.024782313 0.10567787
000300 14 ab 4f 3e c7 0c c2 3d 7d 47 d1 3d 77 fc 51 3e
       0.20280105 0.09475093 0.102187134 0.20506464
000310 e0 82 69 3e ff a4 f3 bc a5 c7 44 3d 97 41 a6 3d
       0.22803831 -0.029741762 0.04804196 0.08117979
000320 d1 0b 20 3d d6 33 33 3e 01 30 1e bd a9 f8 fc bd
       0.03907377 0.17500243 -0.03862 -0.12352116
000330 8d 5d 93 3d 73 9b e7 3c c0 31 24 3e f4 ac 7b 3e
       0.07195578 0.028272366 0.16034603 0.24577695
000340 b4 82 3a 3d 58 9a 2b 3e 42 27 bc 3d 69 98 56 bd
       0.045534804 0.16758096 0.09187175 -0.052391443
000350 e0 fa fd bd 3c a5 82 bc fc dc 0f be e7 06 a9 bd
       -0.12401366 -0.01594793 -0.14049143 -0.0825327
000360 fc a3 26 be 7b f8 69 bd 2c 0c 3c bd 52 6f 7d be
       -0.16273493 -0.057121735 -0.045910046 -0.24749497
000370 4e 39 de bd 69 0c 8a 3d 7b 35 15 3e 9b ea a7 3c
       -0.10850774 0.06740648 0.14571182 0.02049761
000380 69 d3 fd bc 00 82 2b 3e ae c1 b2 bd d8 fa 9a bc
       -0.030984597 0.1674881 -0.08728348 -0.01891844
000390 ca 7f 3c 3e bd f9 f8 bd 2a cf c9 3d 62 da 1a 3e
       0.18408123 -0.12157009 0.098539665 0.15122369
0003a0 b9 c1 db 3d 32 ee fe 3d 1e d9 d2 bd ce cf 3d bc
       0.10730309 0.12447776 -0.10295318 -0.011585189
0003b0 82 40 1f 3c 38 80 35 3d 41 f0 14 3e 51 6e 67 3e
       0.00971997 0.044311732 0.14544775 0.22600676
0003c0 76 3e 21 be ad a2 ad 3b 73 e2 18 bc 7c 8c 6f bd
       -0.15746483 0.0052989335 -0.009331333 -0.058483586
0003d0 fd ed 67 bc 64 da 85 bd 8a 86 11 3e 1a 6c ab 3c
       -0.014155862 -0.06535795 0.14211479 0.02092557
0003e0 a8 1f c3 bd c3 be 39 3e e8 f8 bd bd 8f b1 b7 bd
       -0.09527522 0.18139176 -0.09275991 -0.089694135
0003f0 57 10 0d bd 3c d2 19 be 9b d6 d7 bd 73 9c 2b 3d
       -0.03443941 -0.15021604 -0.105389796 0.04189725

context_encoder.2.bias f4 [16]
000000 d2 d4 60 bc b8 0f 52 3e 86 4f 2e 3e c7 c5 4b 3d
       -0.013722615 0.20513809 0.17022523 0.049749162
000010 3e 8d 35 3c cf 7d b6 bd d0 ac 10 3d 3e 22 69 3e
       0.011081038 -0.08910715 0.035321057 0.22766969
000020 67 66 19 3d d7 cf 40 3d a5 d1 30 bd 74 e7 83 bd
       0.037451174 0.04707321 -0.043168683 -0.064406306
000030 a7 4d e1 3d 56 3f 6d 3d 92 26 24 3e a9 04 ff bc
       0.11001139 0.05792173 0.16030338 -0.031130152

player_encoder.0.weight f4 [64, 22]
000000 92 d3 93 3d b4 72 ff 3d 04 c1 30 3d be 82 e4 3d
       0.07218088 0.1247305 0.043152824 0.111577496
000010 e7 93 07 3e ae 31 33 3e 63 f7 3b 3e dd 7d 60 bd
       0.13240014 0.1749942 0.1835609 -0.054807533
000020 8a 10 4f be 23 24 90 3d af ba 10 3d 41 c0 54 bd
       -0.20221153 0.070381425 0.035334285 -0.05194116
000030 ce f1 73 bd fc 8e 62 bc f6 dc 06 3e 1e fe b2 3d
       -0.059556775 -0.013828035 0.13170227 0.08739875
000040 7f b1 d1 bd c3 14 a7 bd d3 db 6f bd ad d5 e6 bd
       -0.10238933 -0.08158257 -0.05855925 -0.11271224
000050 90 41 37 3e 7c 51 bc 3d e9 ef 18 3e 1c 27 0e 3b
       0.17896104 0.091952294 0.14935268 0.0021690791
000060 a8 00 30 3d 40 6a 00 3e a3 e5 7a be 00 18 8c 3d
       0.042969376 0.12540531 -0.24501662 0.06840515
000070 42 f2 18 3d 63 66 24 be 3c 8b 42 be cd cd 77 3e
       0.03734041 -0.16054682 -0.18998426 0.241996
000080 bb 3b 17 3e c0 51 99 3d 13 1a 38 3e 5c 65 96 bd
       0.14768879 0.07486296 0.17978697 -0.073435515
000090 a9 6b 9a bd 60 4a c4 3d f3 a4 ec bc b3 00 1d bc
       -0.07540066 0.095844984 -0.028887248 -0.009582686
0000a0 9f ac 38 be e0 f8 d8 3d 1b 58 38 be 2d 09 11 bd
       -0.180346 0.10594344 -0.1800236 -0.03540914
0000b0 6b bd 45 3e db b0 b1 bd df 5b b9 bd 0a 46 d0 3d
       0.19310538 -0.08676311 -0.09050726 0.10169609
0000c0 00 bd b9 bd 86 44 3d bd d0 7b 2f 3e a4 4c cc bd
       -0.09069252 -0.046207927 0.17137074 -0.099755555
0000d0 1c 9a 28 be e9 56 18 be 81 3c 93 bd db 0d e8 bd
       -0.16465038 -0.14876904 -0.071892746 -0.11330768
0000e0 89 74 fb bd 16 c2 d4 3d a2 83 dd 3c a3 bf d4 bd
       -0.12278087 0.103885815 0.027040306 -0.10388114
0000f0 96 51 49 be 3f 49 b0 3c 01 77 e2 bd d5 0f c1 bd
       -0.19660029 0.021519301 -0.110578544 -0.09426848
000100 d3 7f 51 be 5a 57 ff 3c 1a 1b 2e be a8 51 50 be
       -0.20458917 0.031169582 -0.17002526 -0.2034365
000110 61 09 60 be 0b e6 38 3d 82 d5 08 be e7 6f 06 be
       -0.21878578 0.04514126 -0.13362697 -0.13128625
000120 5d 5e ff 3d ba 27 d2 3d 41 ea e7 3d 2c f8 7e be
       0.1246917 0.102614835 0.11323977 -0.24899358
000130 92 dc 28 be f6 8c af bd 36 df 28 3e ea 09 72 3d
       -0.16490391 -0.08571808 0.16491398 0.059091486
000140 3f 16 3d be 57 79 a7 bc b4 c6 4e be 6b d2 aa 3c
       -0.18465517 -0.020443602 -0.20192987 0.020852288
000150 40 c8 cb bd 87 fd 15 3e ac a4 82 3d b2 15 4f bd
       -0.09950304 0.14647494 0.06379065 -0.0505578
000160 b6 58 0e 3c 28 a8 4a bd 4b aa 19 3e 55 f2 db 3d
       0.0086881425 -0.049476773 0.15006368 0.107395805
000170 69 56 f3 3d 48 16 8b bd ab 33 2c 3e 5b 52 03 3d
       0.11881716 -0.06791359 0.16816585 0.032060962
000180 41 16 fc bc a0 8b cb 3d ce 37 72 3e 35 2e 85 3e
       -0.03077233 0.09938741 0.236541 0.26011816
000190 c9 19 03 3e 5f 19 b2 bd 7a f3 23 3e 7e 23 12 3e
       0.12802805 -0.086962454 0.16010848 0.14271352
0001a0 4b 6d 55 be 5c 88 85 bd c0 f3 90 bd 7d 8a 81 3d
       -0.20842473 -0.06520149 -0.070777416 0.06325243
0001b0 c4 22 22 3e a2 2b 92 bd 1d 66 aa bd e3 b7 02 3e
       0.15833575 -0.071372285 -0.08320258 0.1276546
0001c0 44 57 54 3b 84 76 7b be 5d 0b 54 3e 6c 73 28 be
       0.0032400647 -0.24556929 0.2070746 -0.1645028
0001d0 ca c6 86 bd 7a 0b 69 3d 68 4e d7 3c c5 18 64 be
       -0.06580885 0.05689571 0.026282504 -0.22275074
0001e0 e2 15 2a 3e bf f0 67 bd d6 19 7b bd 39 00 78 3d
       0.1660991 -0.056626078 -0.061303936 0.060547087
0001f0 89 5b b5 bd ce b4 a5 bd 80 c2 b6 bd 81 f3 e5 bd
       -0.088553496 -0.080911264 -0.08923817 -0.11228085
000200 4f da 86 bd 3f c8 05 be 1c a4 9a 3d 26 9a 73 be
       -0.06584608 -0.13064669 0.07550833 -0.23789272
000210 49 f8 54 be e6 ec 62 3d 4d b6 c0 3d 68 bb 31 3e
       -0.20797838 0.055401705 0.09409771 0.17356646
000220 7f ee 29 be e0 13 eb 3d 97 1f 3a 3e 08 61 f3 3d
       -0.16594885 0.114784 0.18176113 0.118837416
000230 26 5d 1d be 27 9a 86 bc 96 05 58 be 50 1c ab bd
       -0.15367565 -0.016430927 -0.21095881 -0.083550096
000240 46 c2 19 3e 0d b5 8d bd 27 20 f6 3d e7 ed 0b be
       0.15015516 -0.06919298 0.12017851 -0.13664971
000250 47 3f 74 3d 5e 3b 26 be 87 81 31 3e b1 09 2c bd
       0.05963066 -0.16233584 0.17334567 -0.04200143
000260 4d d6 8f bd 76 1f 87 be ac 5a 0e bd 4f 86 5f 3e
       -0.070232965 -0.2639119 -0.03475444 0.21828578
000270 3e cc 29 3e 72 ad fa bd 21 21 85 3d af 5a 11 bd
       0.16581818 -0.12240113 0.065004595 -0.035486873
000280 e0 08 6d be 3c 0e 6d 3e 4f c2 6b 3d 21 2c 2d bc
       -0.23147917 0.23149961 0.057558354 -0.010569603
000290 69 81 c4 bc 28 c3 48 bd 41 68 cb 3d 3d 70 8a 3d
       -0.023987489 -0.04901424 0.09931994 0.06759689
0002a0 9c 98 d2 3d 76 61 1f be 95 07 48 3e 6b 88 88 bd
       0.10283014 -0.15564522 0.19534142 -0.06666645
0002b0 08 fa 7e bd 48 5e e0 bd 7f 2b 8d 3e 6f 32 11 bd
       -0.062250167 -0.10955483 0.27572247 -0.035448488
0002c0 ad 34 ac bd 20 fd 1d bd 1c 3e 16 38 d8 b7 f9 bd
       -0.084084846 -0.038571477 3.582063e-05 -0.121932685
0002d0 41 73 3d be 6f 1b 39 3e b8 26 75 3e 16 4b 3e 3e
       -0.18500997 0.18076871 0.23940551 0.1858333
0002e0 23 47 e1 bd 2f 6a 2d 3e ea 31 52 be c1 a0 2f 3e
       -0.109998964 0.16935037 -0.20526853 0.17151166
0002f0 22 71 36 3e d3 5e fd 3d 5c 71 3a 3e 46 09 18 3e
       0.17816594 0.12371602 0.18207306 0.14847288
000300 9f c1 4c 3d 70 8f b3 3c 2d 27 8a bc d2 b3 18 3e
       0.04998934 0.021918982 -0.016864384 0.14912346
000310 5b dd b3 bd a7 88 70 bd a3 7f 49 be 02 1b 76 bd
       -0.087824546 -0.05872407 -0.19677596 -0.06008435
000320 a2 56 df bd a1 b2 59 bd 3a 0f 20 be 3e 3b 34 be
       -0.10905196 -0.05314887 -0.15630808 -0.17600724
000330 78 6e 0d 3d 59 e3 e8 3d 12 b7 38 3e fe a5 17 3e
       0.03452918 0.11371488 0.18038586 0.14809415
000340 fa 3f 0f be eb fc 65 be 1d 08 89 3d db 7d 05 3e
       -0.13989249 -0.22459762 0.066910006 0.13036291
000350 30 b9 49 be 6c f5 a4 3d 37 bb 6d 3e c6 dc 7a bd
       -0.1969955 0.08054623 0.23215948 -0.061245702
000360 9c 97 fe bd 2b ee 47 3e fe 8c 84 3d 2c 17 05 3e
       -0.12431261 0.19524448 0.064722046 0.1299712
000370 f6 51 39 be c4 47 3e 3e 90 72 be bd e2 36 90 3e
       -0.18097672 0.18582064 -0.09299195 0.28166872
000380 6d 0a d0 bd 48 71 3e 3e 6c c5 f6 3d c7 54 77 3d
       -0.101582386 0.18597901 0.12049374 0.060383584
000390 a7 8a 80 bd 04 27 3f 3e de b0 74 bd d4 09 46 be
       -0.06276446 0.18667227 -0.059738986 -0.19339687
0003a0 dd 79 f6 bd 20 9a eb 3d 34 ac c1 bd ca 61 53 3d
       -0.12034962 0.115040064 -0.09456673 0.05160693
0003b0 56 73 93 bd e6 4f 36 3e 8c 52 30 3e c0 79 0b 3e
       -0.07199733 0.17803916 0.17218989 0.13620663
0003c0 1d f1 03 be a6 11 58 be 34 5b 06 bd 93 b2 8e bd
       -0.12884946 -0.21100482 -0.03280182 -0.06967654
0003d0 49 5e 4c 3e b3 1c 46 be c1 2a c6 3d 54 15 64 3e
       0.19957842 -0.19346885 0.096761234 0.22273761
0003e0 f3 41 29 3e 07 77 99 3d d0 6d 79 be c7 13 87 3e
       0.16529064 0.07493406 -0.24358296 0.26382276
0003f0 fc d7 65 bb c5 71 68 be d5 10 31 3e 4b f6 e5 bd
       -0.0035071364 -0.2269965 0.17291577 -0.11228617

player_encoder.0.bias f4 [64]
000000 0d 23 14 bd bd 14 55 3e 66 df 47 3e f1 2f 3a bc
       -0.03616624 0.20808692 0.19518813 -0.011363969
000010 5b 19 0e be 16 5b 1f bd 72 16 d9 3d b4 9d 1b 3e
       -0.1387686 -0.038905226 0.10599984 0.15196878
000020 b8 c6 26 3e 46 38 a4 bd a4 07 27 be f0 e2 11 be
       0.16286743 -0.08018546 -0.16311508 -0.14246726
000030 81 ef 4a bc a5 1b 15 3d 0d 69 4c bd 91 86 a7 bd
       -0.012386204 0.036403317 -0.04990487 -0.081799634
000040 df d3 05 3c 3b 8a 21 be f4 90 be bd bb 53 24 be
       0.00816819 -0.15775387 -0.09304991 -0.16047566
000050 52 38 bd bc f2 7b 91 3e 92 49 c0 3d 58 eb fb 39
       -0.023098145 0.28414875 0.093890324 0.00048049795
000060 b6 8f ed 3d a3 87 1b 3e 69 68 af 3d 2e 1f 30 be
       0.11599676 0.1518846 0.085648365 -0.17199394
000070 6f 99 0f be 94 fa d4 bd 9b 14 0a 3d 26 d9 47 be
       -0.14023374 -0.103993565 0.033711057 -0.1951643
000080 9d 96 5f 3c c2 6e 82 bd 68 2c 83 3e cd 21 50 3e
       0.013646749 -0.063687816 0.25619817 0.20325394
000090 78 f2 27 3e f3 65 a5 3c 99 62 38 3c de 64 eb 3d
       0.16401088 0.020190215 0.011253976 0.11493848
0000a0 66 1a 07 be de 88 c9 bd 4d a3 ba 3c f0 c0 f0 bc
       -0.13193664 -0.098405585 0.022782946 -0.029388875
0000b0 0c 28 40 be 02 e1 d6 3d 53 90 45 3e 23 9e a7 bd
       -0.18765277 0.104921356 0.19293337 -0.08184459
0000c0 51 17 17 3e b3 ab 24 3d 95 49 fa 3c ae cd 90 3d
       0.14754988 0.040202808 0.030552665 0.0707048
0000d0 4e be 52 3e de 83 ac 3d 42 4c 97 bd 90 7e 1b bd
       0.20580408 0.08423589 -0.07387592 -0.037962496
0000e0 9f f7 27 3e 7c 25 97 3d e6 d1 78 3d c9 29 be 3c
       0.16403054 0.073801965 0.06074705 0.023213284
0000f0 15 8d aa bd 10 43 c3 bc 6a 61 54 bd 46 05 f7 3d
       -0.083276905 -0.023835689 -0.051850714 0.12061553

player_encoder.2.weight f4 [32, 64]
000000 88 ca 0f 3d de 07 c4 3d d8 55 e7 bc 20 9d 12 3c
       0.03510526 0.09571813 -0.028239176 0.008948594
000010 05 43 94 3d a5 2d 3a 3d 48 92 83 3c eb 52 f6 3c
       0.072393455 0.045453686 0.016060963 0.030068835
000020 e0 9b d4 3b 3e 98 db bd c0 e7 9d 3b 28 d3 df bc
       0.0064883083 -0.10722397 0.0048188865 -0.027322367
000030 ba 24 d5 3d 84 06 d7 3d e8 26 cb 3c a9 61 d6 3d
       0.10407396 0.1049929 0.024798825 0.10467846
000040 a0 eb 94 bd b9 aa cc 3d 86 69 dc 3d 39 9a 0e bc
       -0.072715044 0.099935 0.107623145 -0.008703762
000050 42 71 cd bd 03 f4 39 bd fa 2f 2a bd 72 40 bf bb
       -0.10031368 -0.045398723 -0.04154966 -0.00583654
000060 82 50 f5 bd f8 c5 bd 3c c0 ef 54 bd d4 17 03 bd
       -0.11978246 0.023165688 -0.051986456 -0.032005146
000070 d2 21 95 bd 80 33 d8 bc 04 af fa bd 16 b9 87 bd
       -0.07281841 -0.026391745 -0.12240413 -0.06627099
000080 00 ac 3c 3c aa 28 97 3d d0 f2 d6 3d 71 32 d1 bd
       0.011515617 0.07380803 0.104955316 -0.10214699
000090 40 df 34 3d ff 9b a0 bd 9e ed c5 bd d0 40 57 bc
       0.04415822 -0.07842254 -0.096644625 -0.013138011
0000a0 82 da 92 bd bc 1c ec bd 60 00 fe bd ba ed b5 bd
       -0.07170583 -0.11528918 -0.12402415 -0.08883233
0000b0 5e ce c1 3d 5b 97 7a 3d c9 b1 6c bd 27 32 bc bd
       0.094631895 0.0611795 -0.057786737 -0.09189253
0000c0 08 ed c4 bd 6a 2c 97 bd c4 ff 74 bd 86 6a 87 3d
       -0.096155226 -0.07381518 -0.05981423 0.066121146
0000d0 28 8e 27 3d 34 ee 5f bd 0a 3d b0 3d 24 09 9f bd
       0.040907055 -0.054670528 0.08605392 -0.07765415
0000e0 d7 bd e0 bd 62 c0 9d 3c 0c fc 9d bd 28 a7 11 3d
       -0.10973709 0.019256774 -0.0771409 0.035559803
0000f0 72 e4 d8 3d a8 20 72 bd a5 60 ba bd c7 3b 20 3d
       0.105904475 -0.059113175 -0.09100465 0.039119508
000100 4b f1 eb bd fa 3f e5 3d 01 5b ea 3c b1 a4 fb 3d
       -0.11520632 0.11193843 0.028607847 0.12287272
000110 ac b6 3a bd 07 1b 47 bd 13 fc 37 bd b9 93 b1 3d
       -0.045584366 -0.04860976 -0.04491813 0.08670754
000120 9f c2 8b 3d 44 f4 dd 3d 3b a1 b9 3c 9a d6 0b bd
       0.068242304 0.108376056 0.022659888 -0.034140207
000130 a4 b5 07 3e 00 63 aa 3b 46 86 90 bc 3c de 4e be
       0.13252884 0.00519979 -0.017642152 -0.20201963
000140 b4 cb 53 bd be cd 15 3e 1f 22 7b bd 16 7e 88 3d
       -0.05170794 0.14629266 -0.061311837 0.06664674
000150 7b b4 f9 bb 44 ac b2 3d 59 ab 38 3e f6 19 ae bd
       -0.007620392 0.08724263 0.18034114 -0.085010454
000160 b5 57 16 3c 5e 02 c3 bc 5f 8b 94 bc 75 56 17 be
       0.009176184 -0.02380484 -0.018132864 -0.14779074
000170 bb ef df 3d e2 26 87 bd 47 91 57 3c 5c 32 ad 3d
       0.10934397 -0.06599213 0.013157195 0.08456871
000180 a0 d4 3e bd 95 7b 6f 3d f4 cb 26 3d d4 ab 54 3e
       -0.046589494 0.058467466 0.04072185 0.20768672
000190 1f f5 0f 3e 4c 45 b6 3d 25 64 ec bd b2 9a 9a bc
       0.1405835 0.08899936 -0.115425386 -0.018872593
0001a0 07 2f 4e 3d db 49 fe 3c 15 f1 16 3d 58 40 c2 bb
       0.050337818 0.031041076 0.036851007 -0.0059280805
0001b0 da aa 25 3e a9 32 5b 3d 15 04 2b 3e 89 93 27 3e
       0.16178456 0.05351511 0.16700776 0.16364874
0001c0 0d 61 d3 3b 04 67 90 bd a3 fb 4d 3e 7b b0 03 be
       0.0064507783 -0.07050899 0.20115523 -0.1286029
0001d0 fd 9e 79 3d a6 32 16 be 7a 71 bd 3d c3 c0 f6 bd
       0.06094264 -0.14667758 0.092501596 -0.12048485
0001e0 98 18 e5 bb 8f d3 c1 3d d6 b6 a5 bd 3e 7a 0e be
       -0.006991457 0.0946418 -0.08091514 -0.13913819
0001f0 49 3b 51 3d de 57 22 3d 7f df e0 3d 19 59 a8 bd
       0.05108193 0.039634578 0.109801285 -0.08220119
000200 1d a2 21 bd 06 3a da bc 7b 1a 80 3d c2 2e 81 bd
       -0.039461244 -0.026638996 0.06255051 -0.063077465
000210 65 ad 90 3c 61 e7 a3 bd 0c 65 e4 bd 48 c8 f9 3d
       0.017660806 -0.080031164 -0.11152086 0.12196404
000220 a6 50 97 3c ce c7 d1 3a 89 69 96 bd 19 02 ce 3d
       0.018471073 0.0016004981 -0.07344348 0.10058994
000230 29 48 de 3d 36 66 0b bc 01 76 83 bd a6 8e c6 bd
       0.10853607 -0.008508256 -0.06418992 -0.09695177
000240 9d 7c da 3d 77 d6 d5 3d a8 76 aa 3d ca d3 f7 bc
       0.10668299 0.104412965 0.08323413 -0.030252356
000250 48 16 96 3d 06 88 11 bc 48 ea e7 3b 6b bb fa bd
       0.073284686 -0.008882528 0.007077489 -0.122427784
000260 61 c9 04 be 44 0e f7 bd e3 0a 2b be 34 1c 1a bd
       -0.12967445 -0.12063268 -0.16703372 -0.037624553
000270 16 f4 82 3d 53 ee cf bc 11 a1 b8 bd 10 44 e8 3d
       0.06394212 -0.025382197 -0.09015096 0.11341107
000280 cc 22 98 bd a2 ac e7 3d e3 65 01 3e 05 7c 1d bd
       -0.07428512 0.11312224 0.12636523 -0.038448352
000290 ce 2d f5 3c d3 01 01 3e 1d e6 ab 3d 3b f3 06 3d
       0.029929068 0.12598352 0.083935 0.032946806
0002a0 8c 56 47 3d c9 25 2e be df 33 e1 bd e5 10 41 3e
       0.048666522 -0.17006601 -0.10996222 0.18854101
0002b0 db 2b 51 3d 1d 64 41 3e 14 46 de 3c b4 50 b8 bc
       0.051067214 0.18885846 0.027133025 -0.02249942
0002c0 dc ee e4 3d df 55 27 3e 7c 26 6d 3d 6d 45 03 be
       0.11178371 0.16341351 0.05789803 -0.12819453
0002d0 9c 7d bf bc d9 cb aa bd fd e4 73 3d 44 24 e3 bb
       -0.023375325 -0.08339662 0.059544552 -0.0069318134
0002e0 09 78 9c 3d 01 38 f5 3d 71 2c 72 3d 58 6c b5 bd
       0.076400824 0.119735725 0.059124414 -0.088585556
0002f0 fc 38 ba 3d 8f 1f 79 3d 52 de a4 bd ff 9b d5 3d
       0.090929 0.060821112 -0.08050217 0.104301445
000300 a7 c5 62 3d a2 56 69 3d 9e 1e 04 be 2f 7f 29 bd
       0.055364277 0.056967385 -0.12902305 -0.041381057
000310 c5 f1 c2 bd eb 83 b3 3d 60 65 48 3e 13 ce a5 bb
       -0.0951877 0.08765396 0.19569921 -0.0050599664
000320 54 a0 37 3e 02 00 dc bc 56 3b af 3d cc cb 39 bd
       0.17932254 -0.026855472 0.08556239 -0.04536037
000330 7c 68 89 bd ff fd cf 3d 0b d4 a1 3d 98 88 cc 3d
       -0.06709382 0.10155868 0.07901772 0.09986991
000340 23 0e 17 bd 20 35 eb 3d a1 3b 1f 3e 6d 83 88 3d
       -0.036878716 0.11484742 0.1555009 0.066656925
000350 e1 c5 b5 3c f6 95 7e 3d 39 f3 bb 39 8d 31 08 3e
       0.022189083 0.062154733 0.00035848634 0.13300152
000360 f5 0a cc 3c 3b eb cd 3d cf ae e5 3d c2 64 cf 3d
       0.024907568 0.10054632 0.11214983 0.1012664
000370 26 09 52 3c 82 32 39 3e d8 9c d0 3d c6 70 c1 bd
       0.012819564 0.18085673 0.101861656 -0.09445338
000380 55 df 4b 3d 52 ef b3 bd 79 25 61 bd 8e 8d 1c bd
       0.049773533 -0.08785881 -0.054967377 -0.038220935
000390 47 65 fe 3c 14 2d 90 bc 6f cf 40 3e a7 31 44 bc
       0.031054152 -0.01759962 0.1882913 -0.011974729
0003a0 09 01 c0 ba 45 31 9c 3c 89 6a 88 3d 53 5b 21 bd
       -0.0014648746 0.019066462 0.06660945 -0.039393734
0003b0 cf fd a4 3d 8f d4 3d bd 35 3a a6 bd c0 65 e6 3c
       0.08056223 -0.04634529 -0.08116571 0.02812469
0003c0 e7 62 3f 3e 21 0c da 3d 07 fe f8 3c 98 a5 f1 3d
       0.18690072 0.10646845 0.030394567 0.117991626
0003d0 73 2a 09 3e b2 f9 28 3e 70 9c d8 3c f6 7f 35 3d
       0.133951 0.16501501 0.026441783 0.044311486
0003e0 6f 10 53 bd 5f 5c c6 bc 81 d4 c5 3d f0 85 15 3e
       -0.051529344 -0.024213968 0.096596725 0.14601874
0003f0 9f 23 50 ba e2 6f 20 3e f2 d8 32 bd 69 b7 4e 3d
       -0.0007939878 0.1566768 -0.043663926 0.050467882

player_encoder.2.bias f4 [32]
000000 e0 c3 f0 bd f1 8b 48 3c df 13 37 bd ae 96 db 3d
       -0.1175611 0.012240396 -0.044696685 0.10722099
000010 d2 c0 29 bd e3 12 7a 3d 6d bc d1 3d 65 64 0f 3e
       -0.041443653 0.061053168 0.102410175 0.14003141
000020 b4 8f b2 3c 05 e1 3d 3e 9e 18 12 bd 1b 96 e8 bc
       0.021797039 0.1854287 -0.035668008 -0.028391888
000030 07 18 c3 3d bc 1a db 3c c2 8c cb 3d c4 9d 27 bd
       0.09526067 0.026746146 0.09938957 -0.04092194
000040 93 59 fc 3d 47 2b 7f bd dc 5e 5a bd 8b d9 42 3d
       0.123217724 -0.062297132 -0.05331312 0.047570746
000050 c9 8e 94 bd bf 9e c9 bd 41 60 88 bd f4 20 3c 3e
       -0.072537966 -0.098447315 -0.06658984 0.18371946
000060 f5 97 3b 3d 95 af 00 3d e7 ad fe 3c e5 da a4 bd
       0.045799214 0.031417448 0.031088782 -0.08049563
000070 7d 43 5d bd 0e c8 5b bc c1 66 0e be af a4 1d 3e
       -0.05401944 -0.013414396 -0.13906385 0.15394853

decision_head.0.weight f4 [32, 48]
000000 0c 53 7e 3c 35 95 ff 3c 29 0a 79 bd e3 44 b3 3c
       0.01552273 0.031199077 -0.060800705 0.021883434
000010 05 67 b1 bc 93 f1 61 bc 90 8c 30 3e e6 fc 46 3e
       -0.021655569 -0.013790506 0.1724112 0.1943241
000020 87 dc cd bd c7 5b de 3d e0 fa af bc df d7 dc 3b
       -0.10051828 0.10857349 -0.021481931 0.006739601
000030 4f 1c 89 3d c7 5d 16 3d 20 ba 46 3e 4e 4e bf 3d
       0.066948526 0.036710527 0.19406939 0.09341107
000040 b3 e2 bf bd f9 bc 12 be 51 7a 08 be f7 3c f2 3d
       -0.09369411 -0.143299 -0.1332791 0.11828034
000050 80 6b 1b bd 2c 3e 4e be 14 a6 00 bd 43 a8 83 bd
       -0.037944317 -0.20140904 -0.031408384 -0.06428578
000060 7d cc 89 bd 43 05 65 3e d0 90 49 3e 56 2a 20 3e
       -0.06728456 0.22365288 0.19684148 0.1564115
000070 74 3e 46 be 81 b3 95 bd 67 c7 2a be 9b 79 98 3d
       -0.19359761 -0.07309628 -0.16677628 0.074450694
000080 3e 01 30 bd 64 2a 90 bd a2 93 68 bd 1d 72 c3 3d
       -0.042969935 -0.07039335 -0.05678142 0.0954325
000090 11 74 23 3e 23 16 ae 3d 13 ed 2f 3e ee 43 a1 3b
       0.15962245 0.08500316 0.1718028 0.004921428
0000a0 8b 02 1d bd 5a 9c 05 3c b9 62 4b bc e2 0a 08 be
       -0.038332503 0.008154953 -0.012413674 -0.13285401
0000b0 11 f5 10 be 6c f9 94 bd 77 48 70 bd 2d b5 e0 3d
       -0.14155985 -0.07274136 -0.058662858 0.109720565
0000c0 b3 0e 8f 3d 90 8f 03 bd 7a a4 4c 3e b9 0b dc 3d
       0.069852255 -0.032119334 0.19984618 0.107444234
0000d0 38 38 b2 bd 47 55 0a 3e 7d 79 48 3e 66 ac 18 bd
       -0.08702129 0.13509093 0.19577594 -0.037273787
0000e0 63 2b fc bd d2 a5 8b 3c 1f 5e 82 3b 37 c6 22 3d
       -0.12312963 0.017046843 0.0039785053 0.039739814
0000f0 60 b3 5d bd 1f 3c db 3d 22 bb 3c 3e 7c 38 06 bd
       -0.054126143 0.107048266 0.1843076 -0.03276871
000100 85 f6 3e bd ac 44 4a be 43 a8 e4 bc e4 05 2c 3e
       -0.046621818 -0.19752759 -0.027912265 0.16799122
000110 c8 3c 6d bd 5f 9a 9d bd bb 39 3f 3e 92 ae 52 3d
       -0.057919294 -0.076954596 0.18674366 0.051436014
000120 f5 ca 1d ba cf da 21 3d 2b c4 37 3d c8 d4 5c 3c
       -0.00060193177 0.039515313 0.044864815 0.013478465
000130 67 40 83 be 45 c4 85 3d d0 10 25 be 90 ab 95 3d
       -0.25635073 0.06531576 -0.16119695 0.073081136
000140 cb 6d a0 3d f7 8f b9 bb 06 57 63 bd e7 2b 8d bd
       0.07833441 -0.005662914 -0.055502914 -0.06893139
000150 2a 69 ad bd 19 be 06 bd 5e 1d d7 bb 9f 70 50 3e
       -0.08467324 -0.032896135 -0.00656478 0.20355462
000160 a4 53 4c be a7 ec a9 3b 9f 78 08 be 8e ca 21 be
       -0.19953781 0.005185682 -0.13327263 -0.15799925
000170 82 13 99 bd c8 8c 63 bc 33 66 28 3c 39 bc 11 3e
       -0.07474424 -0.013888545 0.010278272 0.14231957
000180 8a 06 c2 3c f7 e0 f1 3d 34 1b a0 3d 21 c7 09 3e
       0.023684759 0.11810487 0.078176886 0.13454868
000190 4e 77 f1 bb c8 2c 53 3e fe 8d 19 3e 59 a7 fe 3d
       -0.0073689586 0.20622551 0.14995572 0.12434263
0001a0 dd 83 9d 3d d4 ef 0a be 0a b4 cd bd 63 47 48 3d
       0.076911665 -0.1356805 -0.10044105 0.048896205
0001b0 8b 8a 5d 3d d3 bd 2e 3e d3 2d ae 3c 9e 55 ee bc
       0.054087203 0.170646 0.021262085 -0.02909356
0001c0 42 fd bd 3d cc 81 b9 3d e7 24 5a 3e 82 ff 08 be
       0.09276821 0.0905796 0.2130314 -0.13378718
0001d0 1d 5d c4 bd 31 b2 a9 3d 36 d0 0a 3d d7 33 31 be
       -0.095880724 0.082859404 0.03388997 -0.17304932
0001e0 5a f9 b3 3c 11 fb 15 3d db 08 6f bd 7a 20 31 3e
       0.021969486 0.03661639 -0.058358055 0.17297545
0001f0 90 1e 45 3d 0f 92 ba bd 6e 03 28 3d 66 4c 2e be
       0.04812485 -0.0910989 0.041018896 -0.17021331
000200 c5 30 34 be b7 0b 3f 3e c2 ca ee 3d 5a e0 0b be
       -0.17596729 0.18656813 0.11659767 -0.13659802
000210 7f bb 5c 3e 55 2d 99 3c 45 63 9e 3c be 57 e8 bd
       0.21555899 0.018698374 0.019334445 -0.113448605
000220 d5 21 36 3e 63 dc 39 be e5 05 3d 3e 94 03 01 bd
       0.17786343 -0.18150477 0.1845928 -0.031497553
000230 d0 c2 17 3e d3 66 da bd 4b 42 20 3e 5e aa 48 be
       0.14820409 -0.106641434 0.15650289 -0.1959624
000240 15 50 fb 3b 65 43 94 b8 3c b3 55 bd 40 03 90 bd
       0.0076694586 -7.069743e-05 -0.052172884 -0.0703187
000250 46 e5 25 bd 74 5b 88 3d ab ac 17 3e 46 4d 95 3c
       -0.040501855 0.06658068 0.14811961 0.018225323
000260 bd 6f 0c 3e aa 14 df bd dd 6b 97 bd 20 5e 58 bc
       0.137145 -0.10892613 -0.0739362 -0.013206035
000270 6a 79 f0 bc 28 2e 9a 3d aa 59 24 3e 7e b6 3e 3d
       -0.02935477 0.07528335 0.16049829 0.046560757
000280 e6 01 eb bd 95 96 ac bd 34 6f 4d bd 03 e2 23 bd
       -0.114749715 -0.08427159 -0.05015488 -0.040010463
000290 45 21 0e 3e 0d 0c eb 3d 0b b7 0a 3e 73 c6 a1 3d
       0.13879879 0.11476908 0.13546388 0.07899179
0002a0 e9 3b 61 bc 07 fa 69 bc a3 ee a2 3d cb 95 d9 3d
       -0.013747194 -0.014280803 0.079556726 0.10624274
0002b0 cd 1d a1 bd 58 6a c4 3c 4f 61 44 be ee ab af 3d
       -0.07867012 0.02397649 -0.19177745 0.08577715
0002c0 b0 52 ef 3d 42 34 30 be 5d d6 e2 3b 16 d5 8f bd
       0.11685693 -0.17207435 0.0069225268 -0.07023065
0002d0 70 b6 d0 bd 42 ac 3b 3e 88 4c 2d 3e fd 95 37 3d
       -0.10191047 0.1832743 0.16923726 0.044820774
0002e0 16 c5 09 be 23 03 c2 3b 8e 07 84 bd 37 7e d3 bd
       -0.13454089 0.005920784 -0.064467534 -0.10326808
0002f0 19 d0 d2 3d 31 a3 fb bc 2d da a5 3d 39 bf b1 3d
       0.10293598 -0.030717464 0.08098254 0.08679051
000300 61 22 16 3c 71 e5 2e 3e ed 3c 06 3e b8 fd 5f bb
       0.00916347 0.17079712 0.13109179 -0.0034178328
000310 7b 5a c8 bd 08 ba 77 3c c2 b4 ec 3d ab fc 39 3e
       -0.09782883 0.015120037 0.11557914 0.18162791
000320 05 4d 40 bd 31 fb 53 bd 04 42 0c be 60 ac c1 3d
       -0.04694845 -0.051753227 -0.13697058 0.09456706
000330 d3 65 11 3e 79 a5 18 3e 55 38 cb bc ec 08 da 3d
       0.14198999 0.14906873 -0.024807135 0.10646233
000340 ba fa 1a bd f3 de 81 3c fb a2 18 3d ad 89 e6 bc
       -0.037836768 0.01585338 0.037264805 -0.02814182
000350 5d 1b eb 3d e1 48 4c 3c 7b b0 92 bc a6 a7 56 3e
       0.114798285 0.012468548 -0.017906418 0.2096239
000360 61 ea b6 3d 91 e2 58 3e a1 d8 f1 3d 0e 7c f5 bd
       0.08931423 0.21180178 0.11808897 -0.11986552
000370 57 c0 12 be b9 0a 37 3d 4d 49 27 be 48 6d 6d 3e
       -0.14331184 0.04468796 -0.16336556 0.23186219
000380 73 c0 63 3e 9f fd 92 bd 41 06 22 be bc 71 fe 3d
       0.22241382 -0.07177281 -0.15822698 0.12424037
000390 91 c4 a3 3d 82 70 dc 3c 48 f5 99 bc de 54 78 3d
       0.079964764 0.026909117 -0.018793717 0.06062781
0003a0 5d b7 03 bd 16 e8 15 bc f2 d7 e3 3c c1 3d 9e 3c
       -0.03215729 -0.009149572 0.027812932 0.019316556
0003b0 46 3c d3 bd b3 22 c5 3c 14 37 d4 bd 95 af 5a 3e
       -0.103142306 0.024064397 -0.10362068 0.21356042
0003c0 6a 5b 18 3e 61 0e d8 3d 65 cf 4e 3d ba 65 13 3d
       0.14878622 0.105496176 0.050490756 0.035985686
0003d0 5c 99 0e 3e 8e fd fd 3d 5d 18 fe 3b 34 23 ef 3d
       0.1392569 0.12401877 0.007754369 0.11676636
0003e0 8e a3 6a bd 77 8d d3 3b 78 4e b7 bd e0 ef 88 bb
       -0.057284884 0.006456073 -0.089505136 -0.004178986
0003f0 c8 d5 f6 3b 23 8f f5 bc 12 4d 28 3e 4b 82 08 3e
       0.007532809 -0.02997548 0.1643565 0.13330953

decision_head.0.bias f4 [32]
000000 0a 5c 19 3e ad 6a f5 3d a7 4a e8 3c 01 1d 80 bc
       0.14976516 0.119832374 0.02835591 -0.01563883
000010 27 fe 53 bd 8d f8 34 3e 7d c0 0f bd 9a 81 98 bd
       -0.05175605 0.1767294 -0.03509568 -0.074465945
000020 c7 d1 33 3e cd 54 0f bd 07 4b 11 3e 92 6f 2a bb
       0.17560492 -0.03499298 0.14188777 -0.0026006442
000030 60 60 f5 3d 22 24 aa bd 6a b1 01 3e 08 80 20 3e
       0.11981273 -0.08307673 0.12665334 0.1567384
000040 3e 3f 04 bb 34 c2 b1 3d 17 5d 2e 3d c4 9c ce bd
       -0.0020179297 0.086796194 0.042569246 -0.100884944
000050 c3 2d fb 3d 95 6a ea bd 32 09 4a bc 09 e2 cc bd
       0.12264588 -0.1144611 -0.012331294 -0.1000405
000060 e9 38 ec bc 30 62 3a bc a4 7f 64 bd b3 66 15 be
       -0.02883573 -0.011375949 -0.05578579 -0.14589958
000070 c7 b7 86 bd 1d fb ea bd 5a fb e0 bd f5 e6 02 be
       -0.065780215 -0.11473677 -0.109854415 -0.12783416

decision_head.2.weight f4 [1, 32]
000000 a4 0d 6d be 5e 4a 2a be fc 24 81 3e 3b c1 87 be
       -0.23149735 -0.16629931 0.2522353 -0.2651461
000010 75 dd 5b be dc 60 82 be 4a f9 97 3e ac 5b 1d be
       -0.21471198 -0.25464523 0.2968238 -0.15367001
000020 f6 47 0f be 47 ca 4d 3e c8 65 60 be 95 82 4e be
       -0.13992295 0.20096694 -0.21913826 -0.20167
000030 67 9e 88 3e dc 69 49 3e 7a cb 71 be 10 a0 1f be
       0.2668335 0.19669288 -0.23612776 -0.15588403
000040 59 35 8e 3c 0b d6 b0 3d fb 35 4a be 65 02 64 3e
       0.017359423 0.086345755 -0.19747154 0.22266538
000050 a0 22 10 3e 36 ef 19 be 17 6e 33 3d fa 00 91 be
       0.14075708 -0.15032658 0.04380616 -0.28321058
000060 80 fc ff 3d 30 6a 96 be 64 11 a6 bd c5 7c 1a be
       0.124993324 -0.2937789 -0.08108786 -0.15086658
000070 9d 2d 51 be f5 f3 64 be c2 ce ee 3d 0f 9b 63 be
       -0.20427556 -0.22358687 0.1166053 -0.22227119
