hierarchical_agent_2023_trained.pth (torch, 112545 bytes, 50 tensors)

network.0.weight f4 [64, 10]
00000000: c005 1fbe 311d 293e 573c 3e3b a970 9b3e
00000010: 309a 64be 5bd8 613d a7d2 94be 0412 a9bc
00000020: eb06 603e caa5 61be 3b1a b13e 7f72 343e
00000030: de5a 733d 8201 9f3e 2b56 3b3d 22b1 973e
00000040: 3d10 c23e da67 0b3d f856 a23d b5eb 57be
00000050: 8062 2dbe 7d11 f8bd 573e 1bbe 5150 51be
00000060: f867 ea3d 05ed a0be 130c 413e e043 88be
00000070: 8706 a2be 3243 01be 7a6b 25be 343d 923c
00000080: 8056 463e 6b9a b1bc ce67 3fbe ab66 f03c
00000090: 4272 413d bb5c 6ebd 1399 b5be a42b 103d
000000a0: d989 56be 4606 99be 270b 31be 2fc6 c63c
000000b0: aee7 413e c6ab f53c 7b85 253e 6b08 a9bd
000000c0: b501 233d 1a8a 90be aeb3 983d a8b0 9bbd
000000d0: 4864 1a3d dcde 2abe 10e4 013e 7141 3bbe
000000e0: b696 54be 3184 a2bc e824 273e 5e5c 63bd
000000f0: f1ba b0be 68a1 843e 9aa5 8ebb ee15 93be
00000100: ed29 893d 4b29 6dbe cfb2 3e3e 6524 853e
00000110: 1e16 f6bd dfd7 01be 4689 edbd 6121 443c
00000120: 7f06 83bd bd94 7a3e 1365 eb3d 9e6a 88be
00000130: be36 87be 4863 2f3c 75c9 093e 6b9e 7bbe
00000140: 92fa 00be 0328 113e 344b 60be 3cec 98ba
00000150: a4d6 20be 78c4 953d fa45 e73d c48e 73be
00000160: 2637 0b3c 62f4 c03c b484 ccbd c858 ebbd
00000170: 54e4 d33d d633 603e 8d43 dbbd bb0c a63e
00000180: afc1 79bc b6d7 753d 252d b53d 24ff 143d
00000190: 9aee 393d 5d22 57be 3307 72be 244f 85bd
000001a0: b171 88bc 7dcd 01bd 9c3e 18bd 26e3 1cbe
000001b0: 65f8 4fbe 55dc 903e 77fd 573e 803c 373e
000001c0: 1266 d63b 3377 04be be6f 603e 64e2 62be
000001d0: df25 923e fea2 6c3e 1ada 7cbe a0ae 17be
000001e0: eb92 28bd 0a03 533d 464b 823e 0d8a 513e
000001f0: 6f75 31be 557b 57be 755e 2cbe 06aa 353e
00000200: 5a29 a4be 24ad 843d 2aad 42be cbce 6ebe
00000210: a007 6c3e 8eed 883e 8da0 0ebe 0f21 93be
00000220: 835e b93d 19c6 eabb f0c2 843d edf5 2fbe
00000230: d1ab 753e 5382 d03d bae0 6e3e 41c4 b53e
00000240: f4d3 37be 3594 da3e 22a9 843e ecd0 693e
00000250: e47d 9f3d a57b 803e 1937 c23d 9c79 b9bd
00000260: 1861 223d 27c7 4e3e e8ea 38bd 3618 e83b
00000270: c249 193e cc8f e5bd 0906 00be 7009 babc
00000280: 10c7 133e 48f5 6dbe 4417 863e 2104 533e
00000290: 6ee1 213e f61d 143d 6d3d 60be e948 973c
000002a0: 0dff 2cbe be85 90be 98ac 25be 7975 47bc
000002b0: d571 6c3e abd9 b43d 5db7 a5bd 69bc 923e
000002c0: fd02 8b3d 6f8b 4ebe cb35 38be acb0 fabd
000002d0: eff0 82be b375 063e 56c7 75be 8ced 703e
000002e0: a457 3abe 2d5d 82be 65d6 09be dc63 6dbe
000002f0: 45eb b7bd bc6b 3cbe 0dad 42be 7e2e 85bc
00000300: 5d40 9cbc 74da 533e bae2 40be 2e59 803e
00000310: 1ed1 c6bd 5511 e1bd 66fb 98be e273 52bd
00000320: e2ed 8f3e 6292 b83d 075c 64be dc97 4a3e
00000330: 601b f7bb 88d1 713d ac9f 40be 2a9b 84bd
00000340: 9189 023e 1240 05bd 9f00 f83e 8cef b93d
00000350: a6db 513e f8ed 03be 9a10 97be 2c81 003f
00000360: b946 093d 5de3 ae3e ce41 0bbe efb4 163e
00000370: 6f03 253d 5b16 b43d bd26 a03e f1bd 75be
00000380: 6397 c83d 8c7c 623e fc4c 5abd 3e55 fd3d
00000390: e7cd 153e 0d43 9b3d d05e 083e 7601 cebc
000003a0: abea 0abe 5392 8fbe 2173 38be 342a 52bc
000003b0: 9d75 8ebe 02db 9ebd c701 98be 20f2 933e
000003c0: ce83 013f 9d6e fd3d 8639 af3e a3d4 be3e
000003d0: b29d 2b3e 2f1d c73b 61bb 393e 22cf d73d
000003e0: fdaa 4ebd 2785 ac3d 8bac 9a3e f840 ff3d
000003f0: 881b cc3e ed14 803e 7750 5fbd 90e5 98bd
-0.15529537 0.16515042 0.0029027665 0.3035939 -0.22324443 0.055137973 -0.29066965 -0.020638473
0.21877639 -0.220359 0.34590325 0.17621802 0.05941283 0.31055838 0.045736473 0.2962733
0.37903014 0.034034587 0.07926744 -0.21086009 -0.16932106 -0.121127106 -0.151605 -0.20440795
0.11445612 -0.31430832 0.18852262 -0.26614285 -0.31645605 -0.12623289 -0.1615428 0.01785145
0.19368935 -0.021680078 -0.18691942 0.02934583 0.047228105 -0.058193903 -0.3546835 0.03519787
-0.20951022 -0.298876 -0.1728941 0.024264423 0.18936035 0.029989135 0.161642 -0.08253559
0.03979655 -0.28230363 0.07456146 -0.07602054 0.037693292 -0.16686577 0.12684655 -0.18286683
-0.20760617 -0.019838424 0.16322672 -0.05550801 -0.34517625 0.25904393 -0.0043532373 -0.2872767
0.0669745 -0.23160283 0.18622898 0.2600433 -0.12015937 -0.12680005 -0.115984485 0.011970849
-0.063977234 0.24470802 0.11493888 -0.26643842 -0.26408952 0.010704823 0.13455756 -0.2457215
-0.12595585 0.1417542 -0.21903688 -0.0011667083 -0.15706879 0.07312864 0.11292644 -0.2378493
0.008497035 0.02355403 -0.099862486 -0.11491543 0.103462845 0.21894774 -0.10706244 0.32431588
-0.015243932 0.06002017 0.08846501 0.036376134 0.045393564 -0.21009202 -0.23635559 -0.065092355
-0.016655775 -0.03169011 -0.037169084 -0.15321025 -0.20309599 0.282931 0.21092783 0.17894173
0.0065429294 -0.12936096 0.21917626 -0.22156674 0.28544518 0.23109052 -0.24692574 -0.14812708
-0.041155737 0.05151657 0.25448054 0.20462818 -0.17329954 -0.21043141 -0.16832907 0.1774064
-0.320628 0.064783365 -0.1901137 -0.23321073 0.23049784 0.2674374 -0.13928433 -0.2873616
0.0905123 -0.0071647284 0.06482494 -0.17183657 0.23991324 0.10181107 0.23327914 0.35501292
-0.17951947 0.42691198 0.25910288 0.22833604 0.077876836 0.25094333 0.09483165 -0.09056398
0.039643377 0.20193158 -0.0451459 0.0070829643 0.14969543 -0.11209068 -0.12502302 -0.022709578
0.14431405 -0.23238099 0.26189625 0.20607044 0.15808651 0.036161385 -0.21898432 0.018467383
-0.16894169 -0.28227037 -0.1617912 -0.012174004 0.23090298 0.08830579 -0.080916144 0.2865937
0.06787679 -0.20170377 -0.1798927 -0.12240729 -0.25574443 0.13130836 -0.24001822 0.23528117
-0.18197495 -0.25461712 -0.13460691 -0.23182625 -0.08980421 -0.18400472 -0.19011326 -0.01625752
-0.01907366 0.20688802 -0.1883649 0.2506804 -0.09707855 -0.10989634 -0.29879302 -0.051380046
0.28111178 0.09012295 -0.2230073 0.19784492 -0.007541105 0.059037715 -0.1881091 -0.06474908
0.1274779 -0.032531805 0.48437974 0.09078893 0.20493945 -0.12883747 -0.29504853 0.501971
0.033514712 0.3415784 -0.13599321 0.14717458 0.040286478 0.087933265 0.31279555 -0.23998238
0.097945 0.22117823 -0.053296074 0.12369774 0.14629327 0.07581148 0.13317418 -0.025147181
-0.13566081 -0.28041324 -0.18012668 -0.012827445 -0.27824107 -0.07756616 -0.29688856 0.28895664
0.50591743 0.123746134 0.34223574 0.37271604 0.16759375 0.006076477 0.18137886 0.10537554
-0.050456036 0.08423834 0.30209765 0.12463564 0.39864755 0.25015965 -0.054520097 -0.074656606

network.0.bias f4 [64]
00000000: ab89 4ebe 3213 363e 570f 9ebe 4684 90bd
00000010: d16d a4be a025 babd 48d2 3bbd 524f 85bd
00000020: c06d 7d3d e199 963e ada7 d2bd 9ab4 473d
00000030: 92aa 5c3e be90 bebc bf83 8f3e 3a7b 44be
00000040: 6ba7 b1bc 1bef 97be 6019 3fbe 8b6b 9fbd
00000050: c90c 4abe da84 d83d 0924 85bd 7079 25be
00000060: 125e 753e e21a 6e3e 4258 93bd be29 84bd
00000070: 9a94 5bbd 7e2d b3bd eff9 23be 59c2 823d
00000080: f01b 3d3e 03ac 8e3e db2c 0abe 6557 dbbd
00000090: 8e68 d3bd db50 003e 7ad3 21be 5371 4d3e
000000a0: 1a8e b03e 8232 adbd 3d81 7bbd ddf6 3cbe
000000b0: bdd0 983d 53a7 4bbd c64e 86bd af0d 703e
000000c0: 3598 b1bd ad0f 1b3d 9644 8e3a 4af6 92bd
000000d0: 918b cc3d 4b84 a63c 525a 3abe 723c 5fbd
000000e0: 6acc 98be e2f4 babd 3c29 0b3d d421 833e
000000f0: f585 84be bd58 5fbe 2f56 0c3e c152 ac3e
-0.20169704 0.1778076 -0.30871078 -0.07056479 -0.32115033 -0.09089208 -0.045854837 -0.0650927
0.061872244 0.29414275 -0.10285888 0.04875622 0.21549442 -0.023262378 0.28030202 -0.19187632
-0.021686276 -0.2967461 -0.18662024 -0.07784184 -0.1973144 0.105722144 -0.06501014 -0.16159606
0.23961666 0.23252442 -0.07194568 -0.06453274 -0.053608514 -0.08748911 -0.16013311 0.06384725
0.18467689 0.2786561 -0.13493674 -0.107100286 -0.103226766 0.12530844 -0.15803328 0.20062761
0.34483415 -0.08456899 -0.061402548 -0.18453546 0.07461689 -0.04972012 -0.065579936 0.2344272
-0.08671609 0.037856746 0.001085418 -0.07175882 0.09987558 0.020326754 -0.18198517 -0.054501005
-0.29843456 -0.09128739 0.03397487 0.25611746 -0.2588345 -0.21811195 0.13704751 0.33656886

network.2.weight f4 [32, 64]
00000000: 08c9 00bd 8f58 ba3d e1c2 693d 60d1 c4bc
00000010: dfa4 a83c ce15 94bd 0935 debd 5eae ebbd
00000020: 4c05 103d c359 5f3c e7ea ebbd ab9b 7bbc
00000030: 9e14 663d 1af5 fdbd e483 813d 937b 93bc
00000040: 9cef 14bd f822 a83d e6c8 b03d 2aa3 ed3d
00000050: 9d6d c2bc ef8d f4bd efa8 a1bd 30a6 0ebc
00000060: f5c4 d8bd 9373 dabc 1b32 8f3c 061b fb3d
00000070: 9896 aebd 12ce af3c f4d7 7a3c 240e 303d
00000080: 5a24 243c c6c1 95bd 62ce c9bd 35d5 c73d
00000090: e2e8 cbbd 4881 bf3c d2d1 a93d ac1b e5bd
000000a0: c3d1 8fbd a289 533d a0b6 833d a8fb 643d
000000b0: 01f3 adbd 00a2 eb39 b5d8 34ba 076d b23d
000000c0: c98a a4bd feb1 be3d 6069 c0bc 60b8 9d3b
000000d0: 3b58 27bd ca04 b23d af03 833c d194 babd
000000e0: 4c0f 923d f6ab bebc 096f c53d 4d10 ffbc
000000f0: c0a2 083b bc22 f4bd 3063 07bd 60a3 b3bd
00000100: 8021 d23a 28d7 b1bd 14f1 8b3d f668 7b3d
00000110: bf09 a73d d0d2 18bc de0a 9a3c 20c9 c13c
00000120: 4075 813d 9b0b 333d b8c5 563d 4422 d3bd
00000130: 2b57 a13c a971 cf3d 5054 03be 2aaf b3bc
00000140: 7722 c63b 9238 973d 5027 943d 80b9 4dbb
00000150: 0d3b d83c 558b 0dbd 41f5 5bbc 2a75 cf3d
00000160: d2e9 07bd 51a2 843d 64b9 0dbd 4410 0bbd
00000170: 02ec dbbd aafc abbd b0ae 5ebd 39f4 593d
00000180: 0e9a cebd 1a11 c9bd 04a0 abbd f2fd 733d
00000190: 543f 4e3d bb01 13bc cacd ffbd bd34 44bc
000001a0: 3697 923d 485e 3fbd 5650 813d 2ce6 f03d
000001b0: 70ba 4b3d 0a2a 93bd 47e1 303d 3d4f debd
000001c0: e136 7d3d 8829 3bbd 58e7 81bd ac2c 903d
000001d0: f957 52bd 2880 a73d 5a11 bf3d 857b d9bd
000001e0: 5c9b b1bd 44b6 683c 314d 753a 3685 7f3d
000001f0: 588e 28bd 401f b9bb 64fc 5bbd 3da4 acbd
00000200: 10b9 853c dc66 d13d b033 56bd 1681 e2bd
00000210: ccc0 b4bd 9467 88bd bc7e fd3d 80ca bc3a
00000220: 0a04 c4bd 74e3 5fbd d82b 72bd 7453 f7bd
00000230: 1813 a03d d01c 513c 3645 acbd 4e26 f83d
00000240: 8293 a4bd 20d0 2d3d 6068 7e3d ec78 57bd
00000250: 7c52 1e3d a0d0 bebc 18fd 8cbc 58b2 263d
00000260: 0097 a9bc 9ad9 86bd 7a3e d5bd 3258 a7bd
00000270: a2d6 98bd 1051 6a3c f827 f7bc 58b2 57bd
00000280: 34b0 b2bd d03f 68bc f4d8 c43d 1a22 993d
00000290: e461 8bbd 0082 293b 78f3 17bd 2693 b5bd
000002a0: 147b 733d b42f 263d e051 2ebd de20 d7bd
000002b0: 6090 953b dea9 91bd c0d0 ad3d 1649 d53d
000002c0: f8cb b7bc 00e7 8dbd 6ee0 9d3d 586c 7abd
000002d0: 86f6 b73d 8cd7 88bd 30ff 3e3d 901d 4fbd
000002e0: 1864 c1bc 302b cdbd a27b bbbd 14df 12bd
000002f0: c03b d43c 8618 eb3d 6884 113d 80b6 adbd
00000300: 083f f1bd 70f0 c7bc 5c89 b2bd 2056 96bc
00000310: a8d3 d1bd 762e f63d 5851 fabc 80f9 4d3d
00000320: 30e2 c5bc 60f2 d63d 04fe 8d3d 98a4 8abc
00000330: 80cc 21bb 403d 7a3c 1203 803d 3872 c3bc
00000340: 300d 9d3c 886f b13d 7244 cdbd c03c 0ebc
00000350: fc83 e6bd 9890 2cbd 3a1b aebd 0012 80ba
00000360: c0ef 3dbb 32e5 debd 4c41 edbd c03f 64bc
00000370: 0855 73bd 40ab 23bb 00d9 9a3b 18bd 96bd
00000380: 1673 ccbd 12c6 a0bd ccef 003d 809a 493b
00000390: 54cd 9bbd 5aaa a2bd cc7a 7fbd 80bc 34bd
000003a0: 98c8 e6bd 30fc bdbd 70c4 c83d 003d 403c
000003b0: 10d0 8cbd 929c 93bd a0f4 dc3d a228 89bd
000003c0: c8ab 193d 90aa 6bbc 2e5c be3d f402 04bd
000003d0: 8c22 07bd f4d2 e43d 6e31 a73d 4073 a3bd
000003e0: c0dc 933d 04af bb3d 3062 53bc 3053 c1bd
000003f0: 4452 f43d 565f d33d 68d8 933d 349f 1e3d
-0.03144172 0.090989225 0.057070617 -0.024025619 0.02058643 -0.072307214 -0.108499594 -0.11507867
0.0351613 0.013632241 -0.115194134 -0.015356938 0.056172006 -0.12400265 0.06323984 -0.01800326
-0.03636132 0.08209795 0.08632068 0.11603387 -0.023733908 -0.11941134 -0.0789355 -0.008706614
-0.105844416 -0.026666438 0.017479947 0.12261014 -0.08524817 0.021460567 0.015310276 0.042982236
0.0100184325 -0.0731235 -0.098538175 0.09757463 -0.09956528 0.023377076 0.08291973 -0.111869186
-0.07022431 0.05164493 0.06431317 0.05590406 -0.08493615 0.00044943392 -0.0006898747 0.087122016
-0.08034284 0.09311293 -0.023487747 0.004813239 -0.040855628 0.0869232 0.015992967 -0.09110416
0.07131824 -0.023275357 0.09640319 -0.031135703 0.002084896 -0.119206876 -0.033053577 -0.08771396
0.0016031712 -0.08683616 0.068330914 0.061379395 0.08156156 -0.009327605 0.01880401 0.023655474
0.06321192 0.04371224 0.052434653 -0.1030927 0.019694885 0.10129101 -0.12825131 -0.02193411
0.006046589 0.07383837 0.07234061 -0.0031391084 0.026395345 -0.034556706 -0.013425172 0.10129769
-0.033181973 0.06476272 -0.03460063 -0.03395106 -0.10738374 -0.08397801 -0.054365814 0.053211424
-0.10087977 -0.09817715 -0.0838013 0.059568353 0.050353363 -0.008972581 -0.12490423 -0.011975464
0.071577474 -0.046720773 0.06314151 0.11762652 0.049738348 -0.07185753 0.04318359 -0.10854957
0.061819915 -0.045693904 -0.063429534 0.070397705 -0.05135343 0.08178741 0.093294814 -0.106192626
-0.086722106 0.014203612 0.0009357511 0.0623829 -0.041151375 -0.0056494772 -0.053707495 -0.084297635
0.016323596 0.10224697 -0.052295387 -0.110597774 -0.088258356 -0.06660381 0.12377688 0.0014403611
-0.09571083 -0.054660276 -0.059123844 -0.12076464 0.07816142 0.012763217 -0.084116384 0.12116681
-0.080359474 0.04243481 0.06211126 -0.052605554 0.038652882 -0.02329284 -0.017210528 0.040697426
-0.020701885 -0.06584473 -0.10412307 -0.08171119 -0.07462813 0.014301553 -0.030170426 -0.052660316
-0.08725014 -0.01417537 0.09611693 0.074772075 -0.068057805 0.002586484 -0.037097424 -0.08865957
0.05944355 0.040572837 -0.04255855 -0.10504316 0.00456433 -0.07112478 0.084870815 0.10414331
-0.022436127 -0.069288254 0.07708822 -0.06113848 0.089825675 -0.06681737 0.046630085 -0.050565302
-0.023607299 -0.10018003 -0.091544405 -0.035857275 0.025907397 0.11479287 0.035526663 -0.08482075
-0.117796004 -0.024406642 -0.087176055 -0.018351614 -0.10245448 0.120205805 -0.030556366 0.05028677
-0.024155706 0.10495448 0.06933215 -0.016924188 -0.0024688542 0.015273392 0.062505856 -0.023858175
0.019171327 0.08663851 -0.100228205 -0.008681476 -0.11255643 -0.042130083 -0.08501287 -0.000977099
-0.0028982013 -0.10883559 -0.1158472 -0.013931215 -0.059407264 -0.00249739 0.0047255754 -0.073602855
-0.099828884 -0.07850279 0.031478688 0.0030762255 -0.076075226 -0.07942648 -0.062372968 -0.04412508
-0.11268729 -0.092766166 0.098030925 0.0117332935 -0.06875622 -0.07207598 0.10788846 -0.06697203
0.03751734 -0.014383927 0.09294926 -0.03222938 -0.03299193 0.111730486 0.08163725 -0.079809666
0.07219839 0.09164241 -0.012901828 -0.09439695 0.119297534 0.10320918 0.072190106 0.038726047

network.2.bias f4 [32]
00000000: 65ea 8f3d 036f 963c be0b aebd e0ed e9bb
00000010: 75fa bc3d 8acf f9bc dcac 803d 34c5 a53d
00000020: 9776 f03d 6aa2 edbd e7ac 29bd cf37 cabd
00000030: 451c 303e 3656 c43a 401e ab3d 9ae0 bbbc
00000040: 3e0b 64bd d3d7 2d3e ada0 47bd def2 ce3d
00000050: bcaf 13bd 34ab f8bd 4864 763c bf54 23bb
00000060: 6698 073e d309 ecbc 1d5b babd e18f 213c
00000070: 1917 9b3d 6aea 08be d8ab 473c 6cab 02be
0.07027129 0.018363481 -0.084983334 -0.0071389526 0.092274584 -0.03049447 0.0628297 0.08094254
0.11741369 -0.11603244 -0.04142466 -0.09873926 0.17198284 0.0014979306 0.08355379 -0.022934247
-0.055674784 0.16976862 -0.048737217 0.10104917 -0.036056265 -0.121420294 0.015038557 -0.0024922339
0.13241729 -0.028813278 -0.0909941 0.009860964 0.07572765 -0.13370672 0.012186967 -0.12760705

network.4.weight f4 [4, 32]
00000000: adac 8c3d 102b c83d 42a3 0cbe f1b6 23be
00000010: a3b6 24be f3fe d03d 8e0b 09bc 3368 54be
00000020: 8e48 0bbe 1bf9 2ebd 931a 1ebe 4f26 b03d
00000030: b841 82be 137f 263d d348 503d 4fd7 d63d
00000040: 6fcd 93bc 9219 9fbe 57c9 1c3e 2019 ce3b
00000050: 8c7a cfbd e94b 0b3d 646d 07be 2f6e 14be
00000060: 7ed5 59be 8ca0 17be df18 763d 2346 d2bc
00000070: 2b00 14bd 979d 813d 0b03 153e 0cbe 09bd
00000080: efc9 523d e3fe f3bd ba7c 1139 7664 f93d
00000090: 7930 cdbd 97a5 0e3e 93dd 99bd 856c 863d
000000a0: 18fa de3d 7a90 a5bd 5a43 783d a48a c13d
000000b0: 81db 783e e626 fb3d 8d13 c8bd 3316 b3bd
000000c0: e8ae 8d3d 9e22 eb3a 20bc 953c 01f5 e93d
000000d0: 4475 d63d 328e f83d 8129 293e 1194 10be
000000e0: dcff a5bd 8992 013e dd82 38bd 5952 aa3b
000000f0: 4087 1b3e dcb6 d33d 8be8 3b3d 4e19 13bd
00000100: 1dd5 65bc 2d8a 0c3e cd95 c93c 90be e63d
00000110: 31de 1c3e 166b 073e ad5f d0bb 5e77 d73d
00000120: 6849 853e 92a2 00be 2478 f9bc 952e 0fbd
00000130: 3da6 923e f82d 26bd b2e9 86bc a8cd 063e
00000140: bc26 bdbc e6ed b73d ea2e bdbd be97 c13c
00000150: 4973 26bc 3526 cc3d 5a7e ab3d e8b0 543e
00000160: 9055 ec3d 461a c83d 0e16 173e db5f 813d
00000170: 3147 cf3d fa6b 2c3d 847d 803c 4306 76bd
00000180: 4036 7fbc f265 c93d 675a 1cbe ef23 34be
00000190: 3f31 7f3d 9a21 14bd c898 093d 280e 9abc
000001a0: aa53 dcbb ce6d 9d3d a6e7 d93d cc2c 913c
000001b0: d58a 023c f14a 9bbc b66a 493d aa3d 023e
000001c0: f29a ccbd ad42 48be 66d6 14be 11be 093d
000001d0: 3116 fc3b 18aa 0d3e 2c38 3b3d 14e7 6abe
000001e0: 78e0 17be 8d51 7fbc 0a67 0bbe 5ffc 893d
000001f0: 8361 fb3d 60a5 053e fb7b e53d ea09 433c
0.06868873 0.097738385 -0.13734153 -0.15987755 -0.16085295 0.10204878 -0.008364571 -0.20742874
-0.13601896 -0.042718034 -0.15439825 0.08601057 -0.25440764 0.04064853 0.0508507 0.104902856
-0.018042294 -0.31074196 0.1531118 0.006289616 -0.10130796 0.03400794 -0.13225323 -0.14495157
-0.21272847 -0.14807338 0.060082313 -0.02566821 -0.036132973 0.06328886 0.14551942 -0.03362851
0.05146211 -0.1191385 0.00013874742 0.121773645 -0.10019011 0.13930355 -0.07512965 0.06563667
0.10887545 -0.08084197 0.060611106 0.09450272 0.24302484 0.12263279 -0.09769354 -0.087444685
0.06918126 0.0017939394 0.018278182 0.11423684 0.104715854 0.121364966 0.16519739 -0.14118983
-0.08105442 0.12653555 -0.045046676 0.005197805 0.15188313 0.10337612 0.045876067 -0.035912804
-0.014027861 0.13724585 0.024607563 0.11266816 0.15319134 0.13224444 -0.0063590617 0.10520814
0.26032567 -0.12562016 -0.030452795 -0.034956533 0.28642455 -0.040571183 -0.016468856 0.13164389
-0.023089759 0.089809224 -0.09237464 0.023631927 -0.010159322 0.09968225 0.08373709 0.2077061
0.11539757 0.09770636 0.14754507 0.06317111 0.101210006 0.042095162 0.01568485 -0.060064565
-0.015576899 0.09833898 -0.15268861 -0.17591833 0.062302824 -0.036164857 0.03359297 -0.018805578
-0.0067238407 0.07686959 0.106398866 0.017721556 0.00796767 -0.018956633 0.049174033 0.12718835
-0.09990491 -0.19556685 -0.14534912 0.033628527 0.007693075 0.13834417 0.045707867 -0.22939712
-0.14831722 -0.015583408 -0.13613525 0.06737589 0.12274458 0.13051367 0.11205288 0.011904219

network.4.bias f4 [4]
00000000: ab06 21be 92cc dabd 2dc0 8bbd 350b c9bd
-0.157252 -0.1068355 -0.06823764 -0.09816591

player_encoder.0.weight f4 [64, 6]
00000000: 3c34 133f 4052 aa3e 6a3d 603d aacd 84bd
00000010: 1d4b 8f3e c091 97be 0ef1 173f 9ab1 99bd
00000020: 8f25 bbbd 461b 923e 1d66 863d ec8b 573e
00000030: 5293 94be 2956 64bc 7f5c 083f 7cc8 9cbe
00000040: ff1e 3a3d 2adc 673e ab9e a3be c41a 14bd
00000050: f7eb e73e f4ac b63e 9a0d 02bf 49f9 283e
00000060: 4f68 a03e d63a 193e ebb9 9bb9 9b4f cf3c
00000070: 9a8d 83be 09fb 493d 7633 8d3e 5e5b 7cbd
00000080: cca6 c4be 1bef ae3d 0cc1 c2be cfa3 b23e
00000090: 3a41 c1be aaff d1be 1d40 cc3e 77c6 163e
000000a0: 2a59 b3bd 2cdd 9abe 6c29 1a3f 8fd5 a2be
000000b0: 9553 81be 4b57 a93e 9575 d9bd 6cad d8be
000000c0: 1074 ccbd c33a f63b 2d8a 3cbc 5870 90be
000000d0: fc4b 603e 0c2c 3d3a 2b68 9b3e 1756 62be
000000e0: de89 9c3d 231a 4bbc 33c2 a3bc f35d d33e
000000f0: 9f09 ab3d 1ba7 5d3e af6a c0be 4df5 14be
00000100: 04e3 6ebc 4c99 98be 35d5 3abe cf0a 103e
00000110: 5830 afbe df96 7cbe 2f38 a6be 047a b63d
00000120: 384b f93e 9b88 ab3e e8c0 7abe c037 3a3e
00000130: 1146 b3bb 9dfd 0f3e 05f0 ac3e 44a8 a03d
00000140: ee17 b8be f14d cbbe 95c2 b83e b2db ed3d
00000150: e1a2 bc3d 0e46 203e eace 97bd 2334 793e
00000160: 6a45 89bd 9b5a 1cbe 6a12 c8bd d9ec c23e
00000170: 848c 453e 0990 5d3d 9675 b43d 879a 9ebe
00000180: 1d0a bf3e 1a7d 23be f0c0 0abe 9c4d bd3e
00000190: d775 233e c5f4 0dbe 003d 9ebe eff7 57be
000001a0: 1bd3 9b3e bbe8 193e 4ede aebe 6391 793c
000001b0: 487f 8ebe 251a 603d 59a6 c7be 52ab f8bd
000001c0: a84f 1c3e bc5d 0b3e f552 afbd 3167 81bd
000001d0: 2ecf ef3e 5a7d 7c3c f2a8 acbe c9e6 f9be
000001e0: 2ea1 9c3e 80da d2bc 2f2a 95be 15a2 673d
000001f0: 174c 96be b737 7e3d b934 e9be 5e2d 563e
00000200: ffd9 d83e 1896 74bd a706 1fbf 71ce 69bc
00000210: d5c5 213f 6f72 573e 57ae 67bd 7d9d f63b
00000220: 4dd8 cd3d c273 843e 2f0f a53e 9929 503e
00000230: e3b6 8bbe c88b 863e 13cf 033d 3aa2 513d
00000240: 534f bdbe 58e0 f2bd f6ad b4be e4a5 95be
00000250: 100f abbe 7607 b13e 239b f0bd 3f2a 983d
00000260: 326c 6d3e 6d5c cebe 95f3 a03e 3d01 75be
00000270: 6129 c6bc 60ca 07be 8dc1 d33d 6ef5 babe
00000280: 3eb9 ca3d f06e 99bc 39df 1ebe 0e01 dbbe
00000290: dac1 be3e 028e ce3d 256f e9be fa8c efbd
000002a0: 2f03 3fbe 0c1a ad3e 2432 06bd a597 8bbe
000002b0: 9100 2b3e aa3f d93d b74b c0be e7bb c6be
000002c0: 725c 923e b3be 7f3e 0312 bbbe 7574 89be
000002d0: c306 243e 2e67 92be 2ee7 bb3d 20a4 bebe
000002e0: 6746 ccbe bc96 cf3e 782b 41be ce73 5abe
000002f0: bd27 b4be 100f 9dbe 94d4 72be 1436 aebe
00000300: 50de 8abe 0640 cebe c3e0 4a3e 97a6 ec3e
00000310: b71d 3ebe 7e22 44be 227c 2e3d f99b ae3d
00000320: 09ae 8fbe 4a95 893d 2e55 46be 2f43 a43d
00000330: 4438 af3d 84bc 33be 60cb 003f 4689 89be
00000340: 652c a6be cc90 2bbe 148e a4be 0955 bdbd
00000350: 41ee 913d d32e 39be 9e55 21be a3da a0be
00000360: d0bf f6be a410 2f3e 526a 0c3f 0d1b 0abc
00000370: b8de 14bf 740e f1bd 283e 07bf c0a8 cabe
00000380: 7a32 393e ef24 e83e b00b 19bf 2aef 5bbe
00000390: 1737 16be e561 e7bd 56d6 66be 8da9 713e
000003a0: b560 a3be 7d64 2b3d 7d6f 583c 6105 4bbd
000003b0: 985a 133f 7b5a 443e e4b8 f2bc e4b8 873e
000003c0: 22af 67be 29a1 ac3d 1c93 c53e db8b 2e3d
000003d0: 1c9e 50be f8d1 1fbe 5a2b f7be a47b b5bd
000003e0: d278 da3e 4373 f63e 22f4 a1be 5509 4abe
000003f0: 57a3 cdbe 6620 70be 9fc2 af3e 8305 cbbe
0.5750158 0.33265877 0.05474607 -0.0648454 0.27986994 -0.29603386 0.59352195 -0.07504578
-0.09138023 0.28536433 0.06562445 0.2104947 -0.29018646 -0.013936558 0.5326614 -0.30621707
0.045439716 0.2264258 -0.31956992 -0.03615834 0.45297214 0.35678828 -0.50802004 0.16501345
0.3132958 0.1496385 -0.00029702423 0.025306514 -0.2569397 0.04931167 0.27578324 -0.061610572
-0.38408506 0.085416995 -0.38037908 0.348906 -0.37745076 -0.4101537 0.39892665 0.14724146
-0.08757241 -0.30246866 0.60219455 -0.31803557 -0.2525908 0.33074412 -0.1061813 -0.4231981
-0.09983075 0.007514329 -0.011507553 -0.2821071 0.21903986 0.00072163413 0.3035291 -0.22103153
0.076434836 -0.012396368 -0.019990062 0.41282615 0.083514445 0.21645777 -0.37581393 -0.145467
-0.014580492 -0.29804456 -0.18245395 0.14066623 -0.3421657 -0.24666928 -0.3246474 0.089099914
0.486902 0.3350266 -0.2448765 0.1818533 -0.005470999 0.1406159 0.3377687 0.07844594
-0.35955757 -0.39707902 0.36085954 0.11614169 0.09210754 0.15651724 -0.074125126 0.24336295
-0.06702693 -0.15268938 -0.09769137 0.38071325 0.19291884 0.05409244 0.0881149 -0.3097727
0.37312403 -0.15965691 -0.13550162 0.36973274 0.15962921 -0.13862903 -0.30905914 -0.21090673
0.30434498 0.15030186 -0.3415398 0.015232417 -0.27831483 0.054712433 -0.389941 -0.12142052
0.15264761 0.13609976 -0.08560745 -0.0631851 0.46837753 0.0154107455 -0.33722645 -0.48808888
0.3059172 -0.025738955 -0.29133746 0.056551058 -0.29354927 0.062064853 -0.45548037 0.20915744
0.42353818 -0.059713453 -0.62119526 -0.014270411 0.6319249 0.21039747 -0.056562748 0.0075260983
0.10051022 0.25869566 0.32238147 0.20328368 -0.2728797 0.2627852 0.032179903 0.051180102
-0.36974582 -0.118591964 -0.35288972 -0.29228127 -0.3340993 0.34576005 -0.1174834 0.07429933
0.23185804 -0.4030489 0.31435838 -0.23926254 -0.024189653 -0.13260794 0.10339651 -0.36515373
0.098986134 -0.018729657 -0.1551484 -0.42774242 0.37257272 0.100856796 -0.4559261 -0.11696811
-0.18653558 0.33808935 -0.03276266 -0.27264133 0.16699435 0.10607846 -0.37557766 -0.38815233
0.28586155 0.2497509 -0.3653718 -0.26846662 0.16018204 -0.28594345 0.091749534 -0.37234592
-0.39897463 0.4054469 -0.18864238 -0.21333238 -0.35186568 -0.30675554 -0.23713905 -0.34025633
-0.27122736 -0.4028322 0.19812302 0.46220848 -0.18566023 -0.19153783 0.04259885 0.08525843
-0.28062466 0.06717928 -0.19368431 0.08020627 0.08555654 -0.17552382 0.50310326 -0.26862544
-0.32455745 -0.16754454 -0.32139647 -0.09244735 0.071255215 -0.18084268 -0.15755317 -0.31416807
-0.48193216 0.17096192 0.5484973 -0.008429301 -0.5815234 -0.11770335 -0.5282922 -0.3958187
0.18085662 0.45340678 -0.5978346 -0.21477953 -0.14669453 -0.11297969 -0.225427 0.23599835
-0.3190972 0.04184388 0.013210175 -0.049565677 0.5756011 0.1917514 -0.029629178 0.26508248
-0.22625402 0.08429176 0.38588798 0.042613845 -0.20372814 -0.1560744 -0.48275262 -0.08861473
0.42670304 0.48134813 -0.3163157 -0.19730122 -0.4016368 -0.23449859 0.34328172 -0.39652643

player_encoder.0.bias f4 [64]
00000000: 6e4a 013e a4cd 2ebb f07a 8a3e 2404 043e
00000010: 7a95 313b d2e0 10bc e633 a93e 1c02 9bbc
00000020: 6a11 b23c 3176 9e3e ea9f 493e d7a7 8a3e
00000030: 013b bc3e 4300 8d3e 4229 723e ba9c bbbb
00000040: 0a6f cebd 1e68 9c3d 6d25 30be c1e2 36bd
00000050: a627 5cbe 8f71 803d 1d73 b43e 6102 d23e
00000060: 9e90 4f3e fc56 ab3d 5e56 853e 93bd c73e
00000070: 00e9 b63e 7816 113e a2de bfbe 1a5b 523e
00000080: 98c1 973b d593 bfbe 51ac cebd 1a81 683e
00000090: 0944 8fbe 362e 53be 99c7 babe b7c1 0e3e
000000a0: 3b2f 7bbe fd62 553d b434 69bd 29dc 4bbd
000000b0: 5224 ecbd ff1b 32bd 13b3 5c3e 4a4e 4ebe
000000c0: 8059 c33e cb73 8abe 11da b53e ac1b 613e
000000d0: 636e 5c3e 2f83 aabe 51db c43e b918 b03e
000000e0: ce10 093e ba3a 963e 0b3c adbe f450 57be
000000f0: b47d 89be 25bb b1be 5480 4b3e e157 933e
0.12626049 -0.0026672864 0.2704692 0.12892205 0.0027097152 -0.008842664 0.33047408 -0.018921904
0.02173682 0.30949548 0.19689909 0.27081177 0.36763766 0.27539262 0.23648551 -0.0057254704
-0.10079773 0.07637046 -0.17201777 -0.044649843 -0.214995 0.062716596 0.35244074 0.4101744
0.20270011 0.083662 0.26042455 0.3901182 0.3572464 0.14168727 -0.37474543 0.20542565
0.0046312325 -0.37417474 -0.100914605 0.22705498 -0.27981594 -0.20623097 -0.36480406 0.13941084
-0.24529736 0.052096356 -0.056935027 -0.049770508 -0.11530365 -0.04348373 0.21552686 -0.20147052
0.3815422 -0.27041468 0.35517934 0.21983212 0.21526484 -0.3330321 0.38448575 0.34393862
0.13385317 0.2934168 -0.33834872 -0.21026975 -0.26853716 -0.34713092 0.19873172 0.28777984

player_encoder.2.weight f4 [32, 64]
00000000: 5652 bbbd 37ee b2bc fe6c f33d cb83 e5bd
00000010: b67a a6bd 5e57 03be 8a33 d73d 58bc 1bbc
00000020: 146c e7bd 04c6 c2bc d019 2dbc 3aa6 98bd
00000030: c368 14bd 604c 103d e947 eabd 6c16 05bd
00000040: 5e15 c53d 39c6 eb3b 04da fcbd 39d6 5cbd
00000050: f6f2 c4bd 3eff ca3d 22bb 51bd 7d31 62bd
00000060: 2ea3 7abd 3951 6a3d 3fca 893d 850f 2fbc
00000070: 25ca 733d 133a 333c 3ad6 f33d 2a0d 983a
00000080: d425 80bd e05d 70bd 0089 ecbc 41a0 12bd
00000090: 0fc6 c4bc 1f95 273d 2088 f1bb 251c 9abd
000000a0: cd57 b6bd c371 f4bd 78d7 b2bc af66 cabd
000000b0: 6721 f03d 8bd9 71bd 09c3 1bbd e12e 933c
000000c0: 49be c83d 6951 20bd b779 c73d 3a1b 343c
000000d0: 4f6a 813d c0f2 f33b 8205 8c3d dd3b bcbd
000000e0: d707 18bb fa41 903d 5ff6 9fbd d1ee 983c
000000f0: b256 a23d 680d eebc ddc0 993c 1420 a83c
00000100: 60f1 6fbe 90f8 36be 45c0 2dbc ffe4 453e
00000110: 6d58 3bbd 413b d2bd 5eaa 153e 7f4f 93be
00000120: 44e7 5f3d 9723 7fbc f112 c8bd 62ed 933c
00000130: 8759 35be a744 9c3d eb4d cf3d 0ba7 cf3d
00000140: f1c7 42be 21c4 993d d677 41bd 3100 c63d
00000150: dcb9 1abe b3df b13e 6cf3 2fbe e031 acbd
00000160: 1e44 1abe de58 10bd 7934 153d fafd 863e
00000170: 74ec d03d f8e7 933e 682a af3d 0aed f93d
00000180: 795d 773d 5497 e43d 2809 af3e d4ba a6bd
00000190: d957 373e a3c6 923e 10a7 89bd bdef 243e
000001a0: 5b76 8d3e 36c4 9e3d a862 253d f2c6 90bd
000001b0: f2bf 993d a568 f8bd a9d2 28bb 31fe 6c3e
000001c0: 8f99 573d d10b 8d3e 149f 8abc dc00 663d
000001d0: f33b cdbd 5696 85bd abb8 8cbc 1bbe bcbd
000001e0: b03e 403e fffc f0bd e5cb 483e fa3c 093e
000001f0: 7801 b53d a610 9a3d 2b72 52bd 602b 763e
00000200: eb1d d4bc 177e 6ebd 03b2 993d 1c89 8bbd
00000210: 38ad c13d 28af a4bd d0c3 cdbd e4ac 56bc
00000220: 1e33 b13d 229f c93d cd56 d1bc 829e 91bd
00000230: 838f dabd a8f4 c7bc 5400 e8bb b616 273d
00000240: a60d 50bc bae4 ca3d 63ba c5bc 59b8 80bd
00000250: a0f4 2dbe df07 c2bd d5e0 bb3d 4e0a 313d
00000260: 20d3 10bd 7c69 933c a5c5 843d 2a83 abbc
00000270: 4d72 803d 6897 e0bd 828a cd3d 60e7 b7bd
00000280: b3c1 b43d 2033 843b 52cb d8bd b6e5 ce3d
00000290: a4c2 c6bd f429 95bd c45e 5ebd b99b 173b
000002a0: 0358 4f3d 4756 f4bd ccfc d1bd 7832 8d3d
000002b0: affa ae3d 0836 873d fa91 2f3b 713c c0bd
000002c0: af3a dabd 67fe 143c c605 243d 75a2 dd3d
000002d0: 5570 dd3d 70f9 173d 10bd fb39 747e 103d
000002e0: 8e63 c83d 14f3 0a3d 1f16 97bd f369 bebd
000002f0: 0ab7 a53d e000 753c 587b d2bd 5efd 86bd
00000300: 754e b6bd 2ca6 023c 0cf7 e33d fc44 a13d
00000310: 12c1 2f3d 862f b43d e402 08be 59f6 183d
00000320: aace e5bd 6233 9fbd 2061 393d 1c6d 96bd
00000330: eee5 cdbd d4f6 223c 62cb 6ab9 dbb0 e1bc
00000340: 53a7 c53d 804a cc3d 7c05 963d bbf8 913d
00000350: 181b 3abd 9135 5cbd a933 243d ff49 55bc
00000360: a2c4 afbd 18d4 903d b5c9 af3d 8166 07bd
00000370: a99b 77bc 41b1 053b 2cec b8bc 3065 dcbd
00000380: 3e03 a7bd 6c09 e83d efae aa3d ddc5 87bd
00000390: e01a febd 9118 983c 2444 f4bd 4502 b73d
000003a0: 01dd d03d 11e5 133d 005e 553a 662c a9bd
000003b0: a55c 50bd 9b3f bb3c ffd4 aebd 4a90 353d
000003c0: 8837 0e3d 63c4 19bd b4e4 d4bd b0bd b0bd
000003d0: 5796 353d b0a8 7e3c 2a3c 7fbd 1781 e6bd
000003e0: fe3c d1bd 56be 36bd e49c aa3b 448b 1ebc
000003f0: c08b babb f0e4 4a3d bd72 843d bead 05bc
-0.09146564 -0.021842105 0.11886023 -0.11206778 -0.08128874 -0.12826297 0.10507877 -0.009505354
-0.11299911 -0.023776062 -0.010565236 -0.0745358 -0.03623272 0.035229087 -0.11439497 -0.032492086
0.09623216 0.007195261 -0.12346271 -0.053915236 -0.096166536 0.09911965 -0.051203854 -0.055222977
-0.061190777 0.057206366 0.067280285 -0.0106848525 0.059518952 0.010939139 0.11906095 0.0011600603
-0.06257215 -0.058683276 -0.02887392 -0.03579736 -0.024020223 0.040913697 -0.0073709637 -0.075248994
-0.089034654 -0.11935761 -0.02183126 -0.098828666 0.11725121 -0.059045356 -0.038027797 0.01796669
0.09801919 -0.03914014 0.09740012 0.010992819 0.06319105 0.0074447095 0.06836988 -0.091911055
-0.0023198032 0.07043834 -0.078106634 0.018668564 0.07926692 -0.029059127 0.018768722 0.020523109
-0.23431921 -0.17868257 -0.010604923 0.19325636 -0.045738626 -0.10265208 0.14615771 -0.28771588
0.05466391 -0.01557245 -0.09769238 0.018057529 -0.17709933 0.07630282 0.101222835 0.10139283
-0.19021584 0.07508112 -0.047233425 0.09668005 -0.15109962 0.3474098 -0.17182702 -0.084079504
-0.15065047 -0.035241 0.036426995 0.26365644 0.1020135 0.28887916 0.0855301 0.12203415
0.060391877 0.11161676 0.34186673 -0.081411034 0.17904605 0.28667173 -0.06721318 0.16107078
0.2762936 0.07752268 0.04037729 -0.07069196 0.07507314 -0.12129334 -0.002576033 0.23143841
0.05263668 0.27548078 -0.016921557 0.056153163 -0.100212 -0.06522815 -0.0171779 -0.09215947
0.18773913 -0.11767005 0.1960903 0.13402167 0.08838171 0.07522707 -0.05137841 0.24039984
-0.025893172 -0.058225717 0.07504656 -0.06813261 0.09456867 -0.08041221 -0.10047114 -0.013102744
0.08652328 0.09844805 -0.025554085 -0.07110311 -0.10671904 -0.024408653 -0.0070801172 0.040793143
-0.012698567 0.099069074 -0.024136728 -0.062851615 -0.16987848 -0.094741575 0.09173743 0.043222718
-0.035357594 0.017994635 0.0648301 -0.020936567 0.06271801 -0.109663785 0.10036184 -0.08979678
0.08826008 0.004034415 -0.10585655 0.10102408 -0.097050935 -0.072833925 -0.054289594 0.002313359
0.050621044 -0.119305186 -0.10253295 0.06894392 0.08543908 0.066021025 0.002678989 -0.09386528
-0.10655724 0.009093857 0.04004457 0.10822002 0.10812441 0.037103117 0.00048015313 0.035276845
0.097846135 0.033923224 -0.07377266 -0.09297552 0.080915526 0.014953822 -0.10277432 -0.06591295
-0.08901683 0.007974189 0.11131105 0.07874486 0.042908736 0.08798127 -0.13282353 0.03734431
-0.11221059 -0.07773472 0.04525864 -0.0734503 -0.10053621 0.009946544 -0.00022391745 -0.027550152
0.09651055 0.09975147 0.07325265 0.0712752 -0.045435995 -0.053762022 0.04008833 -0.01301813
-0.085824266 0.07071704 0.085833944 -0.03305674 -0.015112796 0.002039984 -0.022573553 -0.107614875
-0.08154915 0.11329922 0.08334147 -0.06629536 -0.1240747 0.018566402 -0.11927059 0.0893598
0.10198403 0.036107127 0.0008139312 -0.082604215 -0.050869603 0.022857478 -0.085367195 0.044327058
0.034720927 -0.037540805 -0.10395184 -0.0862993 0.04433283 0.015543148 -0.062313236 -0.11255091
-0.102167115 -0.044615112 0.005206691 -0.009676758 -0.005692929 0.049534738 0.06467197 -0.008159099

player_encoder.2.bias f4 [32]
00000000: 9c23 013d bbb5 a8bd 88b7 e93d 5d00 b6bd
00000010: a662 c73d 04fc 013e 0c16 873d 3413 c1bd
00000020: 4512 aebd 5a29 26bd 67b2 05be b3aa 443d
00000030: ffe4 88bd 7462 acbd ccbe 63bd 809f d0bb
00000040: 9e18 3fbd 826a 3dbd fa53 dc3d 7a5f 0fbe
00000050: 6dab d3bc bec7 16bb 6ba7 953d 45af d1bd
00000060: 0d00 c4bd bad2 d2bc 00c0 7839 4d1b 8f3d
00000070: ea61 613d ce3c 6b3c 1323 9abd 5a4b 8fbd
0.0315281 -0.08237787 0.11411959 -0.08886788 0.097356126 0.12693793 0.06596002 -0.09427491
-0.084995784 -0.04056678 -0.13056336 0.048014354 -0.066843025 -0.08417216 -0.05560188 -0.00636667
-0.046654336 -0.046244152 0.10758205 -0.14001265 -0.025838578 -0.002300724 0.07307323 -0.10238508
-0.09570322 -0.025735248 0.00023722649 0.06987629 0.05502502 0.014357759 -0.07526221 -0.06996794

context_encoder.0.weight f4 [32, 10]
00000000: cd66 d83e f004 4fbd b480 6d3d 47c4 dc3d
00000010: 0015 843d 9a5c 863e 93d5 073e 62d2 603e
00000020: 2df4 a83e feca c93e db5f 6b3d 9b4b 9a3c
00000030: 8e3b aa3b a197 553d be2d 823e 2878 dbbd
00000040: a5e5 a33e e52a cdbd 9efa bc3d 7a1d b2bd
00000050: 0801 fcbc 91b3 6e3e 3221 87be 8885 f03c
00000060: 85f0 943e f6e2 7bbe 75d1 babd 2656 3cbe
00000070: eb30 7cbe efe3 883d 364e cfbc e04e 3fbe
00000080: 22d1 a23e 7bb1 38be 5172 8fbe 439c 0f3c
00000090: c9bd 343e 05b5 82bd d8dd 1fbe a282 b03e
000000a0: dee8 5fbd 0ab5 3f3e 458b d2bc b63a 39be
000000b0: ae4b c63d 750d 0fbd e41b 1a3e a65d be3e
000000c0: b3bb b13d 9e94 6c3e 2f3d 96be 7a49 82be
000000d0: 7b97 2cbe 4d15 6c3e 9925 46be 5b72 d0bd
000000e0: a3ff 4f3e d8a4 77bc c4fc fd3c be84 4fbd
000000f0: a9ea 6cbe 32ac 68be 92f2 9abe 59f9 983e
00000100: f58e c1bd afff 31be 4650 183e fb98 583d
00000110: 4333 eb3d 95a4 0e3e 0bb9 fd3d 6765 033e
00000120: e73e 96be a527 4cbe 2c14 893d f455 3f3e
00000130: 5d55 04bd fc3c 53be 0b15 2dbd b07f 46be
00000140: cb24 f5bd 833a 59be 38fb 3cbe bc46 813e
00000150: a3b6 27be ac0b 8c3e edb8 e7bd 4a50 b33e
00000160: 6261 953d 9288 493e 9c15 24be d818 da3c
00000170: 4ea1 6a3e 236b 813d 9e0c 13bd 517a 7ebe
00000180: bc15 583e 1eb7 bb3e bcfd 69be 023a 363e
00000190: f6ff ccbc 8faf d3bc d497 083e df58 843e
000001a0: f307 123e acfc abbd e880 b23e fa78 023f
000001b0: 0a00 a73e 2108 583e 1824 283e f029 0bbe
000001c0: a12e aa3e 9099 433e 07cc 093e 411f 82be
000001d0: a9a4 09be 6271 20bd fc76 50be 34e3 a63e
000001e0: 2511 c33e 7356 923e 3691 60bc 9c92 6abd
000001f0: d32d 31be 36a7 953e a415 123e 9794 8f3e
00000200: ccee 523e 6842 833e 48b3 063e 386e 793e
00000210: b43b a53e 6f46 333d 8d76 88be 2235 fb3d
00000220: 66cf cebc 6784 b63c 3cda bbbd d223 eb3e
00000230: 0aa0 983e 59f3 a9bd 4a74 8abe 1d71 353c
00000240: be4a 3d3e fc8d 69be 0437 cdbd 3245 90be
00000250: ea46 94be 5890 8cbe 5fb8 d5bd 6671 5b3e
00000260: e835 113e 3b1c 523d 60f0 9abe 2b56 033e
00000270: 6176 0e3e a2ef 5e3e 8522 5a3e 23e0 52be
00000280: 26e0 4fbe e682 8d3e afa8 34be e0e5 57be
00000290: b754 fcbd 1cd7 813e 60fe c1bd 84d0 16bd
000002a0: 6aca 67be e8fc 443e 9f63 b53e 1ff9 db3e
000002b0: 478b 413e afa3 353e d465 50be 309c 32bd
000002c0: e4a2 e23d acc3 523d dcb4 303e a954 c23e
000002d0: 82ba 10bd 7c4e 86be 0400 55be b5c7 923e
000002e0: 94ea 9bbd 0686 52be 3798 dbba 5b35 f0bc
000002f0: b9ef aebd 0a35 163e bbfa 6dbe 56f9 a6bd
00000300: a1e6 73be d9b2 31be df36 7fbc 9277 1fbe
00000310: 191a d9bd 1cfa 903e 380f d83d 01d5 133e
00000320: 9349 f7bd 2070 853e 8253 00be a9e2 513e
00000330: c95e 4a3e 9815 8fbe ca28 7d3e 16f5 3ebe
00000340: e373 913e b9e0 1fbc 9ed8 d8bd 34a7 6b3e
00000350: 8ead 9ebe e764 0cbe 8a7a 213e d660 c23d
00000360: a719 1b3d 0e39 873e 01f6 973e e34f 633e
00000370: ba9f 30be 2c0a 983e 70e4 0ebc 57eb bf3d
00000380: c7cf 9dbe 64f5 6e3d 2171 6ebe a9c8 f73d
00000390: 8c7b f5bc 6dfd 36bd 269b 313d 6e04 3b3e
000003a0: 1924 793d e161 47be 00b0 7e3e 8516 463e
000003b0: 8c29 4dbe e980 0a3e e5c3 9bbe d745 85be
000003c0: cea2 db3c ce3d db3e 6c76 063f 02ce 3f3d
000003d0: f522 9d3c 875d 1e3e 55bc 333d dc75 3e3e
000003e0: 46f2 3e3e 6f4b 093f 07f9 efbd 4418 353c
000003f0: 2d5c 9d3e b507 15be 782c 1bbe 9922 0b3e
0.4226593 -0.05054182 0.05798407 0.107796244 0.06449318 0.26242524 0.13265066 0.21955255
0.3299879 0.39412683 0.05746446 0.01883488 0.0051950878 0.052146558 0.25425524 -0.10716277
0.32011142 -0.10017947 0.09227489 -0.086970285 -0.03076221 0.23310687 -0.26392514 0.029360548
0.29089752 -0.24598297 -0.09121982 -0.18392238 -0.24628036 0.066841 -0.025305849 -0.18682432
0.3180018 -0.18036453 -0.28016904 0.008765283 0.17650522 -0.06382183 -0.1561197 0.34474665
-0.05466544 0.18721405 -0.025701175 -0.18088803 0.096824035 -0.034924943 0.15049702 0.37180823
0.08678379 0.23103568 -0.29343554 -0.25446683 -0.1685466 0.23055 -0.1935028 -0.101780616
0.20312361 -0.015114985 0.031004317 -0.050663702 -0.23136391 -0.22721937 -0.3026319 0.29877737
-0.09451095 -0.17382692 0.14874372 0.05288027 0.11484387 0.1392997 0.1238881 0.1283165
-0.29344866 -0.19936998 0.066933006 0.18685132 -0.03230797 -0.20628732 -0.042256396 -0.19384646
-0.11969908 -0.21213727 -0.18455207 0.2524928 -0.16378264 0.27352655 -0.11314569 0.35022193
0.07293965 0.19681004 -0.16023868 0.026623175 0.22913095 0.06319263 -0.035900705 -0.24851348
0.21102041 0.36663145 -0.22850698 0.17795566 -0.025024395 -0.025840549 0.13339168 0.25849053
0.14260845 -0.08397803 0.34863973 0.50965846 0.32617217 0.21096851 0.16420019 -0.13590217
0.332387 0.19101548 0.13456737 -0.2541447 -0.13441719 -0.03917063 -0.20357889 0.32595217
0.38099018 0.2858158 -0.013706496 -0.057268724 -0.17302637 0.29229134 0.14266068 0.28043053
0.20598906 0.256366 0.13154328 0.24358451 0.32272112 0.043768343 -0.26652947 0.12265994
-0.02524538 0.022279931 -0.09172484 0.45925766 0.298096 -0.08298368 -0.27041847 0.011074332
0.18485543 -0.22808069 -0.10020259 -0.28177792 -0.28960353 -0.27453876 -0.104355566 0.21429977
0.1418072 0.051296454 -0.30261517 0.12825839 0.13912345 0.217711 0.2130223 -0.20593314
-0.2030035 0.2763893 -0.17642473 -0.21083784 -0.123208456 0.25359428 -0.09472346 -0.03681995
-0.22635809 0.19237101 0.35427567 0.42963502 0.18900786 0.17738222 -0.20351344 -0.043605983
0.11066225 0.05145614 0.17256492 0.37955216 -0.035334118 -0.26231754 -0.20800787 0.2866799
-0.076131016 -0.20558938 -0.0016753738 -0.029322317 -0.08541817 0.1466867 -0.23240177 -0.08153026
-0.23818447 -0.17353381 -0.015577047 -0.15572956 -0.10600681 0.28315818 0.10549778 0.14436723
-0.1207458 0.26062107 -0.12531856 0.2049662 0.1976272 -0.27946162 0.24722591 -0.1864818
0.28408727 -0.009758168 -0.105881914 0.23013002 -0.30991787 -0.13710366 0.15769401 0.09491126
0.03786626 0.26410717 0.29679874 0.22198443 -0.17248431 0.2969526 -0.008721456 0.093710594
-0.30822584 0.05833949 -0.23285343 0.1209882 -0.029966138 -0.04467528 0.04336085 0.18263409
0.06082544 -0.19470932 0.24871826 0.19344528 -0.2003538 0.13525738 -0.30422893 -0.26029846
0.02681103 0.4282059 0.5252445 0.046827324 0.019181708 0.15465365 0.04388078 0.18599647
0.18647107 0.5363073 -0.1171742 0.011053149 0.30734387 -0.14553721 -0.15153682 0.13587417

context_encoder.0.bias f4 [32]
00000000: 120c 4a3e c0fc a0bd e11f 683d e01b 993e
00000010: 5b9e d33e 357f a93c af57 133e 6fbb 0fbe
00000020: b974 b93e ce9e c63e 05d1 383e bc90 813e
00000030: f531 7bbd e946 cc3e ec01 99be b640 973e
00000040: b652 3d3e 30db abbd ae66 07be e870 b0bd
00000050: 1e9a a4bd 6ca0 7abe 5c85 e3bd c38f 51be
00000060: 8114 b5bb 764b 0f3d e632 bb3d 3660 7cbe
00000070: 6611 f93d 2155 d53e d64c 49be a365 803b
0.19731167 -0.07860708 0.056671027 0.2990408 0.41331753 0.02069054 0.14388917 -0.14036344
0.36221865 0.38793033 0.18048485 0.25305736 -0.06132694 0.3989785 -0.2988428 0.29541558
0.18488583 -0.08391416 -0.13222763 -0.08615285 -0.08037208 -0.24475259 -0.11109421 -0.20464997
-0.005526126 0.034984075 0.091405675 -0.24646077 0.121615216 0.4166651 -0.19658217 0.003918366

context_encoder.2.weight f4 [16, 32]
00000000: 2530 b83d 186b dc3d e144 b4bd d3fa 383e
00000010: b1e6 863e ce1c 883d efdb 87bd 0e5a 593d
00000020: be3e 2e3e 9f8b 013e 2378 173d 4398 40bb
00000030: 5a68 993e de19 403e 4fbe 043e d4de 173b
00000040: 8915 27bd 3d80 9a3e 6a07 763c 138f 0e3e
00000050: 2fe3 9bba d7f5 143e eddb 1e3e 05c1 633d
00000060: d81d 473e 21cb 99bd 7833 c53d 584a f4bd
00000070: f0a2 99bc 6ec7 943e 8bc5 b43d 704f aa3d
00000080: c9bb 533e 11b0 823d b0e5 183e 4efb 91bd
00000090: 794f 4d3e b8ba 77bd cec0 fd3d bc7d c33d
000000a0: 3143 4f3e 5b47 563c d672 5c3e 2aa3 103d
000000b0: c929 ae3e 28fd 373e 1884 ab3d d5c7 e13c
000000c0: ab31 5c3d bb2b ad3e 8834 083e 7658 0dbe
000000d0: ff61 fabc 12fa 2dbe 7dbd cf3d e3ad 123e
000000e0: 498b a13e 410b ba3c 02d8 a03d b4ba 593d
000000f0: 56b4 683e df31 693e 740f 113e 0afd 613d
00000100: f01a 2d3d 9561 35bd 7a61 0cbe 7772 aebd
00000110: 359e 9cbc 9ff4 4c3b ecff 083e ae52 21be
00000120: bbc6 1d3e 21ff 63bc 322f c5bd a0e5 31be
00000130: 8979 62bd 3929 fc3d abff cd3d 2868 bfbd
00000140: 6fdd a9bd e8ca a93d 3f4a bcbc 33b3 0b3e
00000150: 5b4a 29be 84cc 293d 337c 84bd c2f9 f1bd
00000160: 92aa edbd a65e 3dbe ed98 febd 7f78 063e
00000170: be8d 113e fd4e b43d e9b6 29be 0d8e 8c3b
00000180: 2dd6 503e a69a 9abd 956c d3bc 4c04 cdbc
00000190: ef7d 853c 955b c5bd a2fb 0dbe ef0f e1bd
000001a0: 37f9 06bd 3c1e 3b3d dbcc 263e f996 72bd
000001b0: cfca 1fbd ecef 9c3d 5674 4fbd 60aa cf3d
000001c0: 92fb 8d3d 37ae 4d3e 03f5 f2bd 58dd 423d
000001d0: e814 80bd da1e 85bd 45bc 78bd 8a0c 0fbe
000001e0: f70b bb3c 6fc2 0cbe 8cca 713d f3c9 ba3d
000001f0: 3d93 103e 7dde 243e 54ae 83bc a2ce 9e3d
00000200: bd76 b7bd 48ff f5bd 1819 7a3d fe2b 603d
00000210: 7c23 edbd 2bad a03d 7b1f b93d d76d cf3d
00000220: 45d7 95bd 673b d73d 063d 0d3e 8036 b23c
00000230: e350 103e bae1 cc3b 37e9 ed3d 257c 5cbc
00000240: 8ce5 99bd 1110 07be db4f ab3d 9439 febb
00000250: 24a9 65bb 9425 39be 71a7 22bd b24e f93d
00000260: ec9f 27bc 2642 b43d 5caa 2ebd ea50 f0bd
00000270: 87ad c4bd f0ef 3abc 6b09 12bd b42c c13c
00000280: d7b9 0f3e 718d d73d 193b 71bd 4e15 193e
00000290: e02a cf3c d886 07bd d444 8d3d bd34 2a3d
000002a0: 075e 0a3e 5bea 8ebd 0065 10bd 32cc 1bbc
000002b0: b79a 60bd a68e 1cbe f38c 063e b4e2 7bbc
000002c0: c186 0ebe e877 8b3d 7ca7 913c 2d21 0a3e
000002d0: 8c7a 1a3e de92 853d 2a82 a63c 0e34 923d
000002e0: 9e7d 54be fa50 cebd 6e6a 54bd dfd2 a53b
000002f0: 789a 9ebd 8801 e7bd 3755 bbbd 0c3f 34be
00000300: 4a8b 9cbd 94cd b3bd ab03 f43c dbc7 05bd
00000310: 833f 07be 7767 21be 01ca 8a3d ebd8 e1bd
00000320: 91ad d83c cd96 c2bd 7c5b 9b3c a20b f03d
00000330: fd41 c9bd 9425 58bd 1d80 143e 6340 213e
00000340: 735d 283d 1cfc 0b3e ceee 053e 8a8e 26bc
00000350: 72e3 78bd ff26 2a3e eafa 39bc af5d 953c
00000360: 404b 8b3d 857a 10be c1f5 93bd 1963 6d3d
00000370: c0d3 babd 5e74 493d c967 153e 5e77 89bd
00000380: 7587 653e 8194 ac3d e771 2b3e 38f7 5e3d
00000390: 45ee 883d 8479 f73b b962 9fbd 5263 36bb
000003a0: d5d0 3c3e 8773 4d3c 28f4 e23d c788 803e
000003b0: 96df 773e 35dd 7d3e 3057 d6bd 9f8c 693d
000003c0: 054d 9e3d 2f55 dd3c f2da d53c e11d 9fbd
000003d0: aea4 b03d 92c0 9dbd 87cf 88bb ab70 28be
000003e0: b043 f13d 3389 423e ac35 01be 146e 05bd
000003f0: 4c9d 133e 2b4b a43b 81ed f1bc 1f62 f0bd
0.08993558 0.10762614 -0.088022 0.18064432 0.2634788 0.06646119 -0.06633746 0.0530644
0.17016122 0.12650917 0.036979806 -0.002938763 0.29962426 0.18759868 0.12963222 0.0023173587
-0.040792022 0.30175963 0.015016416 0.13921766 -0.0011893268 0.14546905 0.15513583 0.055604
0.19444978 -0.07509447 0.096289575 -0.119282424 -0.018754452 0.29058403 0.08826741 0.08315933
0.20677103 0.06381238 0.14931369 -0.07128011 0.20049848 -0.060480803 0.1239029 0.09545466
0.20240475 0.013078536 0.21528181 0.035311855 0.34016255 0.17967665 0.08374804 0.027561108
0.053758305 0.33822426 0.13301289 -0.13803276 -0.030564306 -0.16989926 0.10143564 0.14324145
0.3155158 0.022710444 0.078537 0.05315657 0.22725043 0.2277293 0.14166051 0.055172957
0.042262018 -0.044282515 -0.1370906 -0.08517926 -0.019118408 0.0031273735 0.13378876 -0.15754196
0.15407841 -0.013915808 -0.096281424 -0.17372751 -0.055291686 0.1231255 0.100585304 -0.09346038
-0.08294188 0.082906544 -0.022984622 0.13642578 -0.1653227 0.041454807 -0.064690016 -0.11815216
-0.11604799 -0.18493137 -0.12431512 0.13131903 0.14214227 0.08804128 -0.16573681 0.0042893947
0.20394202 -0.07549028 -0.025808612 -0.025026463 0.016295401 -0.096366085 -0.13865522 -0.10989367
-0.032952514 0.04568313 0.16289084 -0.05922601 -0.039011773 0.07662949 -0.050648056 0.10139918
0.06932749 0.20085989 -0.118631385 0.04757437 -0.062539876 -0.06500025 -0.060726423 -0.13969627
0.022832854 -0.13746046 0.059031054 0.0912055 0.14118667 0.16100498 -0.016074337 0.07754256
-0.089581944 -0.12011582 0.061059088 0.054729454 -0.11579034 0.07845529 0.090392075 0.10128372
-0.0731645 0.10509377 0.1379281 0.021754503 0.14093356 0.0062524946 0.11616748 -0.013457333
-0.07514486 -0.13189723 0.083648406 -0.0077583287 -0.0035043443 -0.18080741 -0.039710466 0.12173213
-0.010230999 0.08801679 -0.042642936 -0.11734183 -0.0960341 -0.011409745 -0.035653513 0.023580886
0.14035736 0.10525025 -0.05889425 0.14949533 0.025289 -0.03308758 0.068978935 0.0415542
0.13512431 -0.069782935 -0.03525257 -0.009509133 -0.054835048 -0.15288791 0.13139705 -0.015373874
-0.13918592 0.0680998 0.017780058 0.13489218 0.1508581 0.06522153 0.020325739 0.07138835
-0.20751044 -0.10074039 -0.05185931 0.005060538 -0.07744306 -0.11279589 -0.09147113 -0.17602175
-0.07643755 -0.08779445 0.029786905 -0.0326613 -0.13207822 -0.15762125 0.067768104 -0.11027702
0.02644995 -0.09501419 0.018964522 0.11720969 -0.098270394 -0.052770212 0.14501996 0.15747218
0.041104745 0.13670391 0.13079378 -0.01016582 -0.060763784 0.16616438 -0.0113513265 0.018233148
0.06801462 -0.14109237 -0.07224608 0.057955835 -0.09122419 0.049183242 0.14590372 -0.067122206
0.22414954 0.08426762 0.16742669 0.054434985 0.06686071 0.0075523276 -0.07782502 -0.0027830196
0.18439038 0.012539751 0.11081725 0.25104353 0.24206385 0.24791415 -0.104658484 0.057018872
0.07729534 0.027018158 0.026105378 -0.07769371 0.0862516 -0.077027455 -0.00417513 -0.1644923
0.117804885 0.1899765 -0.1261813 -0.03257568 0.14415473 0.0050138435 -0.029532196 -0.11737465

context_encoder.2.bias f4 [16]
00000000: a130 453e c2f3 fd3d 97f3 463d 4a47 0f3c
00000010: 5f18 27be e98b e83d be62 11be 17ee 583e
00000020: 0f61 ffbd a06b 753e 0f87 91bd 8e2f a3bd
00000030: 7799 99bc 48ac 24bd 8c90 eabc 4cc9 623e
0.19256832 0.12400009 0.04857215 0.008745024 -0.1631789 0.11354811 -0.14197823 0.21184574
-0.12469684 0.23966837 -0.071058385 -0.07968055 -0.018749936 -0.040203363 -0.028633378 0.22147101
