hierarchical_agent_final.pth (torch, 112125 bytes, 50 tensors)

network.0.weight f4 [64, 10]
0	0x3e492488	0.19642842
1	0xbe8c1aeb	-0.27364287
2	0x3e1820a5	0.14856203
3	0x3d1012e9	0.035174284
4	0x3d0da891	0.034584586
5	0xbe72b7be	-0.23702905
6	0xbe3c1f79	-0.18371381
7	0xbe52fc62	-0.20604089
8	0xbe47469b	-0.19460528
9	0xbe6b3bb0	-0.22971988
10	0xbd905e2f	-0.07049214
11	0x3e85804e	0.2607445
12	0x3e305fa7	0.17223988
13	0xbe86b2c0	-0.2630825
14	0xbe60b388	-0.21943486
15	0x3e77219a	0.24133912
16	0xbea47e1d	-0.32127467
17	0xbdb86ce2	-0.09005143
18	0x3d1e149b	0.03859387
19	0xbe218df9	-0.15776815
20	0x3e0864bf	0.13319682
21	0xbd175ba6	-0.036952637
22	0xbe82021a	-0.25392228
23	0x3e511dcf	0.20421527
24	0x3e718da3	0.23589186
25	0xbe227a4c	-0.15866965
26	0xbe8be781	-0.2732506
27	0x3e82c2a8	0.25539136
28	0x3e1ecb54	0.15507251
29	0xbe143449	-0.1447307
30	0xbde41358	-0.11136502
31	0x3e6b7f5f	0.22997807
32	0x3e99c195	0.30030504
33	0x3e9de2e7	0.30837175
34	0xbd2bdf25	-0.041960854
35	0x3e8d0f2a	0.27550632
36	0x3d68c6f5	0.056830365
37	0x3d856f09	0.06515319
38	0x3e1d1631	0.15340497
39	0xbd44853a	-0.047978617
40	0x3e742e3c	0.23845762
41	0xbe42bc03	-0.19017033
42	0xbe8d3113	-0.27576503
43	0xbd03bdb7	-0.032163348
44	0x3e9802ef	0.29689738
45	0x3e21869d	0.15774007
46	0x3dedf961	0.11619831
47	0xbe44a96f	-0.19205259
48	0x3dc4db12	0.09612097
49	0xbe7ff1b2	-0.24994543
50	0x3d583d89	0.05279306
51	0x3d9a1617	0.075237446
52	0xbe40a384	-0.18812376
53	0xbba36cc9	-0.0049873334
54	0x3dfb8239	0.122806974
55	0xbe8e811e	-0.27832884
56	0xbd3c7cdd	-0.046017516
57	0x3d6a331b	0.057177644
58	0xbea856b4	-0.3287865
59	0xbcb9e3ac	-0.02269157
60	0xbe93a50e	-0.28836864
61	0x3d4f0d64	0.05054988
62	0x3dce0015	0.100586094
63	0x3e7268fe	0.23672864
64	0x3e7b6ea5	0.24553926
65	0xbe42d4a2	-0.19026425
66	0x3d9369f8	0.07197946
67	0x3e6ce751	0.23135115
68	0x3dbed270	0.093174815
69	0xbe898d90	-0.26865816
70	0x3e3524b5	0.17689784
71	0xbe2205ff	-0.158226
72	0x3edf5009	0.4361575
73	0x3e54f1d6	0.20795378
74	0x3da00513	0.07813468
75	0xbd815789	-0.06315524
76	0x3ea7cac2	0.3277188
77	0x3eaf3abc	0.34224498
78	0xbe2a8369	-0.16651691
79	0x3e86d9e0	0.263381
80	0xbdadf0de	-0.084932074
81	0xbdf90f37	-0.12161105
82	0xbe4b5e26	-0.19860134
83	0xbe84193c	-0.25800502
84	0x3d8b5965	0.0680416
85	0x3dd83335	0.10556642
86	0xbdc6bfb2	-0.09704532
87	0x3e329f05	0.17443474
88	0xbe5aaa04	-0.21353918
89	0x3e3f4441	0.1867838
90	0xbe8d7ac5	-0.27632728
91	0x3e0dec47	0.13859664
92	0xbdffe92a	-0.124956444
93	0xbe81b703	-0.2533494
94	0x3e3f5bc8	0.18687356
95	0x3ea1c01b	0.31591877
96	0xbe9681f0	-0.2939601
97	0x3d389e88	0.045073062
98	0xbd9d0d6f	-0.07668578
99	0xbe944045	-0.28955284
100	0x3d3f0ea4	0.04664482
101	0x3e66f4de	0.22554347
102	0xbd9cbdc3	-0.07653382
103	0xbd55e696	-0.052221857
104	0xbaec5fb6	-0.0018033895
105	0x3eab87d4	0.33502066
106	0x3e3bb51e	0.1833081
107	0xbdd8ad2e	-0.105799064
108	0xbe4daea8	-0.20086157
109	0x3e0fa737	0.14028631
110	0xbd815489	-0.06314952
111	0x3d0e9452	0.034809418
112	0x3ec38a40	0.38191414
113	0x3e494181	0.19653894
114	0xbe380a5a	-0.17972699
115	0x3e738bc7	0.2378379
116	0x3e007af8	0.12546909
117	0x3e99fc01	0.30075076
118	0xbd77d2dd	-0.06050383
119	0x3daa367e	0.08311175
120	0xbe18170c	-0.14852542
121	0x3d3e360a	0.046438254
122	0x3cb53c2c	0.022123419
123	0xbd874b8d	-0.06606207
124	0xbe0e3b0b	-0.1388971
125	0x3ec407a6	0.38287085
126	0x3e19a41c	0.15004009
127	0xbe0107f7	-0.12600695
128	0xbe363358	-0.17793024
129	0x3b1150c6	0.002217339
130	0x3e09c408	0.13453686
131	0x3dbfadbd	0.0935931
132	0xbd0bd2a5	-0.034136433
133	0x3e223e27	0.15844022
134	0xbe599473	-0.21248035
135	0x3e34dc09	0.17662062
136	0x3e1802a1	0.14844753
137	0x3e3182fd	0.17335124
138	0xbdd65084	-0.10464576
139	0xbd4a88e6	-0.049446963
140	0x3e39074d	0.18069191
141	0x3e9b8855	0.3037745
142	0xbd2f9be1	-0.042873267
143	0xbe3c8309	-0.18409361
144	0x3e992962	0.29914385
145	0x3e709a2f	0.23496316
146	0xbe98c73a	-0.29839498
147	0x3ccf649c	0.025316529
148	0x3e947ed8	0.29003024
149	0xbdf7a5a3	-0.120921396
150	0x3e24b7df	0.16085766
151	0x3dbca0af	0.092103355
152	0x3e09e000	0.13464355
153	0x3dfe6a95	0.12422673
154	0xbe90e418	-0.28299022
155	0x3e3115ed	0.1729352
156	0xbe509fe1	-0.20373489
157	0xbd86f6e2	-0.06590058
158	0x3e1c007f	0.15234564
159	0xbd79f56c	-0.06102507
160	0x3e7ef6e6	0.24898872
161	0x3e5000a2	0.20312741
162	0x3e8b2307	0.2717516
163	0x3d088e94	0.033339098
164	0x3d5ba52f	0.05362433
165	0x3e9377a2	0.2880221
166	0x3da3779b	0.07981797
167	0x3e856953	0.26056919
168	0xbe570553	-0.20998125
169	0x3e4af75d	0.19820924
170	0x3e85928a	0.26088363
171	0x3c1458b0	0.009054348
172	0xbda4d413	-0.080482624
173	0xbe0856c1	-0.13314344
174	0xbe9d8eec	-0.30773103
175	0x3e094981	0.13406946
176	0xba18067f	-0.0005799308
177	0xbdc65006	-0.09683232
178	0x3e3b56df	0.18294857
179	0x3d30bf9f	0.043151494
180	0xbea39807	-0.31951925
181	0x3e0cfa7b	0.13767426
182	0xbe88d217	-0.26722786
183	0x3dc49d24	0.09600285
184	0xbe65c57e	-0.22438619
185	0xbde57658	-0.11204213
186	0xbe7fa27d	-0.24964328
187	0x3de0b449	0.10971887
188	0x3e584835	0.21121295
189	0x3e4e9733	0.20174865
190	0x3d1bc2cc	0.03802757
191	0x3c27525d	0.010212508
192	0x3e865187	0.26234075
193	0x3dd098f7	0.10185426
194	0xbd9ffb2c	-0.07811579
195	0x3d72bcda	0.059262134
196	0xbe533058	-0.2062391
197	0xbdd6a6f4	-0.104810625
198	0x3d16d47d	0.03682374
199	0x3e28cd5b	0.16484587
200	0xbdd292e5	-0.10281924
201	0x3dd57be7	0.10424023
202	0xbe8abf75	-0.27099195
203	0x3e171f14	0.14757949
204	0x3e943290	0.28944826
205	0xbb449c8a	-0.003000053
206	0x3d6c8d80	0.057752132
207	0x3ea92647	0.33037016
208	0x3dde5f0f	0.10857975
209	0x3e0d0a52	0.13773468
210	0x3e7b586f	0.24545453
211	0x3e28c1ba	0.16480151
212	0x3e5241c9	0.20532908
213	0xbda6a1d4	-0.08136335
214	0x3d6b6a08	0.057474166
215	0xbe1136ae	-0.14181015
216	0xbea98c4d	-0.33114854
217	0x3e6984b0	0.22804523
218	0xbe74037c	-0.23829454
219	0x3d6f4c59	0.05842242
220	0x3eb2b312	0.34902245
221	0x3eae76a9	0.34074906
222	0x3e6b5ffc	0.22985834
223	0xbe7a018d	-0.24414654
224	0xbd0df7a6	-0.034660004
225	0x3ea17b4e	0.31539387
226	0x3ea9c863	0.33160695
227	0x3e7cba1e	0.24680373
228	0x3eb05e22	0.34446818
229	0x3d6502fd	0.055911053
230	0xbe8dad0a	-0.2767108
231	0xbd9fe5a1	-0.0780747
232	0xbe802a8e	-0.25032467
233	0x3dcc0b17	0.09963053
234	0xbe36c728	-0.1784941
235	0xbd6297f2	-0.055320688
236	0x3e024902	0.12723163
237	0x3e7d6f9e	0.2474961
238	0xbe81a654	-0.2532221
239	0x3e2b2516	0.16713366
240	0x3e83a527	0.2571194
241	0x3e448bdc	0.19193977
242	0xbb9105bd	-0.004425733
243	0x3d91c9e8	0.07118589
244	0xbe2a58a1	-0.16635372
245	0xbe452d07	-0.19255458
246	0xbe946de0	-0.28990078
247	0xbea66e1a	-0.32505876
248	0x3d3a98e9	0.045555983
249	0xbcd04f77	-0.025428517
250	0xbe32b9ad	-0.17453642
251	0x3d8e2d9a	0.069422916
252	0xbd1d0085	-0.038330574
253	0x3e4a7292	0.19770268
254	0x3e640323	0.22266822
255	0x3e1bb391	0.15205218

network.0.bias f4 [64]
0	0x3c0b0d49	0.008487054
1	0x3e717f85	0.23583801
2	0xbdb95a7a	-0.0905046
3	0xbe4810a4	-0.19537598
4	0x3dc7a4e5	0.09748248
5	0x3dd72b25	0.10506276
6	0x3e5c4264	0.21509701
7	0x3ea5db52	0.3239389
8	0xbd6ad011	-0.057327334
9	0xbdd0d183	-0.10196211
10	0xbcfa6768	-0.030566886
11	0x3ed23612	0.41056877
12	0x3ead0c07	0.3379824
13	0xbe422471	-0.18959214
14	0xbdc67d92	-0.096919194
15	0x3ddf898d	0.109149076
16	0x3cbf7005	0.023368845
17	0xbdd32c7a	-0.103112176
18	0x3e3fab69	0.18717732
19	0xbe0ebd50	-0.13939404
20	0x3dea99ea	0.11455138
21	0xbe476790	-0.194731
22	0xbe57e769	-0.2108437
23	0xbdaf91aa	-0.08572705
24	0x3e706e96	0.23479685
25	0x3e8e875c	0.27837646
26	0x3eb849bb	0.35993752
27	0xbe0b644d	-0.1361248
28	0xbe925f90	-0.28588533
29	0x3e2a0406	0.16603097
30	0xbe8962b9	-0.26833132
31	0x3e8eca97	0.2788894
32	0x3ea9324c	0.33046186
33	0x3e42859a	0.18996277
34	0xbe4e84dc	-0.2016787
35	0x3e53a728	0.20669234
36	0xbe831b16	-0.25606602
37	0x3e00b0e1	0.12567474
38	0x3eb3a44a	0.3508628
39	0x3e520228	0.20508635
40	0x3c86e165	0.016464898
41	0x3e2e194a	0.17001835
42	0x3ca22187	0.019791378
43	0x3e1ea9ae	0.15494415
44	0x3dba5700	0.09098625
45	0x3dc9659e	0.09833835
46	0xbbc3709a	-0.005964351
47	0xbbdb2e14	-0.0066888425
48	0x3d15b46c	0.036549017
49	0x3e53aad0	0.20670629
50	0xbe49f558	-0.19722497
51	0xbe02bc4d	-0.12767144
52	0xbd2333d9	-0.039844368
53	0xbe2978e1	-0.16550018
54	0xbe7c3591	-0.24629809
55	0xbd05e1e3	-0.032686125
56	0x3ebe112e	0.37122482
57	0x3d10bf97	0.035338964
58	0x3e013959	0.12619533
59	0x3e7db48a	0.24775901
60	0x3d4588be	0.04822611
61	0x3e66914d	0.22516365
62	0x3d232e9c	0.039839372
63	0x3dd8a059	0.10577459

network.2.weight f4 [32, 64]
0	0x39941600	0.0002824515
1	0x3c7148db	0.014726843
2	0xbd1fcfb5	-0.039016444
3	0x3de0aa34	0.10969964
4	0x3db303af	0.08740937
5	0xbdab01b0	-0.08349931
6	0xbde84438	-0.11341137
7	0x3ce94169	0.028473573
8	0xbddd3932	-0.10801925
9	0xbcb21728	-0.021739557
10	0xbd886e3b	-0.0666165
11	0x3ca0ef64	0.0196454
12	0xbbfef5ad	-0.0077807517
13	0xbd6b7b93	-0.057490896
14	0xbd9b9f5b	-0.07598754
15	0xbd25d0b6	-0.040482245
16	0x3deb5e05	0.11492542
17	0xbd41bbd9	-0.047298286
18	0x3ccf44f3	0.025301432
19	0xbd4922a2	-0.049105294
20	0xbddc7b8e	-0.10765754
21	0xbd673690	-0.05644852
22	0xbdc6f0bc	-0.09713885
23	0xbbfb2c94	-0.0076652262
24	0x3d3cdfc9	0.046111856
25	0x3c10d15f	0.00883898
26	0xbd8ac769	-0.06776316
27	0x3db01383	0.085974716
28	0x3cb6ca79	0.022313343
29	0xbd3a83f3	-0.045535993
30	0x3d70bf35	0.0587761
31	0x3cf208ec	0.02954527
32	0x3d887221	0.06662393
33	0xbd0c5275	-0.034258325
34	0xbde77224	-0.113010675
35	0xbdb9cf72	-0.0907277
36	0xbd956c02	-0.072959915
37	0xbdb28349	-0.08716447
38	0xbaf51205	-0.0018697387
39	0xbdf0e2f5	-0.117620386
40	0x3daafa9b	0.083485804
41	0xbdb67a05	-0.08909992
42	0x3d9789ea	0.07399352
43	0xbd13966a	-0.036032118
44	0xbd08721f	-0.03331196
45	0x3d76b98c	0.060235545
46	0xbaec4f48	-0.0018028999
47	0xbdd01c6c	-0.10161671
48	0xbe02d9c4	-0.12778383
49	0xbded562e	-0.11588703
50	0x3ddb5628	0.107097924
51	0x3d7f1fac	0.062286064
52	0xbdb076f5	-0.08616439
53	0x3c2254a0	0.0099078715
54	0xbdd64f14	-0.10464302
55	0x3d734699	0.0593935
56	0x3d50d517	0.05098447
57	0xbc4d2207	-0.01252032
58	0x3b105cff	0.0022028086
59	0x3df309f9	0.118671365
60	0xbe0934d4	-0.13399059
61	0x3dcb8e0c	0.09939203
62	0xbdd6bf7a	-0.1048574
63	0x3d70a5c6	0.058751844
64	0xbdf49d0a	-0.11944015
65	0x3c57b2ab	0.013165156
66	0xbdcfeb5b	-0.10152312
67	0xbd8df811	-0.069320805
68	0xbd93bfc6	-0.07214312
69	0xbd422295	-0.04739626
70	0xbdfa2d09	-0.12215621
71	0x3d6836d8	0.056692928
72	0xbe19c6fb	-0.15017311
73	0x3dde12c8	0.10843426
74	0x3dc5a881	0.0965128
75	0x3dd2726b	0.1027573
76	0xbcf937ae	-0.030422058
77	0x3d8e48e8	0.069474995
78	0x3dc8c289	0.0980273
79	0x3c420549	0.01184208
80	0xbd0ee254	-0.034883812
81	0x3d9603dc	0.07324955
82	0x3dde735f	0.10861849
83	0xbdeae104	-0.114686996
84	0xbd3891ec	-0.045061037
85	0xbd8b5550	-0.068033814
86	0xbd86de66	-0.06585388
87	0xbc98664b	-0.018603465
88	0x3ddbdf29	0.10735924
89	0x3d08448d	0.0332685
90	0xbda5adca	-0.08089788
91	0x3d2556f9	0.040366147
92	0x3c7220af	0.0147783
93	0x3cdb5106	0.026772033
94	0x3df13c3b	0.11779066
95	0xbdbab5fb	-0.09116741
96	0x3d96e855	0.073685326
97	0xbd107c67	-0.03527489
98	0xbdc7bc31	-0.097526915
99	0x3df79ebc	0.12090823
100	0xbdff337d	-0.124609925
101	0xbd196ce2	-0.037457354
102	0x3ba2610f	0.004955418
103	0x3dbc9447	0.09207969
104	0xbc6edf9d	-0.014579681
105	0x3df32c3d	0.11873672
106	0x3db18372	0.08667649
107	0xbd2342db	-0.03985868
108	0xbe247aa7	-0.16062413
109	0x3d35814c	0.04431276
110	0xbe0f4a93	-0.13993292
111	0x3d54f2d3	0.051989388
112	0xbdf2f1d5	-0.11862532
113	0xbd83e26c	-0.06439671
114	0xbcea97f0	-0.028636903
115	0xbd739448	-0.059467584
116	0xbc0b2fa2	-0.008495243
117	0x3de617ea	0.1123503
118	0x3cb4f9e0	0.022091806
119	0xbd084577	-0.03326937
120	0xbd18b12a	-0.03727833
121	0xbdead893	-0.114670895
122	0xba8a344d	-0.0010544151
123	0xbde3a0d4	-0.1111466
124	0xbd9f34ac	-0.07773718
125	0xbd826bfc	-0.06368253
126	0x3d03799c	0.032098398
127	0xbdac0b12	-0.08400549
128	0x3da7de14	0.08196655
129	0x3d80e47f	0.06293582
130	0xbd870514	-0.065927655
131	0xbc8f0137	-0.017456634
132	0x3dd782b9	0.1052298
133	0xbd87cfa9	-0.06631405
134	0xbde617fd	-0.11235044
135	0xbd1585ea	-0.036504664
136	0xbdd69d5a	-0.10479231
137	0x3c08d590	0.0083516985
138	0xbdd27dd7	-0.10277908
139	0xbd5556ee	-0.052084856
140	0xbce039a0	-0.027371228
141	0x3d307882	0.043083675
142	0xbdb0fe65	-0.08642272
143	0xbd9bf949	-0.07615907
144	0x3d53a3dd	0.051669944
145	0x3dc13a2f	0.09434926
146	0x3d08aae8	0.033366114
147	0x3d740f20	0.059584737
148	0xbcd9482f	-0.026523678
149	0x3d94bfee	0.0726317
150	0xbdda0503	-0.10645487
151	0x3dcc7f7c	0.09985253
152	0xbdc7ab6c	-0.09749493
153	0xbd49243d	-0.049106825
154	0x3b124aa5	0.0022322324
155	0xbd971dc2	-0.07378723
156	0x3dafb068	0.08578569
157	0xbdef08df	-0.11671614
158	0xbd21dbfd	-0.039516438
159	0x3d7d1ae4	0.061793223
160	0x3d916c10	0.071006894
161	0x3be73312	0.0070556486
162	0xbc415059	-0.0117989415
163	0x3dc1b422	0.09458186
164	0xbd80ac51	-0.06282867
165	0x3dcb923f	0.099400036
166	0x3d56aeea	0.052412905
167	0xbd27af1c	-0.04093848
168	0xbdcf4f93	-0.101225995
169	0x3df518ea	0.119676426
170	0xbd46c8f0	-0.048531473
171	0xb9db3002	-0.00041806704
172	0x3d2ebc34	0.042659953
173	0x3d836ec4	0.06417611
174	0x3cc7530a	0.024331588
175	0xbcdce2b8	-0.026963577
176	0xbd716a65	-0.058939356
177	0xbd16a504	-0.036778465
178	0x3c193b60	0.009352535
179	0x3ced8270	0.028992862
180	0x3df1ae61	0.11800838
181	0x3de17522	0.110086694
182	0xbdeb8046	-0.114990756
183	0x3c7a11d7	0.015263042
184	0x3c1731bf	0.009228169
185	0x3dbaa85d	0.09114144
186	0xbd318d3b	-0.04334758
187	0xbd8a87ed	-0.06764207
188	0x3c859baa	0.016309578
189	0xbdf02b25	-0.11726979
190	0x3d961cdb	0.073297225
191	0x3ddad234	0.10684624
192	0x3d4d100c	0.05006413
193	0x3d56978c	0.05239062
194	0x3dcd9796	0.10038678
195	0x3d51491c	0.051095113
196	0x3da1732e	0.07883297
197	0xbcb445b8	-0.0220059
198	0x3d06828c	0.032839343
199	0xbdb09c6a	-0.086235836
200	0xbdfbd7a0	-0.122969866
201	0xbce86f98	-0.028373525
202	0xbbfc2160	-0.0076944083
203	0x3c807518	0.015680835
204	0x3dae3bd2	0.085075036
205	0x3da87ade	0.0822656
206	0x3d8b87d0	0.068130136
207	0xbd4f78dc	-0.05065237
208	0x3cd80070	0.026367396
209	0x3ddf0db0	0.108912826
210	0xbdd4616e	-0.10370146
211	0xbdd76a94	-0.10518375
212	0xbc057980	-0.008146644
213	0xbdffd616	-0.124920055
214	0x3bccd820	0.00625135
215	0xbcef6ab8	-0.029225692
216	0xbdba3500	-0.0909214
217	0xbd9eb9ba	-0.07750268
218	0x3d0a6aa4	0.033793107
219	0x3c92e4d0	0.017931372
220	0x3d9cae18	0.07650393
221	0x3d141838	0.03615591
222	0x3d518338	0.05115053
223	0xbd762ec8	-0.060103208
224	0xbda8911a	-0.08230801
225	0xbd9bd75c	-0.07609436
226	0xbd7cced0	-0.06172067
227	0xbdce5b26	-0.10075979
228	0x3dde354e	0.10850011
229	0xbd871c34	-0.06597176
230	0xbda736d8	-0.081647575
231	0x3dc52e5a	0.096279815
232	0x3d99c3f4	0.07508078
233	0x3cded988	0.027203336
234	0xbde55f80	-0.11199856
235	0xbbf2c960	-0.0074092597
236	0xbc709490	-0.014683858
237	0xbdf11dc0	-0.117732525
238	0x3dfa206e	0.12213217
239	0xbd73f42c	-0.059559032
240	0xbd6be350	-0.05758983
241	0xbdb4d81e	-0.088302836
242	0xbd715368	-0.058917433
243	0x3d5176e0	0.05113876
244	0xbd784730	-0.060614765
245	0xbda92c16	-0.08260362
246	0x3d7aa55c	0.061192855
247	0x3d92df68	0.071715176
248	0xbdb9291a	-0.090410426
249	0xbd8dc61e	-0.069225535
250	0xbd8f7c92	-0.07006182
251	0xbcb6f938	-0.022335634
252	0xbcdeb150	-0.027184159
253	0x3da7312e	0.08163677
254	0xbb117940	-0.0022197515
255	0xbd068938	-0.032845706

network.2.bias f4 [32]
0	0x3c29d7d7	0.010366402
1	0x3d8a133c	0.0674195
2	0xbda3959a	-0.079875186
3	0xbd849faa	-0.06475766
4	0xbe20104a	-0.15631214
5	0xbd2b04a0	-0.041752458
6	0xbdfa0d40	-0.122095585
7	0xbdb01ba2	-0.085990205
8	0x3d11c183	0.035584938
9	0xbd85e7c5	-0.06538347
10	0xbce391f9	-0.027779566
11	0x3d079e7b	0.033110123
12	0x3df1c9b4	0.1180605
13	0x3e127276	0.14301476
14	0x3e1b1bb2	0.15147284
15	0x3c3cfed8	0.011535369
16	0x3da8d8e3	0.08244493
17	0xbdb0a00e	-0.08624278
18	0xbcc371fc	-0.023858063
19	0xbd86eae5	-0.06587771
20	0x3da032bc	0.07822177
21	0xbdbfc75a	-0.09364195
22	0xbd9e0901	-0.07716561
23	0x3db49dd4	0.08819166
24	0x3ba2f130	0.0049725994
25	0x3d6a0ba4	0.057140008
26	0xbdd061a7	-0.10174876
27	0xbdf577c6	-0.119857356
28	0xbd7bb2dd	-0.061449874
29	0xbdd16c08	-0.102256835
30	0x3cfb6473	0.030687546
31	0xbd98618a	-0.07440479

network.4.weight f4 [4, 32]
0	0x3dde5af2	0.1085719
1	0x3daafdc5	0.08349184
2	0x3db51b0f	0.08843052
3	0xbd729ff9	-0.059234593
4	0x3d9a4ad8	0.075338066
5	0xbdfcdabf	-0.1234641
6	0xbcab2d62	-0.020895664
7	0xbc4bb9d6	-0.012434443
8	0xbdf6a586	-0.1204329
9	0xbd3a5a9f	-0.04549658
10	0x3d819817	0.06327837
11	0x3d3876a1	0.04503501
12	0x3d9d18c9	0.07670743
13	0xbe436467	-0.19081269
14	0xbe73091f	-0.23733948
15	0x3e1b8f74	0.15191442
16	0xbb8ea4c3	-0.004353137
17	0xbe1d6faa	-0.15374628
18	0xbe17fb32	-0.14841917
19	0xbd4c8d1a	-0.049939252
20	0xbd9c86c8	-0.07642895
21	0xbda5c016	-0.08093278
22	0xbd79a519	-0.060948465
23	0xbe629ab6	-0.2212933
24	0x3e01f481	0.12690927
25	0xbe7dbd31	-0.24779202
26	0x3d609bf7	0.05483624
27	0x3dc3c1bb	0.095584355
28	0xbe0bbda3	-0.1364656
29	0x3db8466e	0.089978084
30	0xbdcd5d94	-0.10027614
31	0x3de6e92a	0.11274941
32	0xbc9c0988	-0.019047514
33	0xbd968ab0	-0.07350671
34	0x3be8159c	0.007082654
35	0xbd6a8c4e	-0.05726271
36	0xbd1b9aea	-0.037989534
37	0x3cd0b09c	0.025474839
38	0xbd4e257e	-0.050328724
39	0xbe2030f7	-0.15643679
40	0x3e610458	0.21974313
41	0xbd14317d	-0.03618001
42	0xbe1b3390	-0.15156388
43	0xbdeabee4	-0.11462191
44	0xbdcafdaa	-0.09911664
45	0x3dc3e8a2	0.095658556
46	0xbe080fae	-0.13287231
47	0x3e2d632b	0.16932361
48	0xbc0f0cc4	-0.008731071
49	0x3e0bd10a	0.13653961
50	0xbdc966ee	-0.098340854
51	0xbe19c08f	-0.15014862
52	0x3d9e49bf	0.0772891
53	0x3d2a721b	0.041612726
54	0x3d81f9f4	0.06346503
55	0xbdc74320	-0.097296
56	0x3dfc8a3e	0.12331055
57	0xbb484fba	-0.00305651
58	0xbd946fae	-0.07247864
59	0xbd2b9e64	-0.0418991
60	0xbd746334	-0.05966492
61	0xbce83ea4	-0.028350182
62	0x3e08e006	0.13366708
63	0xbdee5dd0	-0.11638987
64	0xbb9e92e7	-0.0048392895
65	0x3daee40c	0.0853959
66	0x3dac489e	0.08412288
67	0x3d8881ba	0.066653684
68	0xbdfd64e2	-0.123727575
69	0xbde89738	-0.11356968
70	0xbdb6b538	-0.089212835
71	0xbc2081a7	-0.0097965365
72	0x3e8ca589	0.27470043
73	0x3df1b53f	0.11802148
74	0xbe015292	-0.12629154
75	0xbdbb4bbe	-0.09145306
76	0xbbb80785	-0.005616131
77	0x3e998231	0.2998214
78	0x3e32404d	0.17407341
79	0xbe2b2bb8	-0.16715896
80	0xbda136c5	-0.078717746
81	0x3d8d2621	0.06892038
82	0x3e0dbf99	0.1384262
83	0x3c615396	0.013752839
84	0xbe24bca6	-0.16087589
85	0x3e182082	0.14856151
86	0x3e154f9a	0.14581147
87	0xbe061940	-0.1309557
88	0xbe163c15	-0.14671357
89	0x3e584b1b	0.211224
90	0xbdca3e59	-0.09875173
91	0xbccfa6ca	-0.025348086
92	0xbd2c770c	-0.04210572
93	0x3e2ab6d1	0.16671301
94	0x3e2e5e2d	0.17028113
95	0xbc332697	-0.0109344935
96	0x3d8ad8ae	0.067796096
97	0x3dc4258d	0.09577475
98	0x3ce3a667	0.027789308
99	0x3e17eb3a	0.14835826
100	0xbd895cf1	-0.0670718
101	0x3def13bb	0.11673685
102	0x3c91b58b	0.017786762
103	0x3e0e7c34	0.13914567
104	0x3e0a70f1	0.13519646
105	0x3d7548b6	0.059883796
106	0x3e203a3a	0.15647212
107	0xbd1f7361	-0.038928393
108	0x3e28e4fd	0.16493602
109	0xbdebabb8	-0.11507362
110	0xbe229e15	-0.15880616
111	0xbc50a8ba	-0.01273554
112	0x3d575aa4	0.052576676
113	0x3c064560	0.008195251
114	0x3d895429	0.067055054
115	0xbdd1b93d	-0.102404095
116	0xbdbf1c57	-0.09331577
117	0x3df6b9e7	0.12047177
118	0xbd959cdb	-0.073053084
119	0x3ebc773d	0.36809722
120	0x3ddf382f	0.10899388
121	0xbe28377c	-0.16427416
122	0xbc9279f0	-0.01788041
123	0x3e06c136	0.13159642
124	0x3db92f4d	0.09042225
125	0xbdc2b329	-0.09506828
126	0x3d722149	0.059113774
127	0xbcd05d7c	-0.025435202

network.4.bias f4 [4]
0	0xbc83f2fe	-0.016107079
1	0x3d4ad861	0.04952276
2	0xbcfebdef	-0.031096427
3	0x3a92d75b	0.0011203097

player_encoder.0.weight f4 [64, 6]
0	0x3ef21576	0.47281998
1	0xbe63ce24	-0.22246605
2	0xbd59e06a	-0.053192534
3	0x3e4a3ef0	0.19750571
4	0xbe15cc57	-0.1462873
5	0xbec4d08e	-0.38440365
6	0xbec55a4f	-0.38545462
7	0x3e030e92	0.12798527
8	0x3e9766a8	0.29570508
9	0xbe9eeab4	-0.3103844
10	0xbd43ba96	-0.047785364
11	0x3ec7726f	0.38954493
12	0xbe870b35	-0.26375738
13	0x3e8e0cba	0.27744085
14	0xbe95beb7	-0.29247066
15	0x3e51190f	0.20419715
16	0x3e5046bd	0.20339485
17	0xbdd7a735	-0.10529939
18	0xbea2e74a	-0.31817085
19	0x3e1fca36	0.15604481
20	0x3c866d02	0.0164094
21	0x3edcf5f9	0.43156412
22	0x3e8c2590	0.27372408
23	0x3e3b6cc9	0.18303217
24	0xbe1e449d	-0.15455861
25	0xbe46df03	-0.1942101
26	0x3e8ded96	0.27720326
27	0xbdd562c5	-0.104192294
28	0xbe9de160	-0.3083601
29	0x3e53149a	0.20613328
30	0xbeb5a2ce	-0.35475773
31	0xbe80ba4b	-0.2514213
32	0x3cd858a1	0.026409449
33	0xbbebc392	-0.0071949447
34	0xbe5fa4a8	-0.21840155
35	0xbd05ce19	-0.032667253
36	0x3e616b68	0.22013628
37	0x3cb09933	0.021557426
38	0x3e07f810	0.13278222
39	0xbecb859d	-0.39750376
40	0x3e9adca1	0.30246451
41	0x3e8df0d8	0.27722812
42	0x3d70c637	0.058782782
43	0x3e1852be	0.14875314
44	0x3e3aa58f	0.18227218
45	0x3e75ae5d	0.23992296
46	0x3dc362ef	0.095403545
47	0xbeb199fc	-0.34687793
48	0x3ea8836b	0.32912764
49	0xbeab847a	-0.3349951
50	0xbde92bc9	-0.113853045
51	0x3e67958d	0.22615643
52	0xbda42119	-0.080141254
53	0xbed7d5a2	-0.42155176
54	0xbdde3336	-0.108496115
55	0xbe85fcbf	-0.26169392
56	0x3e55733c	0.2084474
57	0xbdbc99bc	-0.0920901
58	0xbe090d9f	-0.13384102
59	0xbbad0cc0	-0.005281061
60	0xbe6634a4	-0.22481018
61	0xbdae1a91	-0.08501161
62	0x3e935888	0.2877848
63	0x3e5fb6b4	0.2184704
64	0x3e88c740	0.26714516
65	0x3e8d2042	0.27563673
66	0xbe0a5ef8	-0.1351279
67	0xbeac0203	-0.33595285
68	0x3eb4589f	0.35223863
69	0x3e59c476	0.2126635
70	0x3daddef8	0.084897935
71	0xbe8cbf19	-0.27489546
72	0xbe733403	-0.2375031
73	0x3bfc8138	0.0077058338
74	0xbea0946f	-0.31363246
75	0xbc3d3a8a	-0.011549601
76	0xbe47a4bc	-0.19496435
77	0xbe5b849b	-0.21437304
78	0xbe2e0334	-0.1699341
79	0xbe75d974	-0.24008733
80	0x3ec96287	0.39332983
81	0x3acfc76a	0.0015852277
82	0x3d8e52e3	0.06949403
83	0xbdc87cf0	-0.09789455
84	0xbeb5624c	-0.35426557
85	0x3d48ee26	0.04905524
86	0xbc54e613	-0.012994307
87	0xbe81741f	-0.25283906
88	0xbe2037d0	-0.15646291
89	0x3e5da3a1	0.2164445
90	0x3ef29aa2	0.473836
91	0x3e270802	0.16311648
92	0xbe41b2e8	-0.18915904
93	0x3ec389f5	0.3819119
94	0x3ebe7dfa	0.37205487
95	0xbee25d8f	-0.44212005
96	0xbdf31268	-0.11868745
97	0x3e25aaed	0.16178484
98	0xbebbff45	-0.36718193
99	0xbeaf1aef	-0.34200236
100	0x3dd9063b	0.105968915
101	0xbeaf2dbf	-0.3421459
102	0x3e8e4bd0	0.27792215
103	0x3e97f1ba	0.2967661
104	0xbec66419	-0.38748243
105	0xbe520df2	-0.20513132
106	0xbd5a6264	-0.05331649
107	0xbeab4e76	-0.33458298
108	0xbed15287	-0.40883276
109	0xbcf1df24	-0.029525347
110	0x3eb7d160	0.35901928
111	0x3d45a454	0.04825242
112	0xbdcabe88	-0.09899622
113	0xbe0f1f89	-0.13976873
114	0x3e22672e	0.15859672
115	0x3da40ee7	0.08010655
116	0xbe99600d	-0.29956093
117	0xbe65f5bd	-0.22457023
118	0x3d9623d7	0.07331055
119	0xbb537aa0	-0.0032269135
120	0xbd351f75	-0.044219453
121	0xbe45f05f	-0.19329976
122	0xbec38efe	-0.38195032
123	0xbe8754c5	-0.26431862
124	0x3e566d60	0.20940161
125	0x3e3bbb85	0.18333252
126	0xbecec487	-0.40384313
127	0x3e891eb7	0.26781246
128	0xbca8b40a	-0.020593662
129	0xbe922a1d	-0.28547755
130	0xbeb884f9	-0.3603895
131	0xbeaef243	-0.34169206
132	0x3d9e1adb	0.07719966
133	0x3e8e707b	0.2782019
134	0xbd835fed	-0.06414781
135	0x3ea33158	0.31873584
136	0x3e13f0bd	0.14447303
137	0x3e5a02d6	0.21290144
138	0xbd72ef60	-0.059310317
139	0xbd8505fb	-0.06495281
140	0xbe85795e	-0.26069158
141	0xbda03ea0	-0.07824445
142	0x3d0f7067	0.035019305
143	0x3db13d82	0.0865431
144	0xbe81f105	-0.25379196
145	0x3eaad95c	0.33368957
146	0xbecffa6d	-0.40620747
147	0x3e1a65ad	0.15077849
148	0xbe941af4	-0.28926814
149	0xbea7e1cc	-0.32789457
150	0x3e8e1d1e	0.2775659
151	0x3c8e7ecc	0.017394446
152	0xbe649b2a	-0.22324815
153	0xbdcb83fb	-0.09937283
154	0x3da6cddf	0.081447355
155	0x3e42d9c9	0.19028391
156	0x3eb9866c	0.36235368
157	0xbe902090	-0.28149843
158	0x3e1bd16a	0.15216604
159	0x3ebd412c	0.36963785
160	0xbe96843a	-0.29397756
161	0x3e3127ad	0.17300291
162	0xbe945970	-0.28974485
163	0x3e918052	0.28418213
164	0x3c2cab01	0.010538817
165	0xbe914871	-0.2837558
166	0xbe9113f1	-0.28335527
167	0x3ebbb3e5	0.36660686
168	0x3f01de27	0.507296
169	0xbd8a2e09	-0.06747062
170	0x3e811814	0.25213683
171	0x3c095a37	0.008383325
172	0xbd8b111f	-0.06790375
173	0xbede0954	-0.43366492
174	0xbdc67717	-0.09690683
175	0xbea02afd	-0.31282797
176	0x3ecdbb08	0.40181756
177	0xbe98e7ec	-0.29864442
178	0xbec02e3e	-0.3753528
179	0xbe9a10db	-0.30090985
180	0x3edcb61e	0.43107694
181	0xbf02bde2	-0.5107099
182	0x3ea9f846	0.3319723
183	0x3cdd55cd	0.027018452
184	0x3e9061ac	0.28199518
185	0xbd91e34b	-0.07123431
186	0xbd2aa2d7	-0.041659202
187	0xbea1741d	-0.315339
188	0xbe16444e	-0.14674494
189	0xbeaf0239	-0.34181383
190	0xbe0bb316	-0.13642535
191	0x3e284187	0.16431247
192	0xbed04605	-0.4067842
193	0xbcc2da20	-0.02378565
194	0xbecebf03	-0.40380105
195	0xbde1a532	-0.11017837
196	0xbe4e0e5d	-0.20122667
197	0xbdae9c34	-0.08525887
198	0xbeadfafc	-0.33980548
199	0xbe885613	-0.2662817
200	0xbdfe909c	-0.12429926
201	0x3d412cab	0.04716174
202	0xbe72e13e	-0.23718736
203	0xbe861bbe	-0.2619304
204	0xbd58fda8	-0.05297628
205	0xbed32dd2	-0.41245896
206	0xbd36534e	-0.04451304
207	0x3e962c03	0.29330453
208	0xbd9721d8	-0.07379502
209	0x3ea1da5a	0.31611902
210	0xbddf9a2c	-0.10918078
211	0x3dac7e19	0.08422489
212	0x3e11468e	0.1418707
213	0xbd40b9ec	-0.04705231
214	0xbe14ef14	-0.14544326
215	0xbed91c1f	-0.42404267
216	0xbe911042	-0.28332716
217	0xbd23d08c	-0.039993808
218	0x3d1b3821	0.037895326
219	0x3e93fe67	0.2890503
220	0x3e7031a6	0.2345644
221	0x3eb1f567	0.3475754
222	0x3eacfb94	0.3378569
223	0x3de601fa	0.11230846
224	0x3e52906c	0.20562905
225	0xbe55b8a6	-0.20871219
226	0x3ed4b4e8	0.4154427
227	0x3e8ffd53	0.2812296
228	0xbd48084a	-0.04883603
229	0x3e3d30ca	0.18475643
230	0x3e90c722	0.28276926
231	0xbec0e708	-0.37676263
232	0xbe4f3863	-0.20236354
233	0x3e3d6aeb	0.18497817
234	0x3c26eec9	0.010188767
235	0x3e66e4b4	0.22548181
236	0xbcda795b	-0.026669195
237	0x3e13d25a	0.14435712
238	0x3de462e0	0.111516714
239	0x3c0d071f	0.008607655
240	0x3dddd73b	0.108320676
241	0x3e84e9b4	0.2595955
242	0x3e566494	0.20936805
243	0x3ecc18c3	0.39862642
244	0xbb9a41ff	-0.0047075744
245	0xbe09b319	-0.13447227
246	0xbe399cd6	-0.18126234
247	0xbecbbb7b	-0.39791474
248	0xbeaf66b4	-0.34258044
249	0xbead7355	-0.33877054
250	0xbd30fe68	-0.04321137
251	0xbe1eec0c	-0.15519732
252	0x3ea681ae	0.32520813
253	0x3dab29ff	0.083576195
254	0xbd18f39b	-0.037341695
255	0x3e88da91	0.26729253

player_encoder.0.bias f4 [64]
0	0xbe075b07	-0.13218318
1	0xbe3e4b43	-0.18583398
2	0xbe1f5406	-0.15559396
3	0xbcc2aa32	-0.023762796
4	0x3af18a35	0.001842803
5	0x3c3bf946	0.011473006
6	0xbdaf0509	-0.08545882
7	0xbe2d615a	-0.16931668
8	0x3ead40f6	0.33838624
9	0xbe2dbd87	-0.1696683
10	0x3ec8ca1d	0.392167
11	0xbe0b9b9e	-0.13633582
12	0xbe976992	-0.2957273
13	0x3ed1c97c	0.40974033
14	0xbe31c57c	-0.1736049
15	0xbea094f8	-0.31363654
16	0xbe3e8b52	-0.18607834
17	0xbe295a7a	-0.1653842
18	0xbdffca6a	-0.12489779
19	0xbe1e4323	-0.15455298
20	0x3e9e254c	0.3088783
21	0x3eb993f4	0.36245692
22	0xbd78aded	-0.060712744
23	0xbe91a56f	-0.28446528
24	0xbeab6237	-0.3347337
25	0x3e3e906e	0.18609783
26	0x3ea0a207	0.31373617
27	0x3dda7246	0.10666327
28	0x3e65de96	0.22448191
29	0xbe57cc44	-0.21074015
30	0x3e86e980	0.2635002
31	0x3e6416fe	0.22274396
32	0xbe9299a4	-0.28632843
33	0x3d236245	0.03988864
34	0xbdd5bf1d	-0.104368426
35	0x3ebcb7d3	0.36858997
36	0x3ea682b0	0.32521582
37	0xbea43ebd	-0.32079116
38	0xbed29b76	-0.41134232
39	0x3e67b360	0.2262702
40	0xbdab375e	-0.0836017
41	0xbe55eda8	-0.2089144
42	0x3da508c8	0.080583155
43	0xbe5ed0ec	-0.21759385
44	0xbe9ae1a3	-0.30250272
45	0x3d34876f	0.044074472
46	0x3e133262	0.14374688
47	0x3e30a9a8	0.17252219
48	0x3d6014fc	0.054707512
49	0xbe8854b3	-0.2662712
50	0xbeb9d0b3	-0.36292037
51	0x3e712803	0.2355042
52	0x3e1a1c8a	0.1504995
53	0x3ee0d36c	0.43911302
54	0xbea5c403	-0.32376108
55	0x3ddd17f9	0.10795588
56	0xbe9ef683	-0.3104745
57	0xbeb7e363	-0.3591567
58	0x3ec1c4d8	0.37845492
59	0x3bc6e9a1	0.006070331
60	0xbe27df7c	-0.16393846
61	0x3dc79e36	0.09746973
62	0x3dd00184	0.10156539
63	0x3eb788b4	0.35846484

player_encoder.2.weight f4 [32, 64]
0	0x3e89b099	0.26892546
1	0xbdc96c63	-0.09835126
2	0xbd0968c1	-0.033547167
3	0xbe3b5be5	-0.18296774
4	0xbe29dbba	-0.16587725
5	0x3e103fc8	0.1408683
6	0x3c572414	0.01313116
7	0x3d9aa9dc	0.07551929
8	0x3dbfe205	0.09369282
9	0x3c5f38ea	0.013624409
10	0x3d6403f7	0.055667844
11	0x3d99e245	0.075138606
12	0x3c8d85d0	0.01727572
13	0x3d30de47	0.04318073
14	0xbda96957	-0.08272045
15	0x3e78c129	0.24292435
16	0xbde8c77a	-0.11366172
17	0x3d954696	0.07288854
18	0xbe831c51	-0.2560754
19	0x3d0cacfc	0.03434466
20	0x3ca0bf7f	0.019622562
21	0x3d99d43a	0.07511182
22	0xbda490c8	-0.08035427
23	0xbdfacd24	-0.12246159
24	0x3d5d7fce	0.054076962
25	0xbd2ea5fb	-0.04263876
26	0x3dfab88e	0.12242232
27	0x3dfd18b1	0.12358225
28	0x3e6fd179	0.23419751
29	0xbd19cb98	-0.037547678
30	0x3e32b057	0.17450081
31	0x3d915f94	0.07098308
32	0x3d35bba0	0.044368386
33	0xbd7102f7	-0.058840718
34	0xbdd98101	-0.10620309
35	0x3df35040	0.11880541
36	0xbe196e0f	-0.1498339
37	0xbe3a401d	-0.1818852
38	0xbda8b5ff	-0.08237838
39	0x3d5b6924	0.053567067
40	0x3e23b178	0.15985668
41	0xbd0d1c0c	-0.034450576
42	0x3dc7cb9e	0.09755634
43	0xbdcede27	-0.10100966
44	0x3dbbeb04	0.09175685
45	0x3d3f8422	0.04675687
46	0x3dd17f1a	0.10229321
47	0x3d9b5bb8	0.07585853
48	0xbd7f99c4	-0.0624025
49	0xbc0cb000	-0.008586884
50	0x3e32f57a	0.17476454
51	0x3dda60f5	0.10663024
52	0xbdd72189	-0.10504443
53	0x3e579d5b	0.2105612
54	0xbe69c181	-0.22827722
55	0xbb957f72	-0.004562312
56	0xbdf30c4c	-0.1186758
57	0x3e3038f9	0.17209233
58	0x3e3d2bf8	0.18473804
59	0x3d2fb2c4	0.042895094
60	0xbdbb3d76	-0.09142582
61	0xbd3f3e2a	-0.046690144
62	0x3dbc76e1	0.09202362
63	0xbc61562d	-0.013753456
64	0x3d6cfc7c	0.057857975
65	0xbd130b44	-0.035899416
66	0x3db76c0f	0.089561574
67	0x3cf64d50	0.030066162
68	0xbd090eb5	-0.03346129
69	0xbb14e100	-0.0022717118
70	0xbdd5ae20	-0.10433602
71	0xbcfe0ae6	-0.031011056
72	0xbc923c40	-0.017850995
73	0xbd0dc0dc	-0.034607753
74	0xbded0db4	-0.11574879
75	0x3de15c9a	0.110039905
76	0xbcbf8bc0	-0.023382068
77	0xbb606afc	-0.0034243455
78	0xbdca924f	-0.098911874
79	0xbddf43b8	-0.10901588
80	0xbd977dba	-0.07397027
81	0x3db36d46	0.08761077
82	0xbda7ceb0	-0.081937194
83	0xbba00440	-0.004883319
84	0xbd99ad70	-0.07503784
85	0xbdba65b4	-0.091014296
86	0x3d6ac237	0.057314124
87	0x3cc0c900	0.023533344
88	0x3d2043b8	0.03912708
89	0xbd899d6f	-0.06719481
90	0x3d9a92ba	0.07547517
91	0xbda5e51c	-0.0810034
92	0xbd9e686e	-0.07734762
93	0xbda97e18	-0.082760036
94	0xbd8d1e43	-0.068905376
95	0x3da5bbde	0.080924734
96	0xbdc7f21a	-0.09762974
97	0xbd32e268	-0.04367295
98	0x3daece66	0.08535461
99	0x3d1f10b1	0.038834278
100	0x3de59ff2	0.11212148
101	0x3dad0a34	0.08449212
102	0x3d9ca8eb	0.07649406
103	0x3d84c2f0	0.06482494
104	0xbddf7d95	-0.10912625
105	0xbd534294	-0.051577166
106	0x3d2326ee	0.039832048
107	0x3cc37f67	0.023864461
108	0xbc1f4e6a	-0.009723285
109	0x3dfd3328	0.12363273
110	0xbabc6d80	-0.0014375895
111	0x3d679c31	0.05654544
112	0xbd6f62b8	-0.058443755
113	0x3dff630a	0.12470062
114	0xbd4303d5	-0.047611076
115	0xbc930fc7	-0.01795186
116	0xbb8a31ef	-0.0042173783
117	0xbdb01874	-0.08598414
118	0x3d0f3523	0.034962784
119	0x3c6de0a3	0.01451889
120	0xbd953734	-0.0728592
121	0x3de4a03e	0.11163376
122	0xbd84eb9a	-0.0649025
123	0xbd1d3058	-0.038376182
124	0xbc64bbd0	-0.013960794
125	0xbdad2bc2	-0.08455612
126	0xbbdaeb19	-0.006680858
127	0xbc882832	-0.01662073
128	0x3e361a45	0.17783459
129	0x3d8ac473	0.06775751
130	0xbd0d0df0	-0.03443712
131	0xbd7d2879	-0.061806176
132	0xbe2af7d4	-0.16696101
133	0x3dc3f8f1	0.09568966
134	0xbd5fe99b	-0.054666143
135	0x3df27a6d	0.11839757
136	0x3e3212d2	0.17389992
137	0x3da6f495	0.08152119
138	0xbda4ff6f	-0.080565326
139	0x3c9c2aef	0.019063441
140	0x3de8ed40	0.11373377
141	0xbd9e3415	-0.077247776
142	0x3c84bd5f	0.01620358
143	0x3e212690	0.15737367
144	0xbdb35448	-0.0875631
145	0x3de853b8	0.11344093
146	0xbe073d3b	-0.13206951
147	0x3da36908	0.079790175
148	0x3d8a79c8	0.06761509
149	0xbd4962b1	-0.049166385
150	0x3c979621	0.018504204
151	0xbda39636	-0.07987635
152	0x3c9573a7	0.018243624
153	0xbe33d232	-0.17560652
154	0x3e4030ca	0.18768612
155	0x3dc3e8e4	0.09565905
156	0x3d51837f	0.051150795
157	0xbe084c4e	-0.13310358
158	0x3e44f791	0.19235064
159	0x3cf6fbec	0.030149423
160	0xbd3d3594	-0.046193674
161	0xbd600b3e	-0.05469822
162	0xbe045dce	-0.12926409
163	0x3e34d1dc	0.1765818
164	0xbe26a12d	-0.16272421
165	0xbd93c75b	-0.072157584
166	0x3c572f50	0.013133839
167	0x3cb10846	0.02161039
168	0x3df73711	0.1207105
169	0xbdeb64fa	-0.11493869
170	0x3dbea071	0.093079455
171	0xbe32996a	-0.17441335
172	0x3d8e8b59	0.06960172
173	0x3e4e5c45	0.20152386
174	0xbdf32d7b	-0.11873909
175	0x3e33a576	0.17543587
176	0xbb412b58	-0.0029475298
177	0xbddf37f2	-0.108993426
178	0x3c737e3c	0.01486164
179	0x3dfb163f	0.122601025
180	0xbd983a23	-0.07432964
181	0x3ca9c222	0.020722453
182	0xbe2fc725	-0.17165811
183	0x398ebeb0	0.00027226424
184	0x3dfcfac8	0.1235252
185	0x3e0d86a9	0.138209
186	0x3e85f675	0.26164594
187	0x3ce2ae18	0.027670905
188	0x3dd3d7f2	0.10343923
189	0xbc09f634	-0.008420516
190	0xbd9d004c	-0.07666072
191	0xbcbd13a2	-0.02308065
192	0xbdde50b7	-0.10855239
193	0xbdd1eb5f	-0.102499716
194	0xbddf9651	-0.109173425
195	0x3dc5dcfd	0.09661291
196	0xbd26f826	-0.040763997
197	0xbd994bae	-0.07485138
198	0xbd196d8f	-0.037458
199	0xbcd04a16	-0.025425952
200	0xbe0b7099	-0.13617171
201	0xbd228455	-0.039676983
202	0x3dc1d166	0.09463768
203	0xbd6b71fa	-0.057481743
204	0xbcfbbc30	-0.030729383
205	0x3cd72c4d	0.026266241
206	0x3d8fa230	0.07013357
207	0x3d0a47ea	0.03375999
208	0xbc4182b0	-0.0118109435
209	0xbd2e67d0	-0.042579472
210	0xbd0e6367	-0.034762766
211	0xbdb459fe	-0.08806227
212	0x3d23e620	0.040014386
213	0xbe230343	-0.15919213
214	0xbd9a6202	-0.07538225
215	0xbdadc594	-0.08484951
216	0xbd35b814	-0.044365004
217	0xb94b78a3	-0.0001940453
218	0x3ccac9a4	0.024754353
219	0x3d71be07	0.059019115
220	0x3cca7600	0.02471447
221	0x3d827c84	0.06371406
222	0x3d583623	0.052786004
223	0x3de72fc4	0.112884074
224	0x3d3635a0	0.044484735
225	0x3d214c77	0.039379563
226	0xbdd08e4f	-0.10183393
227	0xbdf3aad4	-0.11897817
228	0x3d93fe25	0.072262086
229	0xbd176698	-0.036963075
230	0xbcf0a3d0	-0.029374987
231	0xbde12c2f	-0.109947555
232	0xbdcf4d19	-0.10122127
233	0xbd88e030	-0.06683385
234	0xbb95b6f6	-0.00456893
235	0x3b93857c	0.0045019966
236	0xbd9c308f	-0.07626449
237	0xbc4fba1b	-0.012678648
238	0x3dacc724	0.084364206
239	0x3e0285f3	0.1274641
240	0x3d8fc706	0.070203826
241	0xbd69e418	-0.057102293
242	0xbdd3df02	-0.1034527
243	0x3cbaba30	0.02279386
244	0xbdb06eec	-0.08614907
245	0x3dc51c70	0.09624565
246	0x3ca6af57	0.02034728
247	0xbd9d06de	-0.076673254
248	0xbd5adf68	-0.053435713
249	0x3cf11d4b	0.029432913
250	0xbc37d9d5	-0.011221369
251	0xbd3b29a8	-0.045694023
252	0xbd62b199	-0.05534515
253	0xbdb9867f	-0.09058856
254	0x3d35d404	0.044391647
255	0x3d2850cd	0.041092683

player_encoder.2.bias f4 [32]
0	0x3d7aaa29	0.061197434
1	0xbd1aa765	-0.037757296
2	0x3b835ead	0.004009089
3	0xbdf6919f	-0.12039494
4	0x3d3aaa18	0.04557237
5	0xbdb2611c	-0.087099284
6	0x3d57b1a7	0.052659657
7	0xbdaf801a	-0.08569355
8	0xbd2a0bd4	-0.041515186
9	0x3d012d25	0.031537194
10	0xbde70d65	-0.11281852
11	0x3d941894	0.072312504
12	0x3ce8d8b8	0.028423652
13	0x3d8618af	0.06547677
14	0xbdfe833f	-0.12427377
15	0xbcf8ece0	-0.030386388
16	0xbd8d3066	-0.06893997
17	0xbd2eed9f	-0.042707082
18	0xbd9cdd5a	-0.07659407
19	0xbd5bdafd	-0.05367564
20	0xbd91f9ee	-0.071277484
21	0xbd1968b0	-0.037453353
22	0x3d4ad292	0.04951722
23	0x3bd7fbf0	0.0065913126
24	0xbc2ef9a7	-0.010679639
25	0x3b7cc839	0.003857149
26	0xbd10fe65	-0.03539886
27	0x3d9891f1	0.07449711
28	0xbdbdb996	-0.09263913
29	0x3d974b8c	0.07387456
30	0xbd3c28cd	-0.04593735
31	0xbd1b1126	-0.03785815

context_encoder.0.weight f4 [32, 10]
0	0x3d862c8b	0.06551465
1	0x3d64fac4	0.05590321
2	0x3c3fd9c8	0.011709638
3	0xbd0e3be7	-0.034725096
4	0xbdf9f42c	-0.12204775
5	0x3df25134	0.118318945
6	0x3db5842e	0.08863102
7	0xbd455b2c	-0.04818265
8	0xbe966db6	-0.29380578
9	0xbe91db98	-0.2848785
10	0x3d9e4e9b	0.077298366
11	0xbce89be7	-0.028394653
12	0xbda7d170	-0.08194244
13	0x3e1037b8	0.14083755
14	0xbe906ab4	-0.28206408
15	0xbe2cc50c	-0.16872042
16	0xbe4c9ee9	-0.19982494
17	0xbe6d0c62	-0.23149255
18	0x3e2c6ee5	0.16839178
19	0xbe898203	-0.26857004
20	0x3ec181d0	0.37794352
21	0xbde9a46a	-0.114083126
22	0x3e83c617	0.25737068
23	0x3e312e62	0.1730285
24	0xbe1e709a	-0.15472642
25	0xbe4d0fad	-0.20025511
26	0x3e4cc4e0	0.19996977
27	0x3ea5fa11	0.32417348
28	0x3e65bb14	0.22434646
29	0xbddb62db	-0.107122146
30	0xbe928870	-0.2861972
31	0x3df790e9	0.12088186
32	0xbd94f1c7	-0.07272678
33	0x3d3f1407	0.04664996
34	0xbe1be777	-0.15225016
35	0x3e00d25c	0.12580246
36	0x3e8c2ce0	0.27377987
37	0xbe56814a	-0.20947757
38	0x3e4a592d	0.1976058
39	0xbddb51ea	-0.10708983
40	0x3d9952f4	0.07486525
41	0x3e1ce323	0.15321021
42	0x3e2a64e3	0.16640048
43	0xbc6cba85	-0.014448767
44	0xbe292bbf	-0.16520594
45	0xbe23ba64	-0.15989071
46	0xbe80c254	-0.2514826
47	0xbe95beab	-0.2924703
48	0x3dbc43b0	0.09192598
49	0xbe0d73a4	-0.13813645
50	0xbd0b0ede	-0.033949725
51	0x3b8a278c	0.00421614
52	0xbd815b09	-0.06316192
53	0xbd890720	-0.06690812
54	0xbd90c1f6	-0.07068245
55	0x3e9a2217	0.30104133
56	0xbe5b9c9d	-0.21446462
57	0xbdbc3d38	-0.09191364
58	0x3e35150e	0.17683813
59	0x3e854bb0	0.26034307
60	0x3e124764	0.14285046
61	0xbd33d290	-0.04390198
62	0x3eb61dbd	0.35569564
63	0x3dd4a1fd	0.10382459
64	0x3e8ca7f3	0.27471885
65	0xbe493fbd	-0.1965322
66	0x3cdc628a	0.026902456
67	0x3e9785e0	0.29594326
68	0x3e888f35	0.26671758
69	0x3e8e91b7	0.27845547
70	0x3ea917ba	0.33025914
71	0xbd6ce59b	-0.057836156
72	0x3db45014	0.08804336
73	0x3bb46b77	0.005505975
74	0x3e81af25	0.25328937
75	0x3de7b9b0	0.11314714
76	0x3e98db41	0.29854777
77	0x3d84ae52	0.064785615
78	0xbe7dc196	-0.24780878
79	0xbe106dc2	-0.1410437
80	0xbe6c67da	-0.23086491
81	0x3e1a38f0	0.15060782
82	0xbe603bdd	-0.21897836
83	0xbe5f2cc0	-0.21794415
84	0xbd87cb74	-0.066306025
85	0xbcfdd5fa	-0.030985821
86	0x3df54764	0.11976507
87	0xbe71db40	-0.23618793
88	0xbb94df48	-0.0045432188
89	0x3da383a6	0.07984094
90	0xbcce467b	-0.025180092
91	0xbe918b0b	-0.28426394
92	0xbea18345	-0.31545463
93	0xbe499a4a	-0.19687763
94	0x3e129f4f	0.14318584
95	0x3e71509e	0.2356591
96	0xbc8e3f72	-0.017364237
97	0xbe90bdf4	-0.28269923
98	0xbd2567c4	-0.04038216
99	0xbe01f62f	-0.12691568
100	0x3d4b260a	0.049596824
101	0x3e219cf4	0.15782529
102	0x3e4ac585	0.1980191
103	0x3e99fd8c	0.30076253
104	0xbe971b8d	-0.29513207
105	0x3e7319b0	0.23740268
106	0xbe806c03	-0.25082406
107	0xbe80c4ef	-0.25150248
108	0x3c916feb	0.017753562
109	0xbe73e866	-0.23819122
110	0x3eb7c380	0.35891342
111	0xbe244293	-0.16041021
112	0xbd292138	-0.041291445
113	0x3e82cd6e	0.25547355
114	0x3db862b3	0.090032004
115	0xbca86e0e	-0.02056029
116	0x3e9a8351	0.3017831
117	0xbd86d703	-0.06583979
118	0xbdb37c73	-0.08763971
119	0xbe053a25	-0.13010462
120	0xbe6b2a27	-0.22965299
121	0xbde41cd1	-0.11138309
122	0x3d316af6	0.043314897
123	0xbe39d64a	-0.18148151
124	0xbd07869e	-0.033087365
125	0xbc90278f	-0.017596988
126	0x3d9d7b2e	0.0768951
127	0xbe4b4436	-0.19850239
128	0x3e0c6c70	0.1371324
129	0xbe0c9340	-0.13728046
130	0x3de886cf	0.11353838
131	0xbe0dfabc	-0.13865179
132	0x3e174dc8	0.14775765
133	0xbd848c48	-0.06472069
134	0x3e9e97a2	0.30975062
135	0x3c6174b3	0.013760733
136	0xbe04a854	-0.12954837
137	0x3d2f4a24	0.042795315
138	0xbc391c22	-0.011298211
139	0x3eb9dc98	0.36301112
140	0xbe903bf2	-0.28170735
141	0x3e0c671b	0.13711207
142	0xbe3ec1cd	-0.18628617
143	0xbd0e4b00	-0.034739494
144	0xbdf924b4	-0.12165204
145	0x3e55d31d	0.20881315
146	0xbc57482b	-0.013139765
147	0x3c793132	0.015209483
148	0x3de5084c	0.11183223
149	0x3e3145b2	0.17311743
150	0xbe41b8ff	-0.18918227
151	0x3e77956e	0.24178097
152	0x3d52f8d5	0.051506836
153	0xbe841c25	-0.25802723
154	0xbe674396	-0.22584376
155	0x3e8b9596	0.27262563
156	0x3e25a107	0.16174708
157	0xbe1c43b2	-0.15260199
158	0xbd80f8f6	-0.062974855
159	0x3dc3925a	0.09549399
160	0x3e654051	0.22387816
161	0x3e7d13f7	0.24714647
162	0xbc2f648b	-0.010705124
163	0xbe56eb2d	-0.2098815
164	0xbe8c6fe2	-0.2742911
165	0x3db9a887	0.09065347
166	0x3e8ae2c3	0.2712613
167	0x3c944c0a	0.018102665
168	0x3dd96295	0.10614506
169	0xbe400ae7	-0.18754159
170	0xbdac15ca	-0.084025934
171	0xbd825527	-0.06363898
172	0x3c411f86	0.011787301
173	0xbd4ecb05	-0.050486583
174	0xbe259d2c	-0.16173238
175	0x3dd521b4	0.10406819
176	0xbe558d60	-0.20854712
177	0xbe669cfc	-0.22520822
178	0xbe85d5f7	-0.26139805
179	0xbd229c9e	-0.039700143
180	0x3e6eb02f	0.23309396
181	0x3db609dd	0.088886
182	0xbe1041cc	-0.140876
183	0x3e92d08d	0.28674737
184	0xbe798cfe	-0.2437019
185	0xbdc6a7b1	-0.09699953
186	0x3e7e7b6e	0.24851772
187	0xbdb17867	-0.08665543
188	0xbe18fa8a	-0.14939323
189	0x3d9785cc	0.073985666
190	0x39c5053c	0.00037578668
191	0x3e0a6c11	0.13517787
192	0x3e072999	0.13199462
193	0xbe82cd9d	-0.25547495
194	0x3e5890f2	0.21149042
195	0xbe340ff2	-0.17584208
196	0x3e4f4a73	0.20243244
197	0x3db439c3	0.0880008
198	0xbd57d2f2	-0.052691408
199	0x3e91f920	0.2851038
200	0xbcb3252d	-0.021868313
201	0x3de51e54	0.11187425
202	0x3ea63d6f	0.32468745
203	0x3dfe7792	0.1242515
204	0xbe4cb511	-0.19990946
205	0x3b493471	0.0030701424
206	0xbe4b98cf	-0.1988251
207	0x3e25c116	0.16186938
208	0x3e9dc694	0.30815566
209	0xbe023ecb	-0.12719266
210	0x3e37dc1e	0.17955062
211	0xbe6de940	-0.23233509
212	0xbced8dae	-0.028998222
213	0x3e443a9b	0.19162981
214	0x3d9fafbe	0.07797192
215	0x3e6f0bfe	0.23344418
216	0x3dae7989	0.08519275
217	0x3d76e923	0.06028093
218	0x3e55277b	0.20815842
219	0xbd9b8b36	-0.07594912
220	0xbe8866ad	-0.26640835
221	0x3d8eb19d	0.06967471
222	0xbd9d7a47	-0.07689338
223	0xbe455831	-0.19271924
224	0x3e65f1cd	0.22455521
225	0xbea9d13b	-0.33167443
226	0x3aee7fe4	0.0018196073
227	0x3e1c1e7d	0.15246005
228	0xbd4e7b1a	-0.050410368
229	0x3e3cf3eb	0.18452422
230	0x3e29df0a	0.16588989
231	0x3cb365ff	0.021899221
232	0xbdb8ea54	-0.090290695
233	0x3e397d8d	0.181143
234	0x3e7221e4	0.23645741
235	0x3da52089	0.08062846
236	0xbe9eacb0	-0.30991125
237	0xbe8889d0	-0.26667643
238	0xbe0b42e3	-0.13599734
239	0xbe936db7	-0.28794643
240	0x3daaa342	0.0833192
241	0x3de41766	0.111372754
242	0xbe57f289	-0.21088614
243	0x3d1f6df9	0.038923237
244	0x3e368f28	0.17828047
245	0x3e960b8a	0.2930568
246	0x3d533e3b	0.05157302
247	0x3e588b34	0.21146852
248	0xbe65022c	-0.2236411
249	0xbea7ee6d	-0.32799092
250	0xbcf6571d	-0.030070836
251	0xbde06fcf	-0.10958826
252	0xbe1c5e23	-0.15270285
253	0xbe3cbbc1	-0.18430997
254	0x3d5633e5	0.052295584
255	0xbd59cd55	-0.053174336

context_encoder.0.bias f4 [32]
0	0xbe945d73	-0.28977546
1	0x3e79180f	0.24325584
2	0xbe63bbe4	-0.22239643
3	0xbbf220d9	-0.0073891697
4	0x3cc6ead6	0.0242819
5	0xbe892da8	-0.26792645
6	0xbe67fcfb	-0.22655098
7	0x3dbd7237	0.092503004
8	0xbe1dadf0	-0.15398383
9	0xbe5bb3a1	-0.21455242
10	0xbe2a8491	-0.16652133
11	0x3e8cf072	0.27527195
12	0x3e014f89	0.12627997
13	0x3ed6b3d5	0.41934076
14	0x3d9ee821	0.07759119
15	0xbe270d4f	-0.1631367
16	0x3dd80f4f	0.10549795
17	0x3e7d9e6c	0.24767464
18	0x3c8fdf1b	0.01756244
19	0x3dc727b3	0.09724369
20	0x3e3e0221	0.185555
21	0xbe96cb21	-0.2945185
22	0x3ea94644	0.3306142
23	0xbe55f975	-0.20895942
24	0x3b2029ac	0.00244389
25	0x3e0bc9f5	0.13651259
26	0x3deb6def	0.114955775
27	0xbe974504	-0.29544842
28	0xbdeeed90	-0.11666405
29	0xbd157984	-0.03649284
30	0x3ce44d70	0.027868956
31	0xbe5f9f2d	-0.21838064

context_encoder.2.weight f4 [16, 32]
0	0xbd6ac5c7	-0.05731752
1	0x3e1c6bab	0.15275447
2	0xbe00582a	-0.12533632
3	0xbc8153d8	-0.01578705
4	0x3de3930f	0.111120336
5	0xbe1c5b77	-0.15269266
6	0xbdb77f91	-0.08959878
7	0xbce55bfb	-0.027997961
8	0x3d2133b4	0.03935595
9	0xbd2929a6	-0.041299485
10	0xbdd45db4	-0.10369435
11	0xbc3e8018	-0.01162722
12	0x3e1cf0a4	0.15326172
13	0xbd175c7b	-0.03695343
14	0xbb4180b8	-0.0029526185
15	0x3dbaa0ee	0.09112726
16	0xbe11a86b	-0.14224403
17	0x3db8fd4e	0.09032689
18	0xbd791da1	-0.060819272
19	0x3c2ba58f	0.010476484
20	0xbe2519db	-0.16123144
21	0xbe2ce564	-0.1688438
22	0x3ccfb504	0.02535487
23	0xbc408020	-0.011749297
24	0x3e011ae5	0.12607916
25	0xbc383cd1	-0.0112449685
26	0x3e265f1e	0.16247222
27	0x3d1d34c8	0.038380414
28	0x3e2fe1fb	0.17176048
29	0x3b6bed86	0.003599973
30	0xbe0f13cd	-0.13972397
31	0xbdecccb5	-0.11562482
32	0xbde0ac4d	-0.10970364
33	0x3d66a0e0	0.056305766
34	0x3e19ef70	0.15032744
35	0x3e25c960	0.161901
36	0x3cc145e2	0.023592893
37	0xbdd8c13b	-0.10583731
38	0x3d50328b	0.05082945
39	0x3d06e74d	0.03293543
40	0xbc0b2c7d	-0.008494494
41	0xbe093a46	-0.13401136
42	0x3d2968f1	0.041359846
43	0xbd371604	-0.04469873
44	0xbd528636	-0.051397525
45	0xbdc3d8ad	-0.09562812
46	0xbd8cbf06	-0.06872372
47	0x3dfdd087	0.12393289
48	0x3c7a3d9b	0.015273477
49	0x3d1a3171	0.037644807
50	0x3ab957c6	0.0014140538
51	0xbc780bc2	-0.015139522
52	0xbd37726d	-0.04478686
53	0x3e1f38b6	0.15548977
54	0xbd1a0c45	-0.037609357
55	0xbc101a06	-0.008795267
56	0xbe04aae0	-0.12955809
57	0x3dbdf912	0.09276022
58	0x3d08e531	0.0334217
59	0x3e0db686	0.13839158
60	0x3e0f2b8b	0.13981454
61	0xbdd95b05	-0.10613064
62	0xbdc22a10	-0.09480679
63	0xbd91ba17	-0.07115572
64	0x3d8acac2	0.06776954
65	0xbdd01ee2	-0.101621404
66	0x3e0bccb9	0.13652314
67	0xbe1cd601	-0.15316011
68	0x3d5ae773	0.053443383
69	0xbd7ce882	-0.061745174
70	0x3df0a72a	0.11750634
71	0xbcf4ae7b	-0.029868355
72	0xbde51cd1	-0.11187137
73	0xbcf5c24b	-0.029999873
74	0x3da6179f	0.08109974
75	0xbd8b0aaf	-0.06789147
76	0xbc146292	-0.009056704
77	0x3e3322f3	0.17493801
78	0x3e2e8d04	0.1704598
79	0x3d1b36ce	0.037894063
80	0xbe25f29c	-0.1620583
81	0x3d4f391e	0.05059158
82	0xbe322afc	-0.1739921
83	0xbdf501df	-0.119632475
84	0xbd922b81	-0.07137204
85	0xbe039b23	-0.12852149
86	0x3d8f6885	0.070023574
87	0x3d1ec562	0.038762458
88	0xbe22f351	-0.1591313
89	0xbd60e79e	-0.054908387
90	0xbe193007	-0.14959727
91	0xbde46ca3	-0.11153533
92	0x3e073057	0.13202034
93	0xbdaec637	-0.085339
94	0x3dd8be62	0.10583188
95	0xbd8e8e63	-0.06960752
96	0xbd846393	-0.06464305
97	0x3df16bbd	0.117881276
98	0x3ce61319	0.028085278
99	0x3c9c7401	0.019098284
100	0xbe0512e1	-0.12995483
101	0x3da1aa0e	0.078937635
102	0xbe2440d6	-0.16040358
103	0xbdb14afc	-0.0865688
104	0xbe34b8c3	-0.17648606
105	0xbe068aef	-0.13138936
106	0x3d01a6b4	0.03165312
107	0x3dd15fbf	0.1022334
108	0xbd6e6c80	-0.058208942
109	0x3dec5337	0.115393095
110	0x3ddc0e80	0.10744953
111	0x3c69f6c3	0.014280024
112	0xbe3ab84e	-0.18234369
113	0x3d7ed1d9	0.062211845
114	0x3e16e2b7	0.14734922
115	0xbdec618e	-0.115420446
116	0xbc7eef20	-0.0155599415
117	0xbd75371a	-0.059867002
118	0xbd0179e5	-0.03161039
119	0x3d9aa12f	0.075502746
120	0x3d2a18ba	0.041527487
121	0x3d32c9b8	0.043649405
122	0xbe0f05e8	-0.13967097
123	0x3d0d87ff	0.034553524
124	0xbdb29bc2	-0.08721115
125	0xbdc0b9fa	-0.09410472
126	0xbe337ce1	-0.17528106
127	0xbd657521	-0.056019906
128	0x3da7feaa	0.0820287
129	0x3d54ac81	0.051922325
130	0xbdd1eb5d	-0.1024997
131	0x3d76de6b	0.060270708
132	0x3e2f27a0	0.1710496
133	0xbd91b116	-0.071138546
134	0xbd5a262a	-0.053259052
135	0xbd8f601f	-0.070007555
136	0x3e026bc6	0.12736425
137	0xbd0fc335	-0.035098273
138	0xbda0d50f	-0.07853138
139	0x3cd64421	0.026155533
140	0x3dc39a8d	0.095509626
141	0x3d46abb1	0.04850358
142	0xbdd5880a	-0.10426338
143	0xbe13abdf	-0.14421032
144	0x3c0c7d7c	0.00857484
145	0x3d5c2f20	0.05375588
146	0xbdfe1307	-0.12405973
147	0x3bf328bb	0.007420627
148	0xbd9e98bc	-0.077439755
149	0x3d89e807	0.06733709
150	0xbddbd586	-0.10734086
151	0x3e2f02fb	0.1709098
152	0x3deae5da	0.11469622
153	0xbe03a0b7	-0.12854277
154	0xbddda3ea	-0.1082228
155	0x3c88228d	0.016618038
156	0x3e0149aa	0.12625757
157	0xbde5f44c	-0.112282366
158	0x3c8a616e	0.016892161
159	0x3d8cb895	0.06871144
160	0xbe32b325	-0.1745115
161	0xbc9aaa88	-0.018880144
162	0x3dbfc298	0.09363288
163	0x3df5bd86	0.11999039
164	0xbdfe5a45	-0.12419561
165	0x3e06f081	0.13177682
166	0x3e4755a8	0.19466269
167	0x3d8db494	0.06919208
168	0x3d0e83db	0.034793716
169	0x3e0227e2	0.12710527
170	0xbcdecc5b	-0.027197054
171	0x3bce2bac	0.006291827
172	0x3dc7bc60	0.097527266
173	0x3d5fa607	0.054601695
174	0xbd9a5951	-0.07536567
175	0x3d0fe6be	0.035132162
176	0x3d8000be	0.062501416
177	0xbd8514ca	-0.06498106
178	0xbb9155ea	-0.0044352906
179	0x3e4effb5	0.20214732
180	0x3c9c439f	0.019075213
181	0xbe1e942f	-0.15486215
182	0x3d6a4978	0.05719897
183	0x3d1f21ae	0.03885048
184	0x3cdd631d	0.0270248
185	0x3e29a14c	0.16565436
186	0x3e134bc8	0.14384377
187	0x3d40d440	0.047077417
188	0x3e0daa96	0.13834605
189	0xbdbaf9d5	-0.09129683
190	0x3d2a6e35	0.041609008
191	0xbc557bb8	-0.013029985
192	0x3d546490	0.051853716
193	0x3dc8f47e	0.09812258
194	0x3c9082cf	0.0176405
195	0x3da5250d	0.080637075
196	0x3cf0c604	0.029391296
197	0x3e27cc1d	0.16386457
198	0x3e2e5fdb	0.17028753
199	0x3d4cd804	0.050010696
200	0x3dcab6d3	0.09898152
201	0x3df8a5e8	0.12141019
202	0xbd3682e0	-0.044558406
203	0x3e41ff79	0.18945111
204	0xbd3db4c4	-0.04631497
205	0x3e536642	0.20644477
206	0xbd5dc1ed	-0.05414002
207	0xbdb24907	-0.08705335
208	0x3dc01a39	0.093800016
209	0xbcf7b58e	-0.03023794
210	0x3e454a56	0.19266638
211	0x3d59a07c	0.053131565
212	0x3df7f93a	0.12108083
213	0xbd930fbf	-0.07180738
214	0x3e0d4dbb	0.13799183
215	0x3d9b56a3	0.07584884
216	0x3dc3d4c3	0.095620655
217	0x3c30fd83	0.010802629
218	0x3e133aaf	0.14377855
219	0xbd99c927	-0.0750907
220	0x3c9c79b3	0.019101
221	0x3d48b020	0.04899609
222	0x3e1c9442	0.15290931
223	0x3e3399b0	0.17539096
224	0xbde603e5	-0.112312116
225	0x3b1c7c6d	0.0023877874
226	0x3d15d1ae	0.03657692
227	0xbde733ad	-0.11289153
228	0xbdaafa6b	-0.08348545
229	0xbde5b74f	-0.11216604
230	0xba664ddc	-0.00087854057
231	0x3d9ac742	0.07557537
232	0xbdcc0c7c	-0.09963319
233	0xbd002fda	-0.031295635
234	0xbdac8a46	-0.08424811
235	0xbe33f72b	-0.17574756
236	0x3da67157	0.081270866
237	0xbd4b86fe	-0.049689285
238	0x3b2ae672	0.0026077298
239	0xbe1ffee2	-0.15624574
240	0xbd853835	-0.06504861
241	0x3daba96a	0.083819225
242	0x3bc6d19e	0.006067469
243	0xbe1b7938	-0.1518296
244	0x3a2198cb	0.00061644305
245	0xbd64a506	-0.05582144
246	0xbb34d17b	-0.002759068
247	0xbdc13909	-0.09434707
248	0x3dc30c2b	0.09523805
249	0x37e95197	2.7813758e-05
250	0x3e083b25	0.13303812
251	0x3e06b4a0	0.1315484
252	0xbdadb8e6	-0.08482532
253	0x3e16d6df	0.14730404
254	0x3d2448b0	0.040108383
255	0xbd80a332	-0.06281127

context_encoder.2.bias f4 [16]
0	0xbe248315	-0.16065629
1	0xbdd65cdc	-0.1046693
2	0xbd53ec80	-0.051739216
3	0x3d3717de	0.044700496
4	0xbdab6d7d	-0.083704926
5	0x3e0c7de8	0.13719904
6	0x3e2db8c9	0.16965021
7	0x3d8cd3e6	0.06876354
8	0xbcd91ce4	-0.026503034
9	0xbd9ecb74	-0.07753649
10	0xbe17232d	-0.14759512
11	0x3e4b1074	0.19830495
12	0xbe22b5e0	-0.15889692
13	0xbdac15cd	-0.08402596
14	0x3d857ceb	0.06517967
15	0xbdef7847	-0.11692863
