hierarchical_agent_final.pth (torch, 112125 bytes, 50 tensors)

network.0.weight f4 [64, 10]
-0.15110284 -0.14957315 0.17200588 -0.0686687 0.25605035 -0.044776075 0.031226294 0.014592135
-0.0011584109 -0.19276813 0.23833354 0.043757357 -0.13526851 0.031949844 0.3792915 -0.03437572
0.12907495 -0.0032769293 0.3620571 -0.034024693 0.24009211 -0.14581491 0.028934242 -0.0483888
0.12479975 -0.31469855 0.032184266 -0.3173766 0.025416667 -0.26905572 0.24947523 -0.08712411
0.18384376 0.13088942 0.299582 -0.093108445 -0.25453195 0.21657993 -0.14892754 -0.27748546
0.20261644 0.23754948 -0.09173904 -0.17518318 0.26153973 0.19822402 -0.14587037 0.14562789
0.029737126 -0.12713276 0.23615557 -0.11352304 -0.32470432 -0.1421201 -0.27490178 0.044574834
-0.20596263 0.15805162 0.16031484 -0.059376277 0.007104238 0.1289099 0.09928051 0.21896778
-0.052000698 -0.20678163 -0.16538571 -0.053418204 -0.023340382 0.11384734 0.08090885 0.10282174
-0.021588456 0.18676428 -0.12921566 0.0204989 0.28824064 -0.11141351 0.3115859 0.29574928
-0.060107265 0.3209815 0.05090557 0.10490036 -0.28289002 0.16152614 -0.25610852 0.31256562
-0.021358108 0.1761809 0.22421789 0.103014246 0.29289517 -0.13369727 0.22662307 0.29769406
0.11458471 0.2873128 -0.222999 -0.046851322 -0.0004433201 -0.29073304 -0.050545953 0.29564926
-0.29804173 -0.17850277 -0.24297063 0.13289817 0.24115965 -0.31362563 0.022691363 0.10254582
0.054241497 0.22702271 0.112048596 0.08614255 0.1823122 -0.11447556 -0.2607301 0.09204262
-0.27994263 -0.13272801 -0.30779004 -0.05183929 -0.16446084 0.28208384 0.06453842 -0.20772693
-0.16989692 0.2697073 -0.06545477 0.38171878 0.22538622 0.14385514 0.063422486 -0.017863024
0.3001189 -0.049680147 0.15697691 0.32896578 -0.11765432 0.079403564 -0.049153645 0.021918334
-0.09702011 0.24867551 -0.2690518 -0.067484744 0.31179923 0.20719047 0.48747948 0.3398156
-0.16400355 -0.18125185 0.021443913 0.36810964 0.28120807 0.178232 -0.069319926 0.20964523
0.27721822 0.41099763 0.14785141 0.06219267 0.18522187 0.111181654 0.19901997 0.057649057
-0.038446344 -0.16034035 0.027271185 -0.049680833 0.026169764 0.13860369 -0.26013973 -0.24593642
-0.002556587 0.19783148 0.048588954 -0.076099046 -0.09820131 -0.19026758 -0.07208583 -0.29810676
0.057019625 -0.094198324 0.09189796 -0.30959257 0.19156331 -0.0070367437 0.10531757 0.43120125
-0.13391593 -0.052381005 0.3237749 0.35629827 0.17166826 0.17829102 -0.2461034 0.29512188
0.30687 0.1123686 -0.12910031 -0.23967926 0.08794551 0.33694348 0.0035449765 0.2321012
-0.26611185 -0.14540486 0.22025207 -0.18306807 -0.17785369 -0.17231095 0.16231513 0.14589444
0.11640456 0.3974912 0.24217923 0.08735628 -0.11743535 0.24602348 -0.14621735 0.27064106
-0.25775263 -0.29528347 -0.054061927 0.27875423 -0.06689988 -0.16487345 -0.077811815 0.12768868
0.22541769 -0.2975982 0.16682428 -0.08964379 0.1828175 0.06760515 0.04065656 -0.10723196
0.11832664 -0.31002983 -0.29027197 0.05075959 -0.06288769 -0.15306981 0.014187381 0.1777283
0.20847376 0.094449066 0.07963964 -0.09230827 -0.2469432 0.19824608 -0.2753545 -0.044036325
00000000: b4ba 1abe b429 19be 4f22 303e 2da2 8cbd
00000010: 0819 833e 1e67 37bd 49ce ff3c da13 6f3c
00000020: d2d5 97ba 0265 45be b50d 743e ea3a 333d
00000030: d483 0abe d7dd 023d 7f32 c23e 8ecd 0cbd
00000040: 392c 043e c0c1 56bb 8c5f b93e 7a5d 0bbd
00000050: b5da 753e 8150 15be 8107 ed3c 5633 46bd
00000060: 0397 ff3d 2b20 a1be a6d3 033d 307f a2be
00000070: 9d36 d03c acc1 89be 6f76 7f3e 206e b2bd
00000080: 8a41 3c3e e007 063e d062 993e a4af bebd
00000090: 0352 82be 21c7 5d3e 7680 18be 9312 8ebe
000000a0: af7a 4f3e 2c40 733e aee1 bbbd 3863 33be
000000b0: 89e8 853e 3dfb 4a3e 0b5f 15be 7a1f 153e
000000c0: 469b f33c 172f 02be c4d2 713e c57e e8bd
000000d0: a53f a6be ee87 11be edbf 8cbe 1a94 363d
000000e0: dee7 52be 49d8 213e 9329 243e 8a34 73bd
000000f0: abca e83b f500 043e 9453 cb3d 1739 603e
00000100: affe 54bd 90be 53be df5a 29be 0ccd 5abd
00000110: 5434 bfbc cb28 e93d 8ab3 a53d 3494 d23d
00000120: 46da b0bc 233f 3f3e 1c51 04be 4fed a73c
00000130: 4794 933e c42c e4bd 3088 9f3e 736c 973e
00000140: 0933 76bd b057 a43e 5c82 503d 00d6 d63d
00000150: f6d6 90be 1c67 253e a820 83be 9a08 a03e
00000160: 33f7 aebc c468 343e 6099 653e 22f9 d23d
00000170: 5bf6 953e f0e7 08be e10f 683e 5b6b 983e
00000180: 63ab ea3d aa1a 933e da59 64be 2ce7 3fbd
00000190: 6b6d e8b9 f6da 94be 4609 4fbd 575f 973e
000001a0: ed98 98be 6ec9 36be 4bcd 78be 7516 083e
000001b0: 8ef2 763e 8a93 a0be 3de3 b93c 8b03 d23d
000001c0: 552c 5e3d a478 683e bc79 e53d 816b b03d
000001d0: 0db0 3a3e 2a72 eabd 6a7e 85be d780 bc3d
000001e0: a454 8fbe dae9 07be a896 9dbe 6f55 54bd
000001f0: 6c68 28be 4b6d 903e b82c 843d 5eb6 54be
00000200: 75f9 2dbe 1317 8a3e 270d 86bd a570 c33e
00000210: a5cb 663e c34e 133e a6e3 813d 7a55 92bc
00000220: 2fa9 993e 697d 4bbd 8ebe 203e 346e a83e
00000230: c0f4 f0bd 569e a23d 5555 49bd 148e b33c
00000240: 7bb2 c6bd cba4 7e3e 28c1 89be 7135 8abd
00000250: 26a4 9f3e bd29 543e e996 f93e 4ffc ad3e
00000260: 8cf0 27be 169a 39be 25ab af3c de78 bc3e
00000270: 81fa 8f3e 7382 363e 9bf7 8dbd 3dad 563e
00000280: 8cef 8d3e 486e d23e 5c66 173e bebd 7e3d
00000290: cdaa 3d3e 35b3 e33d e4cb 4b3e 6b21 6c3d
000002a0: ea79 1dbd 4330 24be d267 df3c 217e 4bbd
000002b0: f961 d63c 20ee 0d3e 0931 85be c2d6 7bbe
000002c0: 6a8c 27bb 5694 4a3e 3605 473d d1d9 9bbd
000002d0: c51d c9bd 81d5 42be bca1 93bd 73a1 98be
000002e0: 698d 693d 0deb c0bd ff34 bc3d eb82 9ebe
000002f0: 2c29 443e 7c94 e6bb bdb0 d73d 69c6 dc3e
00000300: 4221 09be 778d 56bd d3c5 a53e ba6c b63e
00000310: cec9 2f3e ec91 363e 8802 7cbe 371a 973e
00000320: 111e 9d3e 8221 e63d df32 04be 7b6e 75be
00000330: c71c b43d db83 ac3e d652 683b f0ab 6d3e
00000340: d03f 88be 03e5 14be c289 613e 3276 3bbe
00000350: 471f 36be 4872 30be f035 263e 5a65 153e
00000360: 8465 ee3d f783 cb3e d5fd 773e d9e7 b23d
00000370: f281 f0bd 94ed 7b3e 00ba 15be 7791 8a3e
00000380: 27f8 83be 652f 97be 0a70 5dbd e0b8 8e3e
00000390: ce02 89bd 96d4 28be cd5b 9fbd d2c0 023e
000003a0: e5d3 663e cb5e 98be fcd3 2a3e 2a97 b7bd
000003b0: 8334 3b3e 9274 8a3d 7e87 263d 6e9c dbbd
000003c0: 3d55 f23d 3bbc 9ebe 879e 94be 4ae9 4f3d
000003d0: 43cb 80bd 55be 1cbe 3072 683c 68fe 353e
000003e0: 257a 553e 836e c13d 1c1a a33d 1e0c bdbd
000003f0: aede 7cbe 0501 4b3e 44fb 8cbe 6f5f 34bd

network.0.bias f4 [64]
-0.24425285 0.29335573 0.018436892 0.05336612 0.32191464 0.2714968 0.2928257 0.008121871
-0.29187477 0.28672898 -0.01241202 0.11866849 -0.20939575 0.33226663 0.055176124 -0.109739386
-0.037181787 0.31546253 -0.27009767 -0.17191379 -0.0423947 0.3205627 0.15770382 -0.1741631
-0.065105125 0.06793501 -0.16977274 0.113588825 0.31430155 -0.2587981 -0.0029610088 0.1435896
0.29195586 -0.122520365 -0.12748463 0.05508305 0.24168114 -0.25920492 -0.10470693 0.36213386
0.33601883 -0.05409554 0.24150755 -0.08682026 0.14788567 -0.006082838 0.19647337 -0.0666862
0.15302199 -0.28516918 -0.09392062 0.3338738 -0.09433913 0.2993507 -0.17569104 -0.20222709
-0.068644404 -0.113625415 -0.16553445 -0.19547074 0.13832377 -0.0047251433 0.15384017 0.32448998
00000000: 6b1d 7abe b932 963e f708 973c 6f96 5a3d
00000010: ffd1 a43e a101 8b3e 40ed 953e 9911 053c
00000020: 9c70 95be 24ce 923e c95b 4bbc 7708 f33d
00000030: d76b 56be da1e aa3e 5c00 623d 0bbf e0bd
00000040: ee4b 18bd 4e84 a13e 3e4a 8abe 2b0a 30be
00000050: 11a6 2dbd cb20 a43e 1c7d 213e d057 32be
00000060: d655 85bd 8321 8b3d e8d8 2dbe 42a1 e83d
00000070: 22ec a03e 2f81 84be 7c0d 42bb 2709 133e
00000080: 3d7b 953e f5eb fabd 558b 02be c49e 613d
00000090: 437b 773e 82b6 84be 9670 d6bd 9c69 b93e
000000a0: a90a ac3e 4993 5dbd c14d 773e d2ce b1bd
000000b0: 576f 173e 8b52 c7bb 5130 493e c692 88bd
000000c0: ccb1 1c3e b201 92be 7459 c0bd 82f1 aa3e
000000d0: e034 c1bd 7f44 993e 5ae8 33be 9e14 4fbe
000000e0: 7095 8cbd 71b4 e8bd dd81 29be 7b29 48be
000000f0: bfa4 0d3e 60d5 9abb 4788 1d3e 8d23 a63e

network.2.weight f4 [32, 64]
0.097985715 -0.029862301 -0.001752166 -0.040124577 -0.117372476 -0.0976122 0.037064724 0.02046093
0.09436791 -0.03520108 -0.08292097 0.03188011 0.082510725 -0.017567445 -0.08857867 0.049961034
-0.08151167 0.068472885 -0.11143715 -0.024729792 -0.0771129 -0.06771134 -0.057540193 0.027948342
-0.041777205 0.08613432 -0.028941538 0.11476433 -0.027421802 -0.019047836 0.11610907 -0.030306816
-0.009309178 -0.10179867 0.050838806 -0.06925011 -0.0060571944 -0.10695626 -0.004561506 0.015427058
0.10996242 0.0034810037 -0.12069942 0.08545935 0.07910895 -0.025928529 0.05101284 0.061706677
0.054710988 0.0074637188 -0.0003330229 0.13899578 -0.08116651 -0.112739325 0.020248773 0.07770122
0.11942661 0.052369907 0.069236405 0.10900001 0.12492594 -0.080946475 0.047386575 0.098216906
-0.12831894 -0.04122177 0.090521775 0.051964644 0.02957291 -0.09291747 0.0816138 0.00023871519
-0.0470209 0.033284277 -0.015267849 0.09149301 0.1117139 0.016967364 -0.034912646 0.058871787
-0.0010015784 -0.045241315 -0.06380907 -0.06862208 0.12881397 0.078841835 -0.11031865 -0.043981317
-0.013934763 -0.13740355 -0.04193919 0.067874745 -0.09467939 -0.051968295 -0.071879014 -0.12198426
0.08953606 0.052672073 -0.10971115 0.101994544 -0.12292949 -0.11700605 -0.08895377 -0.12135749
-0.108925335 -0.012404063 -0.0406214 0.089555256 0.12195407 -0.09598233 0.06919532 -0.04160635
0.12612917 -0.027120711 0.09434768 0.07118469 0.10646246 -0.12188095 0.10811896 0.038637113
-0.024127765 0.042966977 -0.0505336 -0.055215303 0.05376881 -0.095264986 -0.118941955 -0.10157345
-0.10368667 -0.13458861 -0.13040613 0.098250404 0.016926408 -0.07560741 -0.032881845 -0.076322645
0.028523162 -0.016562028 0.1059621 0.03534036 0.067006536 0.045276273 0.118854195 -0.08413724
0.036324434 0.009160876 0.0694936 0.055797007 -0.014795613 -0.08947405 0.09005156 -0.07381391
0.0693998 0.100928724 0.124926254 -0.10003378 0.10558784 -0.007303745 -0.019354865 -0.017491221
-0.081836395 0.073296696 0.058083232 0.019579262 0.0036392994 -0.015319586 -0.009407581 0.040163543
0.09223817 -0.0682421 0.014837677 -0.09908122 0.05118442 -0.058680233 -0.0016179415 0.01702562
-0.04004739 0.071007125 -0.014980436 -0.11688769 0.030610988 -0.08446417 -0.04128266 0.08685456
-0.026885811 -0.024907324 -0.030967195 -0.050689116 0.016658947 -0.050251737 0.018999295 -0.07066992
0.116155244 0.005277056 -0.057389833 -0.09811733 -0.26479098 0.027652876 -0.06720463 0.13320342
0.020062046 -0.1056422 0.06775086 0.06513847 0.05968893 -0.046360236 -0.062783 0.110433765
0.07149516 -0.030059017 0.059588652 0.10049266 -0.106468976 -0.052965008 -0.024490336 0.1145433
-0.0195222 -0.11573545 -0.053980693 -0.030627744 -0.094499566 0.0059195124 0.121322036 0.027457371
-0.17516309 0.06500992 -0.10238758 0.10237704 0.13160884 -0.012790427 0.078071706 0.030422775
-0.0150864655 0.13726135 -0.13560967 0.07995724 -0.054938193 -0.059144158 0.048866857 0.04877603
0.017592587 -0.081176385 -0.100877486 -0.014086253 0.057090558 -0.062538296 0.116292745 -0.04033756
-0.068229176 0.07556598 0.07302622 -0.09354723 -0.08369654 0.036783382 0.08530647 0.026388234
00000000: bcac c83d c9a1 f4bc efa8 e5ba ab59 24bd
00000010: fb60 f0bd e8e8 c7bd 2ed1 173d ae9d a73c
00000020: f643 c13d 022f 10bd 78d2 a9bd b894 023d
00000030: 62fb a83d 9ae9 8fbc bc68 b5bd f1a3 4c3d
00000040: 97ef a6bd 833b 8c3d 2939 e4bd 2296 cabc
00000050: 5eed 9dbd 3eac 8abd 44af 6bbd ecf3 e43c
00000060: 931e 2bbd 3167 b03d ce16 edbc 9009 eb3d
00000070: b0a3 e0bc 350a 9cbc 98ca ed3d 0046 f8bc
00000080: 8685 18bc d27b d0bd 5a3c 503d 00d3 8dbd
00000090: 6e7b c6bb e20b dbbd b078 95bb c5c1 7c3c
000000a0: fa33 e13d 8d21 643b 4231 f7bd 5005 af3d
000000b0: e003 a23d 1168 d4bc d7f2 503d 24c0 7c3d
000000c0: a118 603d 3692 f43b 9499 aeb9 e954 0e3e
000000d0: a13a a6bd e0e3 e6bd c1e0 a53c d121 9f3d
000000e0: f095 f43d d481 563d d1cb 8d3d 663b df3d
000000f0: 2cd9 ff3d 44c7 a5bd 6d18 423d f225 c93d
00000100: 0a66 03be 29d8 28bd 7b63 b93d e1d8 543d
00000110: e342 f23c 844b bebd 2325 a73d 9f4f 7a39
00000120: fd98 40bd 1855 083d 0026 7abc b060 bb3d
00000130: 42ca e43d 24ff 8a3c 9000 0fbd 8b23 713d
00000140: 6547 83ba f54e 39bd 54ae 82bd bc89 8cbd
00000150: cfe7 033e d477 a13d bfee e1bd c125 34bd
00000160: a24e 64bc 84b3 0cbe 6ec8 2bbd ea01 8b3d
00000170: 45e7 c1bd b5dc 54bd 4e35 93bd e2d2 f9bd
00000180: af5e b73d acbe 573d 3db0 e0bd 84e2 d03d
00000190: 75c2 fbbd dea0 efbd 652d b6bd 478a f8bd
000001a0: 3f14 dfbd 693a 4bbc a062 26bd bf68 b73d
000001b0: 0ec3 f93d 6292 c4bd 47b6 8d3d 6c6b 2abd
000001c0: 0128 013e 412c debc 5b39 c13d 47c9 913d
000001d0: fd08 da3d b89c f9bd 796d dd3d f341 1e3d
000001e0: 97a7 c5bc 24fe 2f3d 52fc 4ebd 7129 62bd
000001f0: af3c 5c3d 4a1a c3bd d797 f3bd be05 d0bd
00000200: ad59 d4bd 99d1 09be 2f89 05be 8237 c93d
00000210: 40a9 8a3c 0fd8 9abd 1daf 06bd 0c4f 9cbd
00000220: 68a9 e93c 17ad 87bc a802 d93d 0ec1 103d
00000230: b93a 893d 9d73 393d d469 f33d 2550 acbd
00000240: eec8 143d 8017 163c a952 8e3d 678b 643d
00000250: 4c69 72bc 2c3e b7bd f46c b83d bf2b 97bd
00000260: 7b21 8e3d b8b3 ce3d 56d9 ff3d 83de ccbd
00000270: 703e d83d 4154 efbb 188e 9ebc c049 8fbc
00000280: d799 a7bd 941c 963d afe8 6d3d b064 a03c
00000290: 5081 6e3b 00ff 7abc 4122 1abc 8782 243d
000002a0: 5ee7 bc3d 84c2 8bbd ba19 733c 18eb cabd
000002b0: c1a6 513d af5a 70bd 1c11 d4ba 5079 8b3c
000002c0: bb08 24bd 2f6c 913d 8170 75bc d062 efbd
000002d0: e5c3 fa3c 8dfb acbd 0218 29bd cee0 b13d
000002e0: a23f dcbc 720a ccbc eaae fdbc 649f 4fbd
000002f0: 5878 883c c4d4 4dbd 69a4 9b3c 64bb 90bd
00000300: cde2 ed3d 27eb ac3b 9a11 6bbd bdf1 c8bd
00000310: af92 87be 4988 e23c 95a2 89bd 7a66 083e
00000320: 2959 a43c f05a d8bd f6c0 8a3d 5167 853d
00000330: 617c 743d 3be4 3dbd 6094 80bd 192b e23d
00000340: 0e6c 923d 543e f6bc 3b13 743d 19cf cd3d
00000350: 680c dabd d6f1 58bd f59f c8bc ad95 ea3d
00000360: 05ed 9fbc b506 edbd dc1a 5dbd 09e7 fabc
00000370: fd88 c1bd 78f8 c13b b077 f83d 48ee e03c
00000380: f45d 33be ec23 853d 94b0 d1bd 0eab d13d
00000390: 78c4 063e f08e 51bc 0fe4 9f3d 2f39 f93c
000003a0: 392d 77bc 3d8e 0c3e 43dd 0abe 9fc0 a33d
000003b0: df06 61bd 2541 72bd 9d28 483d 60c9 473d
000003c0: 541e 903c ce3f a6bd db98 cebd 07ca 66bc
000003d0: cad7 693d 1414 80bd e42a ee3d ff38 25bd
000003e0: bdbb 8bbd 56c2 9a3d c58e 953d b195 bfbd
000003f0: 1769 abbd 2caa 163d 29b5 ae3d 232c d83c

network.2.bias f4 [32]
-0.034571256 -0.028145093 0.0837818 0.06254268 0.090313226 0.060865596 0.09361935 0.05493529
-0.067902565 0.04617908 -0.1175347 -0.092080235 -0.048409108 -0.07992116 0.107088834 -0.11781235
-0.035935916 -0.038955197 -0.13074937 -0.043354735 0.0603612 0.07347254 0.20262311 -0.12429838
-0.07500985 -0.024471842 0.08888251 -0.08805953 -0.008007221 -0.09240917 -0.0055374503 0.065426335
00000000: 979a 0dbd 8a90 e6bc cb95 ab3d 6016 803d
00000010: 24f6 b83d 344e 793d 80bb bf3d d403 613d
00000020: 8010 8bbd 4626 3d3d 08b6 f0bd 9094 bcbd
00000030: a148 46bd b5ad a3bd 6451 db3d 9a47 f1bd
00000040: 8a31 13bd 7c8f 1fbd 2ae3 05be bc94 31bd
00000050: 4e3d 773d c578 963d 6f7c 4f3e 2690 febd
00000060: c49e 99bd 2c79 c8bc 0908 b63d 8e58 b4bd
00000070: b830 03bc 0541 bdbd 8073 b5bb 3efe 853d

network.4.weight f4 [4, 32]
-0.0122379325 -0.03696687 -0.108328156 0.08878946 0.061199985 -0.14943051 -0.044324573 -0.061335903
0.03661183 0.21665457 -0.10096762 0.023859227 0.040138163 0.08131528 -0.019493507 -0.04089028
-0.05412382 -0.07550666 0.03226889 0.28325906 0.15794896 0.30423838 0.18425137 -0.07187973
-0.16763474 0.16607212 0.3472142 0.15160008 -0.07768752 -0.080213726 -0.05227024 -0.1690321
0.08829118 0.13482422 -0.11315188 -0.036574118 -0.09623032 -0.03600173 0.14111625 -0.04767378
0.06318068 -0.06179225 -0.02615805 0.16102411 -0.09082912 -0.03128868 -0.09451943 -0.07077074
0.09472383 -0.07231814 -0.116912164 -0.011284881 -0.08147209 0.12468398 0.2150539 -0.022250835
0.15377837 0.005307095 0.18100949 0.095431745 -0.02547395 0.1301245 0.010944915 0.05782562
-0.022703242 0.11637347 0.12815267 0.16496605 -0.10504089 -0.10590677 -0.10471514 -0.08023547
-0.14281145 -0.072398484 0.08830996 -0.11513638 -0.20245913 -0.10334762 0.07274561 0.14660078
-0.10997345 -0.15743032 -0.19186366 -0.22437277 0.0069124512 -0.16281252 -0.12044553 -0.0673861
-0.09748195 -0.018433811 -0.123207636 0.08763185 -0.01750155 0.082277976 -0.1190547 0.015061639
-0.17274903 0.12805562 0.0019607227 -0.17026383 -0.09162865 0.16137682 0.062189773 -0.023440436
0.07605167 0.04454115 -0.006572724 0.13746372 -0.0159715 0.11087783 -0.109637775 -0.19319205
-0.07344474 0.09675209 -0.059606962 -0.06045679 0.081534624 0.0015913525 -0.1249863 0.035046857
-0.12922698 0.08018208 -0.039089773 0.070598334 -0.026161248 -0.101114325 0.09490142 -0.030676415
00000000: 9c81 48bc 936a 17bd 27db ddbd 40d7 b53d
00000010: d6ac 7a3d 5004 19be af8d 35bd 5b3b 7bbd
00000020: 49f6 153d b2da 5d3e 1dc8 cebd 6d74 c33c
00000030: ea67 243d a088 a63d d9b0 9fbc 917c 27bd
00000040: f0b0 5dbd 3ca3 9abd 622c 043d 5507 913e
00000050: 5fbd 213e 22c5 9b3e 64ac 3c3e ae35 93bd
00000060: 71a8 2bbe cf0e 2a3e 0fc6 b13e 0d3d 1b3e
00000070: a21a 9fbd 1847 a4bd 5219 56bd c016 2dbe
00000080: 02d2 b43d 5c0f 0a3e 2cbc e7bd bece 15bd
00000090: 6714 c5bd 8d76 13bd c780 103e 9545 43bd
000000a0: df64 813d df19 7dbd 6849 d6bc 81e3 243e
000000b0: 9e04 babd 8f28 00bd 6793 c1bd 40f0 90bd
000000c0: 91fe c13d 881b 94bd a56f efbd 39e4 38bc
000000d0: d7da a6bd 515a ff3d 1737 5c3e 6247 b6bc
000000e0: 1478 1d3e 24e7 ad3b 8d5a 393e b871 c33d
000000f0: bfae d0bc 5b3f 053e 4d52 333c 8fda 6c3d
00000100: 26fc b9bc 3755 ee3d 743a 033e dcec 283e
00000110: ae1f d7bd a6e5 d8bd e474 d6bd 7e52 a4bd
00000120: 2a3d 12be a845 94bd dadb b43d 9fcc ebbd
00000130: 7251 4fbe eba7 d3bd a6fb 943d 841e 163e
00000140: c339 e1bd 6a35 21be e877 44be fac1 65be
00000150: d881 e23b 53b8 26be 25ac f6bd b901 8abd
00000160: 9ea4 c7bd 8102 97bc 4954 fcbd 5478 b33d
00000170: 695f 8fbc 5b81 a83d f3d2 f3bd 18c5 763c
00000180: 1fe5 30be 0321 033e 787f 003b a459 2ebe
00000190: cda7 bbbd f73f 253e b4ba 7e3d 2806 c0bc
000001a0: fac0 9b3d c870 363d 0160 d7bb 4ac3 0c3e
000001b0: aad6 82bc ea13 e33d c589 e0bd 23d4 45be
000001c0: 326a 96bd f625 c63d 6e26 74bd 8aa1 77bd
000001d0: a0fb a63d ee94 d03a d1f8 ffbd 4b8d 0f3d
000001e0: 1454 04be 8136 a43d 991c 20bd dc95 903d
000001f0: 1d50 d6bc 0715 cfbd ad5b c23d 1b4d fbbc

network.4.bias f4 [4]
0.014734512 -0.081734255 0.03344556 -0.0950922
00000000: 0669 713c 4a64 a7bd 36fe 083d b3bf c2bd

player_encoder.0.weight f4 [64, 6]
0.23335809 0.28797752 -0.3725167 -0.083216034 0.16507018 0.16500987 -0.00045146738 0.1556992
-0.2761795 -0.30169508 0.15253873 -0.065125935 0.07349003 0.21489038 0.4008658 0.46777987
-0.22412795 0.3038269 0.15834542 -0.13739926 0.21420126 -0.3841557 0.33392498 -0.082437746
0.100962706 0.12740654 -0.26167575 -0.37435773 0.32739004 -0.36271745 -0.3122184 0.00783045
-0.117147006 -0.032834757 0.22365373 0.015706545 -0.27145556 0.1820803 -0.23502138 0.35792363
0.29150867 0.22319283 0.207742 -0.062366385 -0.12028644 -0.1761509 -0.09820219 -0.1296106
-0.07964697 -0.18896069 -0.23885213 0.20435806 -0.3918681 -0.35746753 -0.2374012 0.258126
0.4116637 -0.2528053 0.0960153 0.15180254 -0.2381685 0.24213079 0.20640504 0.2525543
0.021849593 0.24783014 -0.023283366 -0.043606777 0.31242862 0.12802112 -0.067298464 0.30357042
-0.25291076 -0.016794058 0.20767356 0.21175489 -0.10446275 0.25050786 0.3180999 -0.24557921
-0.15071127 -0.12913115 0.24146397 0.39218196 -0.11427668 0.006757742 -0.30363646 0.25945318
0.28983337 -0.25242132 -0.4276329 0.08071975 0.17128752 0.44956398 0.4191024 0.14143574
-0.18696886 -0.21867001 -0.31318393 -0.19173631 0.18611501 -0.17110084 0.08313815 0.0465875
0.022280665 0.53526706 0.031323384 0.44845104 0.20315033 -0.21043105 -0.01076683 -0.39012077
-0.29535437 0.40442714 0.31719884 0.28198835 0.050621483 -0.2518775 -0.36353377 0.2231334
-0.27318344 0.10746787 -0.14140515 -0.16140082 0.36356625 -0.31569597 0.140636 0.034232855
0.041232858 0.0519384 -0.015960164 -0.25838143 0.17332079 -0.051214434 0.055483762 0.53328145
0.39113444 0.35301787 0.1922392 -0.21685041 -0.36835834 -0.17531902 0.028390625 -0.30220816
-0.04683962 0.2398693 -0.1591767 0.26489207 -0.26110867 -0.17594394 0.3515011 0.0649414
-0.25038958 0.07104187 -0.056096613 0.370411 0.28000262 -0.2491816 -0.036385443 -0.15683049
0.24833111 0.37945393 0.16655476 0.30669993 0.36816216 -0.2635167 -0.08381655 -0.26546946
0.10144072 0.0016771875 -0.22530372 -0.3907653 -0.26257816 0.3647395 0.35887858 -0.068306215
0.36968607 -0.28626624 -0.35662934 0.19321512 -0.37542886 0.40423727 -0.009126966 0.23728065
0.08011106 0.030099006 -0.24108683 0.36518136 0.38776994 0.52776587 0.09876193 0.24356145
-0.18345849 0.22555237 -0.3329035 -0.28790763 0.06297379 -0.07582526 0.27635196 -0.22472815
0.09429757 0.061890952 -0.11590396 0.15120442 0.1683123 -0.39910585 -0.40445423 -0.34120786
-0.2791595 0.03766563 -0.16312346 0.009288469 0.36794233 0.27421173 -0.27857444 0.3148385
0.22954732 0.11217242 0.18880658 0.21328628 0.13602777 -0.46150684 0.31950876 -0.18079716
-0.15880197 -0.39026782 -0.1332498 -0.032971736 -0.25806066 0.13866556 0.1216599 -0.0635338
0.3220031 -0.44618183 -0.30728102 -0.3184492 -0.18959616 -0.3007069 -0.14402142 0.31505424
0.29147035 0.09349588 0.34562147 0.115523554 -0.20008978 -0.39583793 0.2016342 -0.07096779
-0.14809746 -0.06465728 -0.1925636 -0.254955 -0.05188169 0.3042863 0.14859813 -0.085564286
00000000: 6cf5 6e3e ca71 933e 82ba bebe 2b6d aabd
00000010: 2808 293e 59f8 283e edb2 ecb9 9c6f 1f3e
00000020: 6667 8dbe c777 9abe 1d33 1c3e bf60 85bd
00000030: f181 963d 390c 5c3e 483e cd3e d880 ef3e
00000040: cc81 65be 338f 9b3e 4d25 223e 64b2 0cbe
00000050: 9357 5b3e 0eb0 c4be 37f8 aa3e 1fd5 a8bd
00000060: 89c5 ce3d dc76 023e 5dfa 85be d1ab bfbe
00000070: ab9f a73e 1ab6 b9be 17db 9fbe 4a4b 003c
00000080: c5ea efbd bd7d 06bd 7c05 653e 03ab 803c
00000090: 39fc 8abe 4273 3a3e 72a9 70be c441 b73e
000000a0: a040 953e a98c 643e 52ba 543e e573 7fbd
000000b0: bd58 f6bd e760 34be 3b1e c9bd a4b8 04be
000000c0: f31d a3bd e97e 41be a795 74be 3d43 513e
000000d0: f0a2 c8be fc05 b7be 4d19 73be 1729 843e
000000e0: 96c5 d23e b26f 81be aba3 c43d 2072 1b3e
000000f0: 71e2 73be 22f1 773e d85b 533e cc4e 813e
00000100: ebfd b23c 2fc7 7d3e c2bc bebc 059d 32bd
00000110: a5f6 9f3e f817 033e c7d3 89bd 956d 9b3e
00000120: 857d 81be b193 89bc 61a8 543e 46d6 583e
00000130: 91f0 d5bd 9142 803e fddd a23e 1e79 7bbe
00000140: 0e54 1abe f53a 04be 5542 773e 13cc c83e
00000150: e409 eabd 0c70 dd3b 3d76 9bbe 0cd7 843e
00000160: 0a65 943e 5e3d 81be b3f2 dabe 6550 a53d
00000170: ff65 2f3e 402d e63e 9794 d63e 88d4 103e
00000180: c474 3fbe 08eb 5fbe a559 a0be 8656 44be
00000190: ef94 3e3e 0f35 2fbe 5644 aa3d 89d2 3e3d
000001a0: f185 b63c 4307 093f f34c 003d 609b e53e
000001b0: a406 503e 3d7b 57be 5c67 30bc e9bd c7be
000001c0: b038 97be 1311 cf3e e367 a23e c760 903e
000001d0: 7958 4f3d 16f6 80be 1921 babe 157d 643e
000001e0: b3de 8bbe 1d18 dc3d 83cc 10be 4246 25be
000001f0: 5b25 ba3e e7a2 a1be e202 103e c037 0c3d
00000200: c9e3 283d 5cbd 543d e4be 82bc 924a 84be
00000210: 017b 313e 3ac6 51bd f142 633d 2285 083f
00000220: c642 c83e c2be b43e 5ada 443e 090e 5ebe
00000230: 7799 bcbe d486 33be 7593 e83c 07bb 9abe
00000240: e7da 3fbd 4ca0 753e 38ff 22be ef9f 873e
00000250: 09b0 85be a62a 34be f4f7 b33e ffff 843d
00000260: 1033 80be 667e 913d 90c5 65bd 83a6 bd3e
00000270: 815c 8f3e 7629 7fbe e708 15bd 2c98 20be
00000280: 834a 7e3e c947 c23e 558d 2a3e c607 9d3e
00000290: c07f bc3e a9eb 86be 03a8 abbd 9deb 87be
000002a0: 27c0 cf3d 13d5 db3a 05b6 66be 6412 c8be
000002b0: a570 86be 23bf ba3e efbe b73e 21e4 8bbd
000002c0: 7e47 bd3e 7d91 92be 1f98 b6be 2fda 453e
000002d0: 3638 c0be 30f8 ce3e 4589 15bc b3f9 723e
000002e0: 4411 a43d 3192 f63c 77df 76be 0df9 ba3e
000002f0: c889 c63e aa1b 073f b243 ca3d 2c68 793e
00000300: 8bdc 3bbe 33f7 663e 5472 aabe a168 93be
00000310: 67f8 803d 464a 9bbd 017e 8d3e 231f 66be
00000320: 161f c13d 5e81 7d3d 0e5f edbd 55d5 1a3e
00000330: 0f5a 2c3e 9a57 ccbe a014 cfbe ccb2 aebe
00000340: feed 8ebe 4747 1a3d d609 27be aa2e 183c
00000350: f062 bc3e 7b65 8c3e 4fa1 8ebe 8332 a13e
00000360: 740e 6b3e a7ba e53d 8356 413e b867 5a3e
00000370: dd4a 0b3e a04a ecbe a796 a33e e422 39be
00000380: fc9c 22be 2fd1 c7be a372 08be 5f0d 07bd
00000390: 8720 84be 58fe 0d3e d328 f93d 021e 82bd
000003a0: 97dd a43e f271 e4be f053 9dbe c60b a3be
000003b0: 7f25 42be 41f6 99be 5a7a 13be ca4e a13e
000003c0: 9a3b 953e c57a bf3d 4cf5 b03e 9d97 ec3d
000003d0: 56e4 4cbe 45ab cabe 3279 4e3e 9057 91bd
000003e0: dca6 17be 096b 84bd 642f 45be 7689 82be
000003f0: e581 54bd 6acb 9b3e 1c2a 183e 543c afbd

player_encoder.0.bias f4 [64]
-0.20346592 0.069335006 -0.048222672 0.089689866 0.054994278 -0.3579483 -0.17288621 0.37060988
-0.35029918 0.30174673 -0.07587948 -0.075966716 -0.32121584 -0.34532553 0.28852248 0.1307837
-0.25152066 -0.33463326 0.24041158 -0.20720299 0.059252225 0.4597139 -0.32330647 -0.18063277
-0.38167128 -0.11734998 0.2846439 0.14140813 -0.35728112 0.33134314 0.0255344 0.042430405
0.21582863 -0.32989976 0.16737042 -0.2958683 -0.4042217 -0.20860395 0.029560992 0.21421279
-0.22395405 0.06537121 -0.0101807285 0.2401603 -0.10944528 -0.30391502 0.28248757 -0.32817894
-0.014211166 0.09251011 -0.053874668 -0.30760157 -0.21782772 -0.32124156 -0.096206 -0.23056628
-0.2153042 0.3246852 -0.13697839 -0.3836848 0.39847112 -0.33949462 -0.35505435 0.3891928
00000000: 5f59 50be 83ff 8d3d 2385 45bd 52af b73d
00000010: ae41 613d 0045 b7be 1509 31be 94c0 bd3e
00000020: 6a5a b3be 8c7e 9a3e b366 9bbd 7094 9bbd
00000030: 6776 a4be 82ce b0be 38b9 933e 2aec 053e
00000040: 51c7 80be 0d55 abbe 742e 763e 052d 54be
00000050: 76b2 723d 9f5f eb3e 6d88 a5be ccf7 38be
00000060: 6b6a c3be 3055 f0bd d8bc 913e 4bcd 103e
00000070: 8ded b6be cfa5 a93e 852d d13c 81cb 2d3d
00000080: 2e02 5d3e 9fe8 a8be 2763 2b3e 0d7c 97be
00000090: 26f6 cebe 469c 55be e529 f23c 995a 5b3e
000000a0: 3654 65be 57e1 853d 12cd 26bc 95ec 753e
000000b0: d924 e0bd c09a 9bbe 36a2 903e 1207 a8be
000000c0: f3d5 68bc f175 bd3d afab 5cbd f47d 9dbe
000000d0: 3b0e 5fbe c679 a4be a707 c5bd 9119 6cbe
000000e0: b478 5cbe 233d a63e 1044 0cbe 5672 c4be
000000f0: 6804 cc3e 3dd2 adbe afc9 b5be 4744 c73e

player_encoder.2.weight f4 [32, 64]
-0.08058827 -0.09338209 0.10310291 -0.057981163 -0.031399325 0.0038414784 -0.08755449 0.11398582
-0.067044795 -0.076264165 0.07134843 0.0841401 -0.088724166 0.033563744 -0.07220337 -0.0622468
-0.09577443 0.048450712 0.114683874 0.043882746 -0.07937208 0.02112874 -0.027553104 0.11198824
0.0007271489 0.011480727 -0.052005947 0.04274536 -0.07580667 -0.017878922 0.02629856 -0.08645591
0.06270976 -0.011197891 0.05388743 -0.076888174 0.07787073 -0.029960532 0.041703288 0.061609566
0.10794297 0.016401086 -0.1009398 -0.10609587 -0.016888602 -0.040237814 0.043754004 0.052046433
0.017237693 -0.03938223 -0.008495316 -0.0768673 -0.024006082 -0.016449485 -0.10511173 0.11293814
0.10041889 0.035155717 0.09352278 -0.02661769 0.048904203 -0.05333017 -0.008942318 -0.1093356
0.036015674 0.042279795 0.06006622 0.037426863 -0.03252586 0.11684004 0.13565563 -0.033924192
-0.022455044 0.06305108 0.029784573 0.03319218 0.12535998 0.04915592 -0.004225429 0.11829814
0.10415257 0.18740253 -0.025171392 0.00472677 -0.016087566 -0.08198645 0.18628792 0.046827555
0.04129505 -0.17201385 -0.16682608 -0.074878514 -0.00082091836 -0.08809812 0.20252725 0.13218813
-0.094680965 0.017287698 0.018283848 0.1598587 0.025706964 0.014787776 -0.10086243 0.058237642
-0.1339649 -0.09518505 -0.08192088 -0.034566868 -0.052672274 -0.048769914 0.03695054 0.040069383
-0.07019247 0.08823951 0.051452663 0.19713616 0.05481442 -0.02578313 0.112640604 0.04082263
0.069857456 -0.04723375 0.004142749 -0.060005885 -0.0004830665 0.010165523 0.06595814 -0.1376361
0.0733302 -0.00025297544 0.18910493 -0.12491758 -0.09907628 -0.0019505974 0.1772252 -0.08173501
0.04573673 0.01883593 0.18958706 0.14198953 0.05156338 -0.02582142 -0.028259793 0.0519494
0.05139633 0.1445459 -0.042271916 0.013019441 0.024259616 -0.053798694 0.22600494 0.05100853
-0.011516658 -0.23204689 -0.25815254 -0.19686997 -0.04881565 -0.07675372 0.11704985 0.05551887
-0.054518145 -0.0066185105 0.009497446 0.15393394 -0.06658914 -0.009960185 0.01944101 0.09092037
-0.20840855 0.010118427 0.06419556 -0.15088548 -0.015920002 -0.13103375 0.0966461 0.18384486
0.01611447 0.10010699 0.11222672 0.20956728 -0.028452093 0.12160984 0.14150141 -0.01764873
-0.048666563 -0.1880044 0.07120294 -0.1304359 -0.019443417 0.2246975 0.236363 0.031896934
0.020433305 0.15241468 0.051623423 -0.051791355 0.058782995 -0.08323774 0.13622315 0.053825654
0.042616095 0.036401015 0.15043779 0.03326816 0.112648375 -0.02706902 -0.083720684 0.12615566
0.07888873 0.05835747 0.08162898 0.05902166 0.057682797 -0.13882564 0.005385926 0.06819422
-0.09152624 0.023468642 -0.042998523 -0.14014217 -0.04722443 -0.063464925 0.21836662 0.10811192
-0.014992093 0.047891285 -0.12996615 0.018080104 0.013222873 -0.08890832 0.029836817 -0.026122082
-0.099136755 -0.04816771 0.012393402 0.011503331 -0.037314944 -0.080645196 -0.065141134 0.005663456
0.061867543 0.055704087 0.17062443 0.10072602 -0.06940925 0.03215347 0.13831653 0.037811346
0.02722824 -0.02997683 0.06668701 -0.078236975 0.0756417 0.14286257 0.102115326 0.010974822
00000000: 770b a5bd 1c3f bfbd 9e27 d33d a87d 6dbd
00000010: 949c 00bd 50c1 7b3b c54f b3bd 6671 e93d
00000020: c84e 89bd 6330 9cbd 201f 923d a551 ac3d
00000030: 04b5 b5bd 237a 093d 5cdf 93bd 80f6 7ebd
00000040: 6225 c4bd 4174 463d 61df ea3d 65be 333d
00000050: d48d a2bd 2e16 ad3c 0cb7 e1bc 175a e53d
00000060: 239e 3e3a a919 3c3c 3004 55bd c215 2f3d
00000070: 8740 9bbd d176 92bc 1470 d73c cc0f b1bd
00000080: fa6d 803d 5c77 37bc 11b9 5c3d 8c77 9dbd
00000090: b07a 9f3d ca6f f5bc 11d1 2a3d 505a 7c3d
000000a0: 3411 dd3d 925b 863c 87b9 cebd cb48 d9bd
000000b0: f759 8abc 68d0 24bd 6637 333d a42e 553d
000000c0: 1036 8d3c 434f 21bd f02f 0bbc 9a6c 9dbd
000000d0: 67a8 c4bc 12c1 86bc d244 d7bd 1d4c e73d
000000e0: 6ba8 cd3d 71ff 0f3d df88 bf3d 580d dabc
000000f0: c64f 483d bd70 5abd cd82 12bc 58eb dfbd
00000100: 2c85 133d 942d 2d3d ff07 763d e94c 193d
00000110: d639 05bd d549 ef3d 4fe9 0a3e 18f4 0abd
00000120: a4f3 b7bc ed20 813d c7fe f33c 86f4 073d
00000130: 5e5e 003e b857 493d 7875 8abb 4c46 f23d
00000140: f14d d53d 73e6 3f3e 3c34 cebc 05e3 9a3b
00000150: 12ca 83bc 83e8 a7bd 43c2 3e3e 40ce 3f3d
00000160: 0025 293d 6624 30be 75d4 2abe e859 99bd
00000170: e632 57ba ca6c b4bd 4e63 4f3e 535c 073e
00000180: 18e8 c1bd ee9e 8d3c 02c8 953c 00b2 233e
00000190: 6997 d23c 6e48 723c f690 cebd 988a 6e3d
000001a0: 182e 09be 61f0 c2bd 22c6 a7bd fd95 0dbd
000001b0: e2be 57bd f6c2 47bd 7359 173d cb1f 243d
000001c0: 12c1 8fbd ebb6 b43d 07c0 523d 10de 493e
000001d0: 1685 603d 2537 d3bc 1eb0 e63d a135 273d
000001e0: 6d11 8f3d 2d78 41bd e6bf 873b bbc8 75bd
000001f0: 1744 fdb9 4b8d 263c 1015 873d 7af0 0cbe
00000200: 252e 963d caa1 84b9 b9a4 413e cad4 ffbd
00000210: 81e8 cabd 30ab ffba 867a 353e af64 a7bd
00000220: 7056 3b3d cf4d 9a3c 1c23 423e b465 113e
00000230: 1f34 533d 7187 d3bc 1581 e7bc e5c8 543d
00000240: f584 523d d703 143e 5125 2dbd 7e4f 553c
00000250: 1abc c63c 055c 5cbd d76d 673e 52ee 503d
00000260: 5db0 3cbc b39d 6dbe 922c 84be 4898 49be
00000270: ebf2 47bd 0e31 9dbd d5b7 ef3d c167 633d
00000280: 6b4e 5fbd 17e0 d8bb 2d9b 1b3c dca0 1d3e
00000290: e35f 88bd 0b30 23bc c142 9f3c 7534 ba3d
000002a0: 0d69 55be c2c7 253c f678 833d b981 1abe
000002b0: aa6a 82bc b62d 06be 64ee c53d d441 3c3e
000002c0: 7e02 843c e504 cd3d 1fd7 e53d ce98 563e
000002d0: 5d14 e9bc 940e f93d bfe5 103e 1294 90bc
000002e0: 9756 47bd 3a84 40be d9d2 913d fd90 05be
000002f0: cd47 9fbc 1a17 663e 2409 723e 5ca6 023d
00000300: bf63 a73c 9812 1c3e 1573 533d 2c23 54bd
00000310: 70c6 703d 8c78 aabd 157e 0b3e 4a78 5c3d
00000320: 378e 2e3d 3b19 153d 5d0c 1a3e 3244 083d
00000330: 31b4 e63d d9bf ddbc c075 abbd f32e 013e
00000340: 6a90 a13d 3e08 6f3d 182d a73d b2c0 713d
00000350: cc44 6c3d 4f28 0ebe 6c7c b03b 69a9 8b3d
00000360: 1c72 bbbd 4f41 c03c 381f 30bd 6e81 0fbe
00000370: 676e 41bd e6f9 81bd 809b 5f3e c869 dd3d
00000380: 65a1 75bc a729 443d d915 05be ba1c 943c
00000390: c0a4 583c 9115 b6bd 576c f43c fafd d5bc
000003a0: 3608 cbbd 814b 45bd b20d 4b3c 7878 3c3c
000003b0: 8ed7 18bd 4f29 a5bd b768 85bd 8394 b93b
000003c0: d268 7d3d f829 643d 2cb8 2e3e 7249 ce3d
000003d0: 7026 8ebd 5bb3 033d d9a2 0d3e 12e0 1a3d
000003e0: c20d df3c f891 f5bc 3393 883d b53a a0bd
000003f0: 09ea 9a3d 914a 123e d721 d13d bdcf 333c

player_encoder.2.bias f4 [32]
-0.059771057 -0.07058469 0.04884387 0.056320377 0.0705666 -0.025816007 -0.08387129 -0.03563813
-0.11750577 -0.12475279 0.045977082 0.06762051 0.072359905 0.022744749 -0.10651702 0.0857765
-0.05208491 0.004162746 0.10086764 0.14821997 -0.12798363 0.07172304 -0.045750514 0.03893949
0.005995631 0.006437316 0.04311695 -0.10725511 0.09977955 -0.052871827 -0.021357134 -0.06781141
00000000: 7fd2 74bd b58e 90bd 8310 483d 32b0 663d
00000010: 3985 903d 177c d3bc b6c4 abbd 4af9 11bd
00000020: dda6 f0bd 647e ffbd 7752 3c3d 9f7c 8a3d
00000030: 6e31 943d 3253 ba3c 9825 dabd 97ab af3d
00000040: fd56 55bd a567 883b b193 ce3d fac6 173e
00000050: 240e 03be 87e3 923d e464 3bbd 047f 1f3d
00000060: 0077 c43b 1ff0 d23b 669b 303d 91a8 dbbd
00000070: 3959 cc3d 2190 58bd 28f5 aebc b5e0 8abd

context_encoder.0.weight f4 [32, 10]
-0.04837271 -0.11286784 0.013987448 0.13952906 0.26525536 -0.18335262 0.27284202 -0.16190268
-0.21159266 0.32033724 -0.26635212 0.07158517 0.19656126 0.18947987 -0.14791454 0.28960314
0.1015932 -0.07530837 0.16182409 -0.10991259 0.22950636 0.24245478 -0.16031381 -0.19060887
0.070132844 0.24036796 -0.08090457 -0.09502962 0.01668432 0.2979653 0.22471835 0.21287976
-0.21689014 0.12110171 -0.25596756 -0.16960776 0.031807832 -0.044525832 -0.050270494 -0.07568404
0.27465743 -0.24707094 0.25901276 -0.08300228 0.050311014 0.313466 -0.05705957 -0.21593983
0.08674573 0.20138152 0.19564591 0.24673957 -0.23228838 0.20142584 -0.22930665 -0.13856725
0.15808496 -0.12032533 -0.037112106 0.18800035 -0.11555173 -0.012311663 -0.28679034 0.024876451
-0.1351222 0.22078624 0.0006476805 0.254573 0.013033662 0.2455555 -0.13411745 0.16355534
-0.26510265 0.14846474 -0.17574969 0.08778914 -0.19127001 -0.19027069 0.07586168 -0.06856767
0.15118285 0.25571877 -0.16515046 -0.2815773 0.13204646 -0.113839544 0.14185627 0.08960655
-0.12008076 0.10170474 -0.22302951 -0.0852261 -0.15312691 -0.29867557 -0.27175367 -0.12673387
-0.18555087 0.05307974 0.2836064 -0.057657547 -0.07479457 -0.12861355 0.015159803 0.051839918
0.34326592 -0.10306415 0.039680507 0.18739669 0.02853521 -0.18183282 -0.040287215 0.0020669105
0.16985083 0.21681905 0.14331806 0.083717965 0.11458275 0.26677707 0.105156235 0.0012996609
-0.06454903 -0.23551731 -0.15432873 0.021353167 -0.14335012 -0.28928855 0.15869989 0.20907335
0.21452507 -0.14541806 0.15650757 0.0055752127 -0.23921055 0.28643373 0.22493692 -0.09883252
0.16700475 -0.059578538 0.31600904 0.16144624 0.22774969 0.051571377 -0.26951933 -0.22216949
-0.28283444 -0.056762952 -0.19057466 0.08197482 0.13264312 -0.10818119 0.08622807 -0.3107655
-0.0018156866 -0.15557034 -0.29546127 0.23487544 0.09406763 -0.07951001 -0.2772244 0.17487134
0.14194955 0.011573245 0.06106223 -0.02894449 0.2080514 0.27593973 0.10780893 -0.2773931
-0.2200519 0.29714692 -0.15232056 -0.030584455 0.08826261 0.04360994 -0.29533562 -0.049405433
-0.090184346 0.1317027 -0.13794124 0.2694407 -0.16947843 0.034601454 0.044613495 0.1574048
-0.22548547 -0.0043860762 0.103044726 0.057871886 0.26690596 -0.01377483 0.14226031 -0.122264855
0.12708808 0.02919199 -0.20573422 -0.12699758 0.037485905 -0.23561753 -0.14861733 -0.05049704
0.055259436 -0.078157105 0.03902393 0.2402237 -0.18951301 0.30242524 -0.27558115 -0.2170114
0.0654993 0.25314915 0.015695976 -0.28263322 0.29503196 -0.11821882 -0.029038563 -0.09754694
-0.05697733 0.0033006761 0.2437981 0.016685205 -0.25260982 -0.25936675 -0.29057404 0.26462826
-0.32976755 0.20457622 0.15889364 0.10885784 0.17179447 -0.11751299 0.12627126 0.013418576
0.2075819 0.1264691 -0.19263259 -0.19249666 0.33079892 0.028730933 0.02645572 -0.032327574
0.046079125 0.1486294 -0.16768561 -0.19964088 -0.31247613 0.16475089 0.08639584 0.06864183
0.26450968 0.06986288 -0.18975152 -0.242015 -0.19543336 -0.26429325 0.12526017 -0.18950927
00000000: 7622 46bd 4127 e7bd 9c2b 653c b5e0 0e3e
00000010: 8dcf 873e cac0 3bbe f3b1 8b3e d1c9 25be
00000020: bfab 58be 3e03 a43e 4e5f 88be 3f9b 923d
00000030: 5b47 493e 0307 423e e976 17be dd46 943e
00000040: 1810 d03d 463b 9abd 37b5 253e da19 e1bd
00000050: b703 6b3e 1146 783e 4e29 24be f92e 43be
00000060: cfa1 8f3d 0523 763e 4cb1 a5bd e49e c2bd
00000070: 8ead 883c e88e 983e 911c 663e 27fd 593e
00000080: 7318 5ebe 2c04 f83d 2e0e 83be a8ad 2dbe
00000090: ee48 023d b860 36bd 6fe8 4dbd 3c00 9bbd
000000a0: e69f 8c3e 2a00 7dbe 529d 843e 19fd a9bd
000000b0: ec12 4e3d 9e7e a03e 4cb7 69bd 551f 5dbe
000000c0: bfa7 b13d f536 4e3e 6757 483e 4ca9 7c3e
000000d0: 01dd 6dbe 9342 4e3e 5dcf 6abe 93e4 0dbe
000000e0: 06e1 213e 206d f6bd dd02 18bd 2a83 403e
000000f0: 63a6 ecbd dbb6 49bc 2fd6 92be b3c9 cb3c
00000100: 795d 0abe ca15 623e 1ac9 293a 6457 823e
00000110: 248b 553c e772 7b3e 1656 09be 0d7b 273e
00000120: 89bb 87be 2407 183e baf7 33be cbca b33d
00000130: 49dc 43be 52d6 42be 5e5d 9b3d 356d 8cbd
00000140: adcf 1a3e 92ed 823e 341d 29be e62a 90be
00000150: 3037 073e b524 e9bd c542 113e a483 b73d
00000160: e7ec f5bd 934a d03d d961 64be 068b aebd
00000170: 4dcd 1cbe 01ec 98be 4c23 8bbe 86c6 01be
00000180: 0c01 3ebe 246a 593d dc34 913e 522a 6cbd
00000190: e52d 99bd 45b3 03be d360 783c 1856 543d
000001a0: 8dc0 af3e 4c13 d3bd 0788 223d ebe4 3f3e
000001b0: acc2 e93c 6232 3abe 3504 25bd 0175 073b
000001c0: 60ed 2d3e d005 5e3e f8c1 123e 5374 ab3d
000001d0: 5caa ea3d 0197 883e 275c d73d 6259 aa3a
000001e0: 4832 84bd 732b 71be 5a08 1ebe d6ec ae3c
000001f0: 60ca 12be a11d 94be 3982 223e 5317 563e
00000200: 76ac 5b3e 79e8 14be 8543 203e 46b0 b63b
00000210: 9cf3 74be 71a7 923e dd55 663e b468 cabd
00000220: 4b03 2b3e a008 74bd f0cb a13e 2a52 253e
00000230: 3737 693e 823c 533d 70fe 89be 6680 63be
00000240: adcf 90be 4580 68bd 0126 43be 6ae2 a73d
00000250: 99d3 073e 1a8e ddbd 5898 b03d a81c 9fbe
00000260: 55fc edba d54d 1fbe b346 97be 3083 703e
00000270: 88a6 c03d 25d6 a2bd 5bf0 8dbe 7911 333e
00000280: 395b 113e b59d 3d3c 641c 7a3d ff1c edbc
00000290: 6d0b 553e f947 8d3e eeca dc3d 7806 8ebe
000002a0: 4955 61be a423 983e ecf9 1bbe 408c fabc
000002b0: 07c3 b43d 56a0 323d 3b36 97be 5a5d 4abd
000002c0: 92b2 b8bd 13dd 063e 7840 0dbe 22f4 893e
000002d0: c18b 2dbe 41ba 0d3d a4bc 363d b92e 213e
000002e0: aae5 66be 13b9 8fbb 1d09 d33d 120b 6d3d
000002f0: e6a7 883e d3af 61bc b0ac 113e ff65 fabd
00000300: 6123 023e 0a24 ef3c feab 52be a70b 02be
00000310: d28a 193d b945 71be 242f 18be fcd5 4ebd
00000320: b857 623d d510 a0bd 8ed7 1f3d 34fd 753e
00000330: b30f 42be 7bd7 9a3e f918 8dbe 3d38 5ebe
00000340: 7f24 863d c49c 813e d994 803c 4db5 90be
00000350: 6e0e 973e b51c f2bd 48e2 edbc b1c6 c7bd
00000360: 1061 69bd 2850 583b 36a6 793e 69af 883c
00000370: 1356 81be b8cb 84be 1fc6 94be 5b7d 873e
00000380: 4bd7 a8be 6e7c 513e 04b5 223e dcf0 de3d
00000390: e4ea 2f3e a7aa f0bd 414d 013e 96d9 5b3c
000003a0: 5990 543e 1e81 013e 7a41 45be d81d 45be
000003b0: 7a5e a93e 225d eb3c abb9 d83c eb69 04bd
000003c0: 77bd 3c3d 4e32 183e c7b5 2bbe a96e 4cbe
000003d0: dffc 9fbe 75b4 283e 4df0 b03d 1694 8c3d
000003e0: d06d 873e 4514 8f3d 394e 42be c8d2 77be
000003f0: af1f 48be 7251 87be 3444 003e b80e 42be

context_encoder.0.bias f4 [32]
-0.22749856 0.045382176 -0.2830124 -0.16681394 0.25810972 -0.07372398 0.028016072 -0.17807874
-0.071727 -0.22248071 0.26507014 0.072335795 -0.22658166 0.21148631 0.28437912 0.19445398
-0.07583121 0.03292857 0.16406709 0.07213749 -0.29313922 0.12940007 -0.1427913 -0.1555894
-0.25845674 -0.20279044 -0.2559926 -0.09243855 -0.16387868 -0.004575644 0.3915082 0.22155501
00000000: 62f5 68be a9e2 393d 00e7 90be 46d1 2abe
00000010: f526 843e 99fc 96bd f681 e53c 465a 36be
00000020: 9be5 92bd fcd1 63be 46b7 873e ca24 943d
00000030: 0605 68be de8f 583e 249a 913e f21e 473e
00000040: 654d 9bbd 1ce0 063d 3401 283e d2bc 933d
00000050: 5816 96be 7481 043e e237 12be d452 1fbe
00000060: 7154 84be 4ca8 4fbe 7611 83be 6c50 bdbd
00000070: d0cf 27be 49ef 95bb c373 c83e 51df 623e

context_encoder.2.weight f4 [16, 32]
-0.13698791 0.10170291 0.044340212 0.065516256 -0.18535362 0.16565634 0.07014368 -0.14535266
0.050831545 -0.14821215 0.10243904 -0.01878863 -0.071418546 -0.14552428 -0.041423596 -0.093549654
0.0085970275 -0.10455649 0.03800412 -0.11568438 -0.0074365586 0.041270368 -0.17708427 0.091131896
-0.13525483 -0.15477002 -0.15837587 0.14447334 0.0036603676 -0.15239753 -0.038293503 -0.1441025
0.12086677 0.06591841 -0.061063934 0.16616371 -0.1082485 -0.11293404 -0.099213816 -0.0789367
0.13445206 0.13913962 -0.0056151464 -0.097072616 -0.109426916 -0.12142207 -0.00031825033 0.1492937
0.07284324 0.052020367 0.17202726 -0.13924599 -0.12703186 0.16063718 0.0010412516 0.14981905
0.09563614 -0.005968984 -0.0056862067 0.003497069 0.1407844 -0.04277251 -0.03770597 0.016051216
0.041189402 -0.17493899 0.1758802 -0.022842918 -0.06807781 0.11188962 -0.1381779 -0.014733547
-0.114202335 -0.07073172 0.07763869 0.059349295 0.13106263 0.07892657 0.008699721 -0.1587628
0.06987467 -0.02100228 -0.004689761 0.07386168 0.07483021 -0.040046148 -0.04012041 -0.0819166
0.049116902 0.051044594 -0.111172624 -0.120504975 -0.17617057 0.045383055 0.06397628 -0.13056469
0.19967175 -0.008033427 -0.09696125 0.17584059 0.081157655 0.053400245 -0.093579985 -0.019798566
-0.04231502 -0.08234495 0.043190718 0.16972023 0.05576108 0.0479304 0.059877586 -0.025239585
0.12208444 0.05110366 -0.11308632 0.0017084052 0.0303353 -0.15163201 0.12123122 0.13299823
-0.15092386 -0.13271794 0.10400057 0.107975245 -0.047606155 0.1336484 0.01582782 0.14942896
-0.10674031 0.16060193 0.027545504 0.01205821 -0.11137174 0.19796002 0.022076476 0.15419431
-0.12757497 -0.12420183 0.11255788 0.098470114 0.17553912 -0.051130585 0.08853068 -0.04410087
0.09674133 -0.042650547 0.12048132 0.16689332 0.12858938 0.19307044 0.029001927 0.07803269
-0.076990955 -0.09260379 -0.07988515 0.112855345 0.19037953 0.13114432 0.15969422 0.16292137
0.25166544 0.06657934 0.050232343 -0.020561302 -0.05539545 0.12693663 -0.15630972 -0.17666882
0.051925704 0.13921201 0.0559256 0.17207567 -0.121204436 -0.001315952 -0.14709465 -0.08837386
-0.045669004 -0.10180844 -0.06378336 0.083380155 -0.05637398 0.12662922 -0.12656797 0.18419105
-0.1711302 0.00971605 0.009444758 -0.08478965 0.1521842 0.1848506 0.245944 -0.008473447
-0.05529233 -0.17163597 -0.15130484 0.1290436 -0.15755984 0.12971443 0.12604137 -0.106478065
-0.13285823 0.017030193 -0.042801697 -0.04023815 -0.047206268 -0.1259915 0.005336583 -0.035673298
-0.1696366 0.06547867 0.12205444 -0.0224642 -0.011138548 -0.10575408 0.068578176 -0.17633696
-0.17463903 0.13852185 0.03685066 0.1437647 0.042950958 0.07535664 0.09806004 -0.13537718
-0.048568785 0.11096034 0.040321972 0.13669883 -0.01709883 -0.005684261 -0.06928468 -0.07215214
-0.1608294 -0.06660711 -0.12894602 0.027623171 -0.16349253 -0.018780425 -0.14428242 -0.13905437
-0.131583 0.052807007 -0.16000687 -0.1399637 0.09129271 0.091288894 -0.06586967 -0.00037824688
-0.051378947 0.14964278 -0.09224234 -0.041312993 -0.15821433 -0.12910566 0.015287631 -0.15372603
00000000: 8f46 0cbe 9e49 d03d 159e 353d 632d 863d
00000010: 57cd 3dbe d1a1 293e 7da7 8f3d 54d7 14be
00000020: bd34 503d edc4 17be 8fcb d13d 9dea 99bc
00000030: e343 92bd 5104 15be caab 29bd f696 bfbd
00000040: 8cda 0c3c b721 d6bd 35aa 1b3d efeb ecbd
00000050: 60ae f3bb 1e0b 293d 9455 35be 5ca3 ba3d
00000060: 3e80 0abe 087c 1ebe 492d 22be d2f0 133e
00000070: c7e2 6f3b 190e 1cbe a6d9 1cbd 9b8f 13be
00000080: ff88 f73d 3b00 873d 2d1e 7abd d226 2a3e
00000090: 64b1 ddbd f649 e7bd 9d30 cbbd 91a9 a1bd
000000a0: cdad 093e 9e7a 0e3e 43ff b7bb 02ce c6bd
000000b0: 381b e0bd 22ac f8bd d6da a6b9 73e0 183e
000000c0: d62e 953d 4f13 553d ea27 303e 8096 0ebe
000000d0: a414 02be 137e 243e 9b7a 883a 2a6a 193e
000000e0: e1dc c33d 7897 c3bb 5c53 babb 152f 653b
000000f0: c929 103e 3a32 2fbd 9371 1abd d77d 833c
00000100: 38b6 283d 3523 33be f019 343e 1221 bbbc
00000110: 616c 8bbd 6326 e53d 827e 0dbe fa64 71bc
00000120: eae2 e9bd cbdb 90bd 0901 9f3d 3f18 733d
00000130: 4835 063e 41a4 a13d 4689 0e3c b792 22be
00000140: 731a 8f3d f90c acbc 91ac 99bb cb44 973d
00000150: 9540 993d 6e07 24bd 4d55 24bd e4c3 a7bd
00000160: ce2e 493d 2314 513d 79ae e3bd 50cb f6bd
00000170: 0f66 34be 95e3 393d ff05 833d c0b2 05be
00000180: c076 4c3e a39e 03bc 9f93 c6bd 8e0f 343e
00000190: fc35 a63d 37ba 5a3d dda6 bfbd 9a30 a2bc
000001a0: 8452 2dbd 78a4 a8bd c0e8 303d 24cb 2d3e
000001b0: bb65 643d ab52 443d 3342 753d 3fc3 cebc
000001c0: 6807 fa3d 1252 513d cd99 e7bd 91ec df3a
000001d0: bc81 f83c 6c45 1bbe 1348 f83d b030 083e
000001e0: c98b 1abe 36e7 07be 40fe d43d 2022 dd3d
000001f0: acfe 42bd 20db 083e 58a9 813c e803 193e
00000200: aa9a dabd d574 243e 1ca7 e13c cc8f 453c
00000210: de16 e4bd 08b6 4a3e bad9 b43c 1de5 1d3e
00000220: 03a3 02be 875d febd bf84 e63d b3aa c93d
00000230: 87c0 333e 4e6e 51bd 934f b53d 1da3 34bd
00000240: 5220 c63d 57b2 2ebd e9be f63d 15e6 2a3e
00000250: efac 033e 42b4 453e 7395 ed3c 9acf 9f3d
00000260: 6fad 9dbd 0ea7 bdbd d39a a3bd b420 e73d
00000270: daf2 423e b24a 063e e286 233e dcd4 263e
00000280: 4bda 803e c05a 883d 6ec0 4d3d 2d70 a8bc
00000290: 57e6 62bd adfb 013e a80f 20be ace8 34be
000002a0: 0cb0 543d 988d 0e3e 3e12 653d 9b34 303e
000002b0: 083a f8bd 067c acba fb9f 16be 5bfd b4bd
000002c0: 6c0f 3bbd f280 d0bd daa0 82bd 37c3 aa3d
000002d0: 67e8 66bd 17ab 013e 099b 01be 949c 3c3e
000002e0: c13c 2fbe 1130 1f3c 30be 1a3c 32a6 adbd
000002f0: 2dd6 1b3e 7a49 3d3e bed8 7b3e 36d4 0abc
00000300: 367a 62bd 57c1 2fbe a8ef 1abe 0124 043e
00000310: 5e57 21be dcd3 043e fd10 013e 2c11 dabd
00000320: fd0b 08be e782 8b3c d550 2fbd c2d0 24bd
00000330: 5c5b 41bd ea03 01be 81de ae3b 2a1e 12bd
00000340: 38b5 2dbe ae19 863d aef7 f93d d806 b8bc
00000350: 757e 36bc 9895 d8bd b772 8c3d ad91 34be
00000360: 93d4 32be acd8 0d3e b8f0 163d 0e37 133e
00000370: 58ed 2f3d 9554 9a3d b4d3 c83d 51a0 0abe
00000380: 10f0 46bd 2d3f e33d a728 253d c7fa 0b3e
00000390: d812 8cbc 0a43 babb 20e5 8dbd 80c4 93bd
000003a0: 76b0 24be 4f69 88bd 6d0a 04be fd49 e23c
000003b0: 966a 27be 68d9 99bc c5be 13be 4564 0ebe
000003c0: b2bd 06be 294c 583d d7d8 23be a552 0fbe
000003d0: acf7 ba3d acf5 ba3d ade6 86bd 704f c6b9
000003e0: bb72 52bd f53b 193e 8de9 bcbd d037 29bd
000003f0: f002 22be 4634 04be f978 7a3c 5b6a 1dbe

context_encoder.2.bias f4 [16]
0.12581149 0.14974846 -0.15060389 -0.07612132 -0.099510945 0.21285677 0.04704322 0.01826499
0.0744779 0.100325584 0.13250765 -0.05591441 0.13185552 -0.09310899 -0.03345594 -0.1579745
00000000: bad4 003e a957 193e e837 1abe 7fe5 9bbd
00000010: 65cc cbbd 20f7 593e 64b0 403d 76a0 953c
00000020: df87 983d 8077 cd3d 16b0 073e 8206 65bd
00000030: 2205 073e edaf bebd 1909 09bd 11c4 21be
