hierarchical_agent_final.pth (torch, 112125 bytes, 50 tensors)

network.0.weight f4 [64, 10]
000000 a7 7c 0e 3f e9 74 af 3e 83 5a 76 be 1c 01 f2 3e
       0.55658954 0.34268883 -0.24057965 0.4726647
000010 e4 a6 40 be 81 75 c3 3e bf 4f 50 be a3 3b 07 3f
       -0.18813664 0.38175586 -0.2034292 0.52825373
000020 91 cc 6a 3e 8a bc 10 be 38 c5 e4 3e b8 7e 06 3e
       0.22929598 -0.14134422 0.44681716 0.13134277
000030 a2 cb 25 3e 66 67 0d 3e 2c 38 48 3e e1 25 e0 3b
       0.16190961 0.13808975 0.19552678 0.006840453
000040 0b df 91 3e 79 69 68 3e b5 1b da bd 0d 36 f2 3d
       0.2849048 0.22696485 -0.10649816 0.118267156
000050 a4 ec 76 3e 0f be d8 3d c9 e9 a7 be aa dc e2 3e
       0.24113709 0.10583126 -0.3279555 0.44308978
000060 f7 72 c5 be af 74 79 3e c2 79 c8 bd 07 77 67 3e
       -0.38564274 0.24360918 -0.097888485 0.22603999
000070 04 19 ae 3c b4 4f 07 be e9 f8 02 3f 94 16 5b be
       0.021252163 -0.13213998 0.51161057 -0.21395332
000080 63 74 e6 3d 2e 1a 1c 3e 9d 0d e3 bd 43 44 9f 3e
       0.11252668 0.15244362 -0.11086581 0.31106767
000090 e5 90 43 3d 9c 78 00 3f 86 4b 07 3d cc ab 86 bd
       0.047745604 0.50184035 0.03303101 -0.065757364
0000a0 a6 35 25 bd 39 d0 8e bd f1 da 47 3e 27 4e 78 3e
       -0.040334366 -0.06973309 0.19517113 0.24248563
0000b0 39 c5 35 3e 8a ed f7 bd 62 51 51 3e 36 e7 a9 bd
       0.17751016 -0.12105854 0.20441201 -0.08296053
0000c0 e6 d5 3a 3e ea 9b 20 be 66 d3 c2 be dd aa ba bd
       0.18245658 -0.15684476 -0.3805191 -0.09114621
0000d0 8f fe a3 be 1e 3a 80 3e 6c 6f 25 3e 25 cc 92 3d
       -0.3203015 0.2504434 0.16155785 0.07167844
0000e0 ac 0c 2a 3e 28 e3 c1 bd b1 87 a0 3e e8 50 5e be
       0.16606396 -0.09467155 0.31353524 -0.21710551
0000f0 a5 25 fc 3c 7a c4 f9 bd 05 5f 9d 3d 3b ba 78 bd
       0.030779669 -0.12195678 0.07684139 -0.06072448
000100 94 28 df 3d d5 a4 87 bd 1a dd a3 3e 07 89 3d be
       0.108964115 -0.06623236 0.32004625 -0.18509303
000110 a2 f7 05 be 75 2f 02 be 54 49 68 3e e1 9e 59 3d
       -0.13082746 -0.12713416 0.22684222 0.053130034
000120 51 8d 7c 3e 87 7b 90 be 9b 44 a4 be ff 01 88 be
       0.24663283 -0.28219244 -0.32083592 -0.26564023
000130 ff ec 87 be a2 71 90 3d 2f b8 77 3d 5d 3f 65 3e
       -0.26548 0.07052924 0.060478386 0.22387452
000140 6e 13 2a be 41 f4 7d bd 6a 9a 3d 3e 95 46 53 bd
       -0.16608974 -0.062000517 0.18515936 -0.051580984
000150 95 ee 58 3e ab bf 09 bd 65 e6 8c 3e 71 ea 88 be
       0.21184762 -0.033630054 0.27519527 -0.26741365
000160 d2 b4 85 bd cf 3c 31 3e ba e2 8b bd 30 fa a6 3b
       -0.06528629 0.17308353 -0.06830354 0.0050957426
000170 c1 33 56 3e 36 d8 53 3e 37 4d 40 be 98 89 3e be
       0.2091818 0.20687947 -0.18779455 -0.18607175
000180 7a ce b3 3e df 84 88 be 5e c5 4e bd 1c 45 77 be
       0.35118467 -0.26663873 -0.050481193 -0.24147457
000190 c4 70 39 be 0e c8 a1 3d 77 f7 2a bd ec 0d 6b be
       -0.18109423 0.078994855 -0.041739907 -0.2295453
0001a0 d2 0f f3 3b 8d 31 5d be dc 5c 89 be 66 50 32 be
       0.0074176574 -0.21600933 -0.2682866 -0.17413482
0001b0 52 b4 8d be cf 2f 4e be 94 b9 ac 3e cf 1c 54 3d
       -0.27676636 -0.20135425 0.33735335 0.051785287
0001c0 b6 c4 0c 3e 77 02 97 be 55 ac 6b be 99 69 04 be
       0.13746914 -0.29494068 -0.23014958 -0.12930907
0001d0 34 81 6d 3d d8 68 83 be e6 c7 02 be 39 61 3f be
       0.057984546 -0.25665927 -0.12771568 -0.18689431
0001e0 c6 ba 65 3a a3 fc f0 bd 68 83 b3 bc 9d 6d 5b be
       0.0008763488 -0.11766937 -0.021913245 -0.21428533
0001f0 3f 44 5e be 62 ea 3c be 01 af dd bd 2f 95 7f be
       -0.21705721 -0.18448785 -0.10824395 -0.24959253
000200 68 c1 87 3e 3b 88 80 bd 09 e9 14 3f bd f4 55 3e
       0.26514745 -0.06275984 0.58168083 0.20894141
000210 0d cf 90 be 6c 49 f8 3e e0 4e e7 bd 03 4c c3 3e
       -0.28282967 0.48493516 -0.11294341 0.3814393
000220 96 99 85 be c1 6a 54 3c 53 79 bc 3d 40 0d 11 3e
       -0.2609374 0.012964905 0.09202828 0.1416521
000230 d5 2e 9d 3e d4 d9 50 be 68 ac e1 3d 0d c6 13 be
       0.30699793 -0.20395595 0.11019212 -0.14431019
000240 7c 05 8a 3b e0 fa 06 3e 72 b6 4b 3e 1c 42 ea 3e
       0.0042120796 0.13181639 0.19893816 0.45753562
000250 29 c3 a5 3e 96 61 65 be eb 08 38 3d 01 ba 5f bd
       0.32375458 -0.22400507 0.04493038 -0.054620747
000260 c9 6a 19 bd 14 46 31 be b3 3d a1 3e 6e 2a 46 be
       -0.037455354 -0.17311889 0.31492385 -0.19352123
000270 7e 26 7e 3e 1f 46 7e 3d eb 4f 3a 3e ce dd d4 bd
       0.24819371 0.06207859 0.18194549 -0.103938684
000280 e7 a8 7b 3e 25 bd ba 3c 01 be 84 ba 65 36 95 be
       0.2457615 0.02279527 -0.0010127426 -0.29143062
000290 ff 4c ad 3d 28 b2 53 bd 9a 96 3a be 12 8b 6b 3e
       0.084619515 -0.051683575 -0.18221512 0.2300227
0002a0 73 d2 07 3d 46 f4 4e be 81 e5 23 be 0e 6d 77 bc
       0.033159684 -0.2021037 -0.16005518 -0.015101684
0002b0 98 ce 34 3e 15 7e a5 bd 11 c3 38 be 1e c7 dd bd
       0.17656934 -0.08080689 -0.18043162 -0.10828994
0002c0 6c ea 71 be ad f7 e6 3d c7 a5 7a 3e 64 6d 98 be
       -0.23624581 0.11277709 0.24477302 -0.29770958
0002d0 15 af 92 3e 64 34 3c 3e c9 97 8a bd 26 c3 04 bd
       0.28649202 0.1837936 -0.06767232 -0.03241267
0002e0 c5 3e 22 3e 21 3b 41 3e 99 e1 e5 3d 10 47 35 3e
       0.15844257 0.18870212 0.1122467 0.1770289
0002f0 25 c8 b7 bd 60 49 3a 3d 74 c4 b3 3d 8d 13 b7 bd
       -0.089737214 0.045480132 0.08777705 -0.08939276
000300 20 21 d3 3d 5e c1 a6 3e 15 0a 7c bd e2 be 75 3c
       0.103090525 0.32569402 -0.061533052 0.014999123
000310 b5 5d 1a bd 7a 5f 12 3e 64 21 0a 3d 7c 24 a4 3d
       -0.037687022 0.14294234 0.03372325 0.08014771
000320 fa 0d 93 be 66 00 ef bd 18 59 88 3e 0b 4a fc 3d
       -0.287216 -0.11669998 0.26630473 0.1231881
000330 d9 d8 80 bc 35 3b 43 be ef 1c 46 be 49 08 91 be
       -0.015728401 -0.19065554 -0.19346975 -0.28326634
000340 c0 1a d3 bd 78 b5 da 3d d3 2a f7 3e 86 a3 74 3e
       -0.103078365 0.10679144 0.4827486 0.23890504
000350 57 48 fb be f9 da 22 bd 5f ed 16 bd cf ad e0 3e
       -0.49078628 -0.03975961 -0.03684747 0.43882605
000360 43 6b 8b 3d c2 16 68 3e 99 d5 1c 3e 0f e1 24 bd
       0.06807568 0.22664931 0.15315856 -0.040253695
000370 bb ab 37 be d0 ee 83 3e 0c 12 ee bd 0c 89 58 bd
       -0.17936604 0.25768137 -0.11624536 -0.052865073
000380 f0 3c 96 be 0d 75 56 3e 90 20 83 3e 37 b8 0e 3e
       -0.29343367 0.20943089 0.2561078 0.1393746
000390 cf de 50 be bd ac 66 be 25 ec 00 be 73 90 78 3e
       -0.20397495 -0.22526832 -0.12590082 0.24273853
0003a0 21 08 0d 3e f8 e2 9d 3e 5c be 35 3e 00 c2 01 3e
       0.13772632 0.30837226 0.17748398 0.12671661
0003b0 8c d3 8d 3c 25 25 c4 bd e9 44 80 be e2 f8 7e be
       0.017312787 -0.09577397 -0.25052574 -0.24899629
0003c0 a0 82 e7 3d 89 ed 34 be b5 ff 11 3c d5 af 0c be
       0.113042116 -0.17668737 0.008911063 -0.1373895
0003d0 99 c1 59 bd 44 40 65 be fe 63 64 be 77 38 b5 3d
       -0.053163145 -0.22387797 -0.22303769 0.088486604
0003e0 9f 14 e2 bd bc 4d 3b 3e 5d 17 d1 bd 57 10 7c bd
       -0.110390894 0.18291372 -0.10209534 -0.06153902
0003f0 cd 22 b6 3c 70 fb a5 bd 66 ce 94 bd a5 48 4c be
       0.022233391 -0.081045985 -0.0726593 -0.19949587

network.0.bias f4 [64]
000000 fa f6 6d 3e 71 16 3e be b2 96 00 3f 13 27 a2 3e
       0.23238745 -0.18563248 0.5022994 0.31670436
000010 53 4b b9 be be 5e 0c be 42 5d 14 3e 1b 22 fb bd
       -0.3619028 -0.13708016 0.144887 -0.122623645
000020 5f 46 c1 3c 20 88 2c be 55 0c 82 3e 8a ce 21 be
       0.023593126 -0.16848803 0.25400034 -0.15801445
000030 5e 44 86 3e a1 3d 6d 3e bb c5 2a 3e ed a1 8c 3e
       0.26224035 0.23168041 0.1667699 0.2746729
000040 ae 46 c0 bd f9 5c 38 be b1 f1 61 3d 1a d0 9c 3e
       -0.09388481 -0.18004216 0.055162136 0.3062752
000050 af 44 70 be f8 f8 61 3e 44 6b 93 be bb 11 6d 3e
       -0.234637 0.2206763 -0.28792775 0.23151295
000060 54 ac cd 3d b1 43 91 3d 96 54 a8 3e 98 c3 04 bd
       0.100426346 0.07092989 0.32877034 -0.032413095
000070 68 2f 33 3e 91 2b 80 be 18 40 82 bd c5 3b 74 3e
       0.17498553 -0.2503324 -0.06359881 0.23850925
000080 97 1f 9c 3e dd d1 17 3e 48 b9 87 be c0 5b 56 3e
       0.3049285 0.1482615 -0.26508546 0.20933437
000090 9f ee 26 3b dd 79 cd 3d 5f e4 9c bc d7 4a 2e bd
       0.002547182 0.10033009 -0.019151865 -0.04255184
0000a0 6b 0b 65 3e 23 7b 17 3b cf 18 5c be 74 7e ad 3e
       0.22367637 0.0023114167 -0.21493839 0.3388554
0000b0 d2 f7 98 3d 55 1d f1 3e 82 87 8c be bb 1f 0a be
       0.07469143 0.4709269 -0.27447134 -0.13488667
0000c0 c3 12 97 be 20 75 26 38 a2 ad 8d 3d 5b 76 be 3e
       -0.29506502 3.9686565e-05 0.069178835 0.37199673
0000d0 93 0e 93 3d 17 d9 01 3f b6 d4 81 3c 21 5c 4c 3e
       0.07180514 0.5072188 0.015848499 0.1995702
0000e0 ab 6b 53 3e 4e 32 69 3e 30 d5 ba bd 00 b2 be 3e
       0.20646541 0.22773096 -0.091226935 0.37245178
0000f0 39 34 20 3e b1 5b 67 bd d4 86 1a be dc cc 87 be
       0.15644921 -0.056483928 -0.15090495 -0.26523483

network.2.weight f4 [32, 64]
000000 e1 f1 1e 3d 93 c1 a3 bd 6d 74 bf 3c d5 d1 84 3d
       0.038804892 -0.07995906 0.023370946 0.06485335
000010 40 00 9d bd 72 5a be 3d 82 70 69 3c 41 56 f6 3d
       -0.07666063 0.09294595 0.014248015 0.120281704
000020 42 2b 8c 3d 26 be dd bd fe c6 ea 3d 9f 71 91 3d
       0.06844188 -0.108272836 0.11463736 0.0710175
000030 68 b7 4b 3d be 10 9e be 0e cc 44 bc 76 ba c0 3c
       0.049735457 -0.30872148 -0.012011541 0.023526412
000040 4d d8 26 3d 44 5d 90 3d 67 92 6f 3d 77 cc df 3d
       0.040733624 0.07049039 0.05848923 0.109276704
000050 80 c1 3f bd 07 9e e1 3d 9f 34 3c 3d 0a ee 90 bd
       -0.046815395 0.110164694 0.04594862 -0.07076652
000060 51 a8 83 bd 50 5f 54 bd 01 a1 99 3d 53 70 b3 bd
       -0.06428588 -0.05184871 0.07501412 -0.087616585
000070 c0 d4 de bd 4e 69 8f 3d 62 eb c4 3d 42 c1 18 3e
       -0.108804226 0.07002507 0.09615208 0.14917472
000080 38 da ac bd eb 58 d5 3a 07 bc e6 3c 2a 3f e6 3d
       -0.084400594 0.001627711 0.02816583 0.11242516
000090 d4 cd 1a 3e be 0b da 3d 88 14 1b be 8d db 26 3e
       0.1511758 0.10646771 -0.15144551 0.1629469
0000a0 1c 2c a5 bd ae 67 63 bc 51 06 e8 3d 85 fb f5 bd
       -0.08065054 -0.0138797 0.1132933 -0.12010864
0000b0 c2 85 86 bd 48 ee 45 3e 1c 8c 21 3d ba da 34 3d
       -0.06568481 0.19329178 0.03944026 0.044153906
0000c0 62 9b a7 bc f2 d1 1b 3d 35 c8 d8 3d 88 65 63 bd
       -0.020459834 0.038042016 0.105850615 -0.05551675
0000d0 f2 b8 2b 3d 55 fa 9a 3c 4a 33 48 bd e3 09 19 3e
       0.041924424 0.018918196 -0.048877038 0.14945178
0000e0 7c 9f 14 bd 1d 0f 48 bc 57 9d 6d be 05 23 24 bc
       -0.03628491 -0.012210635 -0.23204552 -0.010018115
0000f0 aa 2b a0 bd b5 89 c9 3d 70 06 08 3d 12 c5 ef bd
       -0.07820828 0.09840719 0.033209264 -0.1170751
000100 97 af b0 3d df 80 14 3e 25 96 50 3e 65 f8 12 3e
       0.08627241 0.14502285 0.20369776 0.14352567
000110 4a 43 84 bd 16 57 1d bd 61 aa d0 bb cd aa bf bc
       -0.06458147 -0.03841313 -0.006367967 -0.023396874
000120 7d aa b7 bd 12 b1 30 3b f0 8b 4b 3c 56 ef 49 bd
       -0.08968065 0.002696101 0.0124235 -0.049300514
000130 80 f5 8d 3c 78 0d 61 3d aa 7b 8b 3d 0c b5 ba 3d
       0.017328978 0.054944485 0.068106964 0.09116563
000140 a6 4a 9e bd 20 d8 fd bd 90 8c c0 3d 70 7b 84 3d
       -0.07729082 -0.12394738 0.0940181 0.06468856
000150 d2 32 82 bd ad 87 85 3e c2 28 7a bd 15 f8 87 3d
       -0.063573495 0.26080075 -0.061074026 0.06639115
000160 53 19 1f 3d ac 9b d7 bd 8f 31 5e 3e c2 a7 01 be
       0.03884251 -0.10527739 0.21698593 -0.12661651
000170 e8 d3 8d bd 50 b7 aa bc 5c 73 11 bd ad 0d 35 3e
       -0.069251835 -0.020839363 -0.035510406 0.17680998
000180 84 8e 0f bd 75 7e 4d 3d b7 a8 b5 bd ff c5 b8 3d
       -0.035048023 0.050169427 -0.088700704 0.0902214
000190 42 18 87 bd 84 78 28 3d 74 70 86 3e 28 c3 e7 3a
       -0.06596424 0.041130558 0.2625767 0.0017682062
0001a0 aa 8a dd 3d 76 cc a8 bd 67 d2 88 bd e4 da 77 3e
       0.10817464 -0.08242123 -0.06680756 0.24204594
0001b0 a1 6e f2 3d 58 25 6c 3e 16 83 8c 3d b1 96 88 3b
       0.11837507 0.2306112 0.0686094 0.0041683544
0001c0 38 27 60 3d 95 49 1e 3e e9 3c 2e bd 75 1f a6 3d
       0.054724902 0.15457757 -0.042538557 0.08111469
0001d0 d1 14 a9 3d e5 4b 8d 3e 20 8c 33 bd 0b 39 0b bd
       0.082559235 0.27596965 -0.043834805 -0.033989947
0001e0 e9 3f a9 bc ba e8 d5 3b ca ff e2 3d d4 34 f3 3b
       -0.020660358 0.0065279873 0.11083944 0.007422069
0001f0 4a 9a 05 3d 70 85 2b 3b e8 a6 9a 3d 80 77 c2 bb
       0.032617845 0.0026172064 0.07551366 -0.0059346557
000200 ee 68 d6 bd 3a bb c2 bd 25 2e e2 bd f8 34 6d 3d
       -0.104692325 -0.09508367 -0.110439576 0.057911843
000210 9e 7e db bd e7 b2 da bc 03 00 96 3a 2a 85 73 bc
       -0.1071751 -0.026696635 0.0011444095 -0.014863292
000220 f5 ea 43 bb ab 7f 0a be 90 2b b7 bd 2b eb 36 bd
       -0.0029894684 -0.13525264 -0.08943856 -0.044657867
000230 50 de 1a bd 2a 21 ce bd 13 55 e0 3b d0 c1 1a bd
       -0.03780967 -0.10064919 0.006846079 -0.03778249
000240 a0 6e e8 3d 1a b3 ea 3d ba 5c 80 3c cc 33 8e bd
       0.11349225 0.11459942 0.015669215 -0.06943473
000250 f8 b6 ef bd 1e c9 43 3d ee 02 b0 bd dc 1c 82 3d
       -0.117048204 0.047799222 -0.08594309 0.06353161
000260 b5 5f 17 3e b3 1b 04 3d df 01 a5 3d 39 81 06 3e
       0.14782603 0.03225298 0.080569975 0.13135232
000270 58 d2 d8 3c f0 87 ba bd 45 ff 01 3e 05 2a a8 bd
       0.026467487 -0.09107959 0.12695034 -0.082111396
000280 18 03 49 bd 85 5b 2e 3e cd 26 92 3d b7 4c 94 3c
       -0.049075216 0.170271 0.07136307 0.018102987
000290 a6 3c ab bc 3d 58 47 bd 4d ca e1 bc a1 3a 17 3e
       -0.020902943 -0.048668135 -0.027562285 0.14768459
0002a0 a4 62 02 3d 8b a3 33 3d 68 07 93 bc d5 82 7f bd
       0.031832352 0.04385714 -0.017947868 -0.06238063
0002b0 91 5e c6 3d e7 ef ac 3b 08 8c a6 3d 8d 35 e9 bc
       0.09686006 0.005277622 0.081321776 -0.028467918
0002c0 b7 aa 33 3d 5a de 38 3d 83 76 7c 3c 5d 39 98 3d
       0.04386398 0.045133926 0.015409115 0.07432816
0002d0 c6 ef 66 3d dc 06 ad 3d b2 8a 86 3d bc a5 5b bd
       0.05638101 0.08448574 0.06569423 -0.053624853
0002e0 60 81 a4 bd 9d 40 e8 3c 25 b7 f0 bc 53 db 29 bc
       -0.08032489 0.028351123 -0.029384205 -0.010367232
0002f0 13 2b 10 3d e5 17 39 bd 06 c9 ba 3d 8c 9c 1f 3d
       0.03519733 -0.045188803 0.091203734 0.038967654
000300 74 6d fa bc 32 0f 72 bd 10 93 fd bc 34 e3 6c bd
       -0.03056977 -0.059096523 -0.030953914 -0.057833865
000310 b4 d9 d6 3d d8 a9 67 3d ee d4 d4 3d 00 4c d1 39
       0.10490742 0.05655846 0.103921756 0.0003992021
000320 00 11 83 3c ac dc 11 3d 4e 51 f2 bd 20 e1 36 3c
       0.015999317 0.03561084 -0.11831914 0.011162072
000330 a0 fd 08 bc 06 87 8f bd 25 e7 d9 bd ce 38 d8 3d
       -0.00836125 -0.070081756 -0.106397904 0.1055771
000340 eb e9 e8 3d c4 4b 6d 3d ee 9d e0 3d 23 ec 73 bd
       0.11372741 0.057933584 0.10967623 -0.05955137
000350 38 de b0 bc 12 c7 25 3d 7f 23 fb bc 11 fc 08 bd
       -0.021590337 0.04047305 -0.030656574 -0.033443514
000360 6c ee d1 bd 3d 98 e4 3c 41 4f af bd 1c ba 82 3c
       -0.102505535 0.027904624 -0.08560038 0.015957884
000370 00 98 f9 3d f8 99 1d bd d0 60 21 bd ce 9d 8c 3d
       0.12187195 -0.038476914 -0.03939897 0.06866036
000380 0c 3d 3c bd 75 05 ac ba bf 73 e1 3d 79 f3 7c bd
       -0.045956656 -0.0013124185 0.11008405 -0.06175563
000390 6a 0e c4 bd 7d 8d 83 bd 24 f3 0d bd 80 f1 72 bd
       -0.09573062 -0.06423471 -0.034655705 -0.059312344
0003a0 b6 d8 84 bd 82 1d 77 3d ae 27 b8 3c 1c df 23 bd
       -0.06486647 0.060330875 0.022479858 -0.040007696
0003b0 14 eb a9 bd df 18 e5 bc 84 15 58 bd 50 9d 26 bd
       -0.08296791 -0.027965961 -0.052754894 -0.04067737
0003c0 a5 3c f7 bd fc 11 97 3c 37 98 b4 bd 2f 17 d9 bd
       -0.12072114 0.018441193 -0.08818095 -0.10600125
0003d0 84 71 dd bd 05 84 7a 3d c2 e8 ab bd 56 11 6d bd
       -0.10812667 0.06116106 -0.083940044 -0.05787786
0003e0 c8 a9 c8 3d 04 5b a1 3d f3 de 8e 3d 86 35 df bd
       0.09798008 0.07878688 0.06976118 -0.10898881
0003f0 aa 1a ad bd 3e e6 63 bd 22 7b d3 3d e0 82 51 3c
       -0.084523514 -0.055639498 0.1032622 0.012787551

network.2.bias f4 [32]
000000 c9 2e 37 3e 88 4f 12 3e 44 2a 89 3d d9 67 41 bd
       0.17888941 0.14288151 0.06697515 -0.047218177
000010 24 cf 25 3e 59 94 8e 3e b2 60 7b 3d 28 e7 22 bd
       0.16192299 0.27847555 0.061371513 -0.03977123
000020 ae 16 15 3e 6e 8c 96 3d 0c 29 c4 bd 4f a3 5c 3e
       0.14559433 0.073510036 -0.095781416 0.21546672
000030 ad 97 b8 bc 56 43 d1 bd 39 09 e1 bd 6d ea 63 3c
       -0.022533262 -0.102179214 -0.10988087 0.013910872
000040 7f 1b e4 bd e8 a2 0b 3d 67 60 a6 bd 8d 7c ae 3c
       -0.11138057 0.034090906 -0.08123856 0.021299625
000050 b2 54 fb bd 24 90 cb bd a9 2d 9d 3d d4 73 52 3d
       -0.12272014 -0.09939602 0.076747246 0.051379994
000060 7f d4 7f bd 53 94 d3 3d f5 5d ba bd df 0d ff bd
       -0.06245851 0.10331025 -0.09099952 -0.124538176
000070 4e dc 0a bd 2f 74 a6 bd 42 92 c7 3d e0 5f ce bd
       -0.033901505 -0.08127629 0.09744693 -0.100768805

network.4.weight f4 [4, 32]
000000 55 13 3a 3d b7 02 08 3e 5e 56 2a be d6 69 06 3e
       0.045428593 0.13282286 -0.16634509 0.1312631
000010 e9 b3 87 3c b3 7c 1c 3e c2 1c cd bd f2 bb 81 bd
       0.01656528 0.15281944 -0.10015251 -0.06334676
000020 c9 7a 85 3c 61 1f 03 be 37 6c 77 3d 80 17 47 3e
       0.0162939 -0.12804939 0.060405936 0.19442558
000030 e8 f0 86 3e 52 01 cd 3d 13 06 23 3e 74 22 07 3d
       0.26355672 0.100100175 0.15920286 0.03299184
000040 7f 03 34 3e d2 59 98 3e da 2c 11 3e c5 62 9b bd
       0.17579459 0.29756027 0.14177266 -0.07587198
000050 ea 5b 22 bd 35 c4 27 be 29 9b 0b 3e c3 45 90 bc
       -0.039638437 -0.16383441 0.13633408 -0.01761139
000060 dd f5 16 3e 46 af 05 3e d7 c5 d7 bb 0a e7 97 bd
       0.14742227 0.13055143 -0.0065848636 -0.07417114
000070 f0 e3 af bd 78 f6 1c 3d b0 0e ab 3c 90 9f 01 bc
       -0.085883975 0.03832099 0.020881027 -0.007911578
000080 f4 e9 a9 3d cc 63 45 be 4f e8 ac bd 24 98 12 3e
       0.08296576 -0.1927635 -0.08442747 0.1431585
000090 14 cf ab 3d a8 54 34 bf 12 1b 4e 3d 29 2f a9 3d
       0.083891064 -0.70441675 0.050318785 0.08260948
0000a0 33 36 a3 be ab 4b ae 3c 10 6e 25 3d 64 3f 92 bd
       -0.31877288 0.021276316 0.040388167 -0.07140997
0000b0 1c 93 59 3e d5 2c ff bd 57 5d cf 3d 34 5b 88 bd
       0.21247524 -0.12459723 0.10125225 -0.066580206
0000c0 58 c8 ef bc 41 f9 5e 3e 74 e1 99 bd a0 47 90 bc
       -0.029270336 0.2177477 -0.07513705 -0.017612278
0000d0 a2 65 be 3d bb 92 e9 bd cd c1 96 be b7 71 03 be
       0.09296729 -0.1140494 -0.29444733 -0.12836348
0000e0 a9 af 17 3e a9 f7 7e bd 59 36 08 3e de 03 21 3d
       0.14813103 -0.062247906 0.13301982 0.03931033
0000f0 84 0f 8c 3d 62 45 d1 bd 31 b7 07 3e a4 04 13 be
       0.06838897 -0.10218312 0.13253476 -0.14357239
000100 1a a6 d0 3d 90 39 28 3e 49 56 0a be 6d 8f 0a 3d
       0.10187931 0.16428208 -0.13509478 0.033828188
000110 df 31 9f bd 82 4d 94 3e 4a 8e 7f 3d 66 53 95 3d
       -0.07773184 0.28965384 0.062391557 0.072912976
000120 e9 37 ab 3d c2 66 dd bd 59 93 e2 bd 8e c3 ff bb
       0.083602734 -0.10810615 -0.110632606 -0.0078052944
000130 99 fb 79 bd 07 c0 03 be cd c8 2c 3e 70 cc 7c 3c
       -0.061030958 -0.12866221 0.16873474 0.015429601
000140 a9 ec 5c be 88 1e 49 3c f3 53 ba 3d 04 94 98 bd
       -0.21574654 0.012275346 0.09098043 -0.07450107
000150 cd 8a b5 3d d1 8c e0 bd cc 29 8e 3d c4 da 64 3e
       0.08864365 -0.109643586 0.06941566 0.22349077
000160 bf b1 e2 3d 28 ac 0f 3d a6 c0 e0 bc e7 7a 31 3d
       0.110690586 0.03507629 -0.027435612 0.0433301
000170 db 78 33 3d 92 05 5f 3d e8 d9 4b bd 17 04 8b 3d
       0.04381643 0.05444867 -0.04976836 0.067878895
000180 c0 55 1e be 99 4a c8 bd 31 7e 24 be 2a 7c 0e be
       -0.15462399 -0.097798534 -0.16063763 -0.13914552
000190 54 05 64 be cf 97 3e 3e d2 6f 03 3d 24 1e 17 be
       -0.22267658 0.18612598 0.032089062 -0.14757591
0001a0 ac 66 80 bd f6 8e 51 3a 8c b8 58 bd 6a 06 1a be
       -0.06269583 0.000799402 -0.052910373 -0.1504151
0001b0 dc 7a 33 be 05 67 16 bd f2 f6 d2 3c 12 53 18 3c
       -0.17527336 -0.03671934 0.025752518 0.009297149
0001c0 43 3d fb b9 c3 60 34 bd f5 0f 0d 3e d4 52 2b bd
       -0.00047920094 -0.04403759 0.13775618 -0.041827038
0001d0 4c a8 a1 bd 4d e4 08 bd dd 87 e2 bd f5 a8 16 3e
       -0.07893428 -0.03342085 -0.1106107 0.1471289
0001e0 63 0c 7b bc bc 40 64 bd 5e bc 10 be 63 aa 59 3d
       -0.015322777 -0.055725798 -0.14134356 0.05314101
0001f0 c1 cc 8c 3d 3a 19 18 3e 91 9f fa bd b8 51 24 3e
       0.06874991 0.14853373 -0.12237466 0.16046798

network.4.bias f4 [4]
000000 5f 22 1f 3d be ad 03 be ff 6e 69 bd 16 90 df 3c
       0.03885114 -0.12859246 -0.05699062 0.027290385

player_encoder.0.weight f4 [64, 6]
000000 f4 88 a3 be bd 48 9e 3e 1e be 2c 3e bb 5e b3 3e
       -0.31940424 0.3091487 0.16869399 0.3503321
000010 bd 80 57 3e fd 49 af 3e ca 4b 34 3e 5d e6 58 3e
       0.21045204 0.34236136 0.17607036 0.21181627
000020 ac 67 31 be a3 ae 5d be 61 2c 99 bd 06 16 68 3e
       -0.17324704 -0.2164865 -0.07479168 0.22664651
000030 2b 61 54 3e a3 01 a2 3e 25 f8 1c be 56 f3 43 be
       0.20740192 0.31641874 -0.15329035 -0.19135794
000040 89 de 23 be 07 f9 d8 3e 52 01 9a be 80 87 fa bd
       -0.16002859 0.42377493 -0.30079132 -0.12232876
000050 1a d3 c1 3e 88 bf 68 3e 8b 00 f6 bd 58 87 8c be
       0.3785637 0.22729313 -0.12011822 -0.2744701
000060 f3 fe a4 be 78 cb 91 3e da 3e e9 be 93 38 c7 3e
       -0.3222576 0.28475547 -0.45555764 0.3891035
000070 fe 22 81 3e b2 7e 63 3d 9b 83 3f 3d ac 3c ac 3e
       0.2522201 0.055540748 0.046756368 0.3364004
000080 9e 3c 36 3e 60 5a fa 3e 77 72 92 3e b5 e4 c4 be
       0.17796561 0.48897076 0.28602955 -0.3845574
000090 d5 7c 88 3e 24 c0 4c 3e 34 b1 93 be af 6f 45 3e
       0.2665774 0.19995171 -0.28846133 0.19280885
0000a0 ae c6 5f be 30 12 7e be a2 fa 85 3c 89 52 ea bd
       -0.21853134 -0.24811625 0.016354863 -0.114415236
0000b0 6b d2 36 be ce 29 ad be 0f df 13 3e 53 92 b6 3e
       -0.17853706 -0.33820957 0.14440559 0.35658512
0000c0 bf 19 0a be 25 a9 41 be 03 e0 84 3d e6 9a 89 be
       -0.13486384 -0.1891218 0.06488039 -0.2687599
0000d0 a7 79 7b be f8 08 4d bd c6 a2 bf 3e d9 c8 a7 be
       -0.24558125 -0.05005738 0.37428874 -0.32770422
0000e0 5c 05 8e 3d c1 62 c6 bd ad 81 fa be 84 14 56 be
       0.06934616 -0.096868046 -0.4892706 -0.20906264
0000f0 20 8c 1e bc 99 db 24 bd 34 73 a7 3e c8 3b 93 3e
       -0.009676963 -0.040248487 0.3270508 0.28756547
000100 c5 15 6d 3e 18 de 9f 3d 0c 71 52 3d 88 79 4c 3e
       0.23152836 0.07806033 0.05137734 0.19968235
000110 24 ef 8f be 1c 59 3f 3e 3b 30 31 3e 53 48 46 be
       -0.28112137 0.18686336 0.17303555 -0.19363527
000120 05 01 6f 3d 3a 0e d1 be 49 d5 e9 be cf a2 cc bd
       0.05835058 -0.40831167 -0.45670536 -0.09991991
000130 10 16 d8 bc db 09 40 be 03 cb 97 3e fe 4d d4 be
       -0.026377708 -0.1875376 0.29647073 -0.41465753
000140 24 02 0b be ce 22 b8 3e ad 4c 2f bf 4e 3d 49 be
       -0.13575035 0.35964054 -0.6847637 -0.19652292
000150 f4 9c b9 3e c9 05 9a 3e 9f 30 26 3e c1 4e ae be
       0.36252558 0.3008254 0.16229485 -0.3404446
000160 6f 5d 34 3c 18 79 85 be a6 f4 e8 bd 5e a2 9f 3e
       0.011008604 -0.2606895 -0.11374788 0.31178564
000170 14 22 0f be 53 d1 92 be 17 45 a7 be 4e 74 83 3e
       -0.13977844 -0.28675327 -0.326699 0.2567467
000180 d0 3b 0d be 35 de d7 3e 94 5b 9e 3d 6c a6 84 be
       -0.13792348 0.42161718 0.07732311 -0.2590822
000190 14 20 9e 3d 40 6c 00 3f 67 fc 86 3e 21 15 ec 3d
       0.07720962 0.50165176 0.26364443 0.115274675
0001a0 44 be a0 be 83 0a 81 be d1 39 8a 3e 0f 78 8f be
       -0.3139516 -0.25203332 0.26997235 -0.28021285
0001b0 23 d6 b1 bd 3c b2 df 3d 90 9e 5f 3e 8b 06 d8 3d
       -0.086834215 0.109226674 0.2183783 0.10548123
0001c0 86 6f 53 be 7e ae f3 be b8 70 6e 3e 4a 1c 2a 3e
       -0.20648012 -0.47594064 0.23285186 0.16612354
0001d0 1f 1f b6 3e 4a c8 49 be ba 65 fe 3e e8 94 81 bd
       0.3557062 -0.1970531 0.49686986 -0.0632723
0001e0 a0 49 05 be 6b c8 d9 3c 58 7e 3f be 1d df 42 be
       -0.13016367 0.026584825 -0.1870054 -0.19030423
0001f0 ab 43 74 bd 52 8e b8 bd d6 8f ae be 3f fb ff 3d
       -0.059634846 -0.090115204 -0.34094113 0.12499093
000200 9b 1d ef be f9 be 92 3e a7 60 90 3e 67 89 51 3e
       -0.46702275 0.28661326 0.2819874 0.20462571
000210 7e d1 18 be 01 3c c4 be 0d 13 42 3e 0e 67 02 3f
       -0.14923665 -0.3832703 0.1895258 0.509385
000220 7a e3 89 3e 83 d6 16 3e 7b 80 cf 3d f9 64 e2 3e
       0.26931363 0.14730267 0.101319276 0.4421766
000230 76 52 f9 3d f9 c4 21 3d f0 e3 c4 be d8 a3 a9 3e
       0.12173931 0.03949449 -0.38455153 0.33132815
000240 f1 d4 eb 3d 1f 3e a6 3e 68 4d 92 be e3 fa cc 3d
       0.11515225 0.3246927 -0.2857468 0.1000879
000250 f1 36 05 be e5 93 91 bd 45 f3 4b 3e 2c 1f c9 be
       -0.1300924 -0.07108287 0.19917019 -0.39281595
000260 27 78 9c 3e 3b ba c8 3e 48 7f 9b be a0 83 ad 3e
       0.3056042 0.39204583 -0.30370545 0.33889484
000270 8d 1f c5 bd a8 3e f8 3c 59 ee ec bd c8 27 cb be
       -0.096251585 0.030303314 -0.11568899 -0.39678788
000280 76 d5 12 bd ef 61 45 3e b9 47 64 bb ce af 8f be
       -0.035848103 0.1927564 -0.003483279 -0.28063816
000290 30 88 88 bd 9a 29 a7 bb f5 28 46 be 77 da ca be
       -0.06666601 -0.005101395 -0.19351561 -0.396198
0002a0 61 eb 39 be 14 84 34 bd 46 f6 4a 3e 4a 18 12 3f
       -0.18156196 -0.044071272 0.19820508 0.5706831
0002b0 83 a7 03 bd 3a fc 1a 3e d4 20 86 3e 9a 32 44 be
       -0.032142173 0.1513528 0.2619692 -0.19159928
0002c0 dc 32 43 be e8 73 53 3e 35 c3 9b 3e b4 65 8c 3d
       -0.1906237 0.20649683 0.3042237 0.06855336
0002d0 3e eb 8d be 3c 08 fb 3d 86 af d3 be 51 9f 85 3e
       -0.27718538 0.1225743 -0.4134485 0.2609811
0002e0 1a b7 02 be e4 64 32 3d fb 14 d7 be ea 97 3e be
       -0.1276516 0.043553248 -0.42008194 -0.18612638
0002f0 b8 d3 07 3e d9 1b e2 3e 18 90 42 be 1b 68 f6 3e
       0.13264358 0.4416187 -0.1900028 0.481263
000300 55 89 f0 bc b4 9e ab be 7d 0f 88 be 67 26 82 bd
       -0.02936236 -0.33519518 -0.26574317 -0.06354981
000310 e8 64 25 be 6a 7c de 3d 0d 90 78 be 5b f3 b9 bd
       -0.16151774 0.10863574 -0.24273701 -0.090796195
000320 63 66 c7 be dc af b1 3e be f4 51 bd 17 63 97 be
       -0.38945302 0.34704483 -0.051258795 -0.29567787
000330 4d 7f 97 bb e2 66 00 bd c2 12 af 3d 34 4c 96 bd
       -0.0046233297 -0.031348117 0.085485 -0.07338753
000340 53 56 6a 3e a0 8f 29 be 72 53 0e be 2a 0f e8 bd
       0.22884493 -0.16558695 -0.1389902 -0.11331017
000350 02 0e cf 3d 5d fb 0b 3f b8 ee d3 bd b9 d6 dc 3e
       0.10110094 0.54680425 -0.10348266 0.4313257
000360 84 f5 ad 3e 76 0f 48 be 87 10 ca bc 0d c7 37 be
       0.33976376 -0.19537148 -0.024666084 -0.17947026
000370 bd dc 72 3e d3 7e 98 bd 44 7b 15 3e 70 c0 51 bc
       0.23717017 -0.07446065 0.14597803 -0.012802228
000380 64 41 9c be 61 90 9f be f1 32 df be 09 f7 87 be
       -0.3051864 -0.3116484 -0.43593553 -0.2655566
000390 8c 78 81 3e 6d 7d 91 38 d5 85 b5 3e 3b 42 a1 be
       0.25287282 6.937501e-05 0.35453668 -0.31495842
0003a0 0d 4a fd bd 97 1f 0e bf 5e 91 ea 3c 39 23 56 3d
       -0.1236764 -0.5551695 0.02863377 0.052279685
0003b0 ae 3a d8 be b1 a2 f9 3e 03 a8 8d be dd 3f d2 3e
       -0.4223227 0.48756936 -0.27667245 0.4106435
0003c0 ec 01 e0 bd 0c ee 30 3e 90 d4 a7 3e 34 b6 23 bc
       -0.109378666 0.17278308 0.3277936 -0.009992171
0003d0 63 03 4e be c5 65 8d 3e be b7 db be c0 80 9a 3e
       -0.2011848 0.27616706 -0.42913622 0.30176353
0003e0 f4 00 6f be d3 d8 bd 3e 72 03 39 be 3e a1 23 bf
       -0.23340207 0.37079486 -0.1806772 -0.6391791
0003f0 a6 91 4f 3e 34 3d 10 be 2d ad bc 3e b0 0c c0 3e
       0.20270404 -0.14085847 0.36850873 0.3750968

player_encoder.0.bias f4 [64]
000000 da 3c bc be 6f a1 9f be 2b 8a 0a 3e ef b7 7e be
       -0.36765176 -0.31177852 0.1352927 -0.24874853
000010 b3 2b a1 be 36 45 b4 bd 44 f8 73 be 7d c5 8a bd
       -0.31478652 -0.088022634 -0.23825175 -0.06775949
000020 6e 0f 0d be c0 4a 8e 3e a6 83 81 3e 88 36 88 be
       -0.13775417 0.27791405 0.25295752 -0.26604104
000030 63 37 a5 3e cd 5a 2d 3e ca 95 58 be 88 a0 3e be
       0.3226882 0.16929169 -0.2115089 -0.18615925
000040 2e 4c b4 bd 6f e7 bc 3d 79 2a 05 bd 1f 6d 6d 3d
       -0.088035926 0.0922383 -0.03251121 0.057965394
000050 82 4e 3e 3e 3a 4c 02 be 69 ef 12 bf e1 86 3d be
       0.18584636 -0.1272439 -0.5739656 -0.18508483
000060 b5 99 22 be 3b e8 a4 be 35 7b 6e be fd cf 80 be
       -0.15878947 -0.32208428 -0.23289187 -0.25158682
000070 c5 4f a6 3e ef f7 cd be b6 ec 4b 3e 0a 6d 02 bf
       0.32482734 -0.4022822 0.19914517 -0.5094763
000080 d4 49 25 bc 7f 27 47 be 9b 6b 79 be 0c a6 a3 bc
       -0.010088403 -0.1944866 -0.24357454 -0.019976638
000090 d0 dd 59 3e 2f 88 6c be 2e a1 f4 bd a5 10 bd 3c
       0.21276021 -0.23098825 -0.11944805 0.023079226
0000a0 36 c0 86 be 41 75 c6 3d 72 c7 28 3e 27 e9 2c be
       -0.2631852 0.09690333 0.16482332 -0.16885816
0000b0 f3 b2 a7 be 5b bc 54 3e 2a 91 5f be 8f c2 a5 be
       -0.32753715 0.20774977 -0.2183272 -0.32375
0000c0 81 10 8d be 5a a2 92 be cf c5 9c 3e b6 26 c2 3d
       -0.27551654 -0.2863949 0.30619666 0.0948004
0000d0 40 2e a5 bc 51 60 aa 3d 9e 25 d8 be cc a8 82 3e
       -0.020163655 0.08319152 -0.422162 0.25519407
0000e0 b1 36 e9 bd f8 50 6b bd f4 99 50 3e d2 b4 24 be
       -0.11387385 -0.057450265 0.20371228 -0.16084602
0000f0 ad c6 fd ba 0a c2 00 bf 08 96 d3 3d 8d bd 5e 3e
       -0.0019361578 -0.5029608 0.103313506 0.21751995

player_encoder.2.weight f4 [32, 64]
000000 e5 b4 ec bd 12 e2 8e 3d cc bc 91 3b 79 94 a0 bd
       -0.115579404 0.06976713 0.004447555 -0.07840819
000010 f3 ee c4 3d a7 30 1e 3d 43 70 2d 3d a9 74 77 bd
       0.096158884 0.038620617 0.04234339 -0.06041399
000020 ba 5e 8c bd e6 71 9a bd af 79 fb 3c 73 df d1 3c
       -0.06854005 -0.07541256 0.030697672 0.025619244
000030 26 37 99 bd 2c 18 b5 3d 82 cf 92 3d 25 c7 76 bd
       -0.07481222 0.08842501 0.07168485 -0.060248513
000040 45 7b 59 3d 34 09 59 bd 5f 8a d0 3c 27 7e b9 3d
       0.053096075 -0.052987292 0.025456605 0.09057265
000050 39 41 fc bd b3 10 99 bd bc cf a9 bc 9e 15 06 3b
       -0.12317128 -0.07473888 -0.020728938 0.0020459662
000060 4d 8b dd bd 67 9e cd bd fa e6 8f bc 60 a3 93 bc
       -0.10817585 -0.100399785 -0.017566193 -0.01802224
000070 8b 56 12 3c dc c6 c5 3b f4 a8 79 3c 75 1c 95 bb
       0.008931766 0.006035669 0.0152380355 -0.0045505115
000080 30 64 6b 3c 80 6a ec bb d4 5c 1d 3d 5d 5a 8f 3d
       0.014367148 -0.007214844 0.038418606 0.06999657
000090 63 30 94 bd 02 9f 84 bd a2 c5 45 3d b6 fc cf bd
       -0.072357915 -0.06475641 0.04828418 -0.10155623
0000a0 6e 28 8e 3d fb 1a 37 3d c5 40 0d 3b b4 47 5e bd
       0.06941305 0.044703465 0.0021553498 -0.0542676
0000b0 60 81 d4 bc d4 e4 d9 bd fa 78 fa bd f4 74 ce 3d
       -0.025940597 -0.106393486 -0.12230106 0.10080901
0000c0 58 4f 01 be ce 53 e7 bd 11 8c 86 bd 72 4a 19 3c
       -0.12627923 -0.11295281 -0.06569684 0.009356128
0000d0 8d db 80 3c 2c 47 a8 bd 58 75 08 bd cb 88 4c bd
       0.01572969 -0.082167 -0.033315033 -0.049935143
0000e0 3d 22 c7 3d 3c 32 de 3d c7 78 fa 3c 9e 2f 5c bc
       0.09723327 0.10849425 0.03057517 -0.013439087
0000f0 ec de a3 3d f0 ba e4 bd b5 28 1c 3d 42 f4 b3 bd
       0.08001503 -0.11168468 0.03812476 -0.08786823
000100 0c cb ab 3d 06 4d e2 bd 41 bb 41 3d 67 60 d9 bd
       0.083883375 -0.11049847 0.04729772 -0.106140904
000110 09 ab 75 3d bb 2f 71 3c 6e a8 db 3d a9 0f a4 bd
       0.059977565 0.0147208525 0.10725485 -0.080107994
000120 90 c3 a4 3d 54 d8 aa bd 4a 93 a0 bd ea be 3c 3d
       0.08045113 -0.083420426 -0.07840593 0.046080507
000130 f0 5c ac bc d8 1e ca bd 3d da ce bd 94 ed 04 bd
       -0.02104041 -0.09869164 -0.101002194 -0.032453135
000140 c4 f4 9d 3c da db e0 3d c7 5a b4 3d 08 6b 14 3b
       0.019281752 0.10979433 0.08806377 0.0022646803
000150 62 07 9d bd 97 25 fb bd ba 25 d1 3d d4 35 e5 bd
       -0.07667424 -0.12263029 0.10212274 -0.111919075
000160 61 27 d6 bc 1d a4 e7 bd 34 f3 b0 bd 38 b1 c6 3c
       -0.026141824 -0.11310599 -0.08640137 0.024254426
000170 e3 6b 2f bd 36 c7 5f 3c c4 a5 19 bc ca af 0e bc
       -0.0428275 0.013658335 -0.0093779005 -0.008708904
000180 68 e6 ca bc 80 64 9e bb cd 3d 61 3d 17 ec 9d 3d
       -0.02476807 -0.004833758 0.05499058 0.07711046
000190 c2 07 e6 3d b6 dc d0 bd 34 66 d8 bd 4f ef 15 bd
       0.112319484 -0.10198347 -0.10566369 -0.036605176
0001a0 c4 30 b8 bc 8b ee 82 3d c3 07 e8 3d f8 7a 03 3d
       -0.02248419 0.06393155 0.113296054 0.032099694
0001b0 fc 65 aa bd 50 41 81 bb b9 3a 94 3d a4 bb 07 3d
       -0.08320233 -0.0039445534 0.07237763 0.033137932
0001c0 27 8d cb bd 32 05 4c 3b ee b1 08 be ac 50 4e bd
       -0.09939032 0.0031131026 -0.13349125 -0.050369903
0001d0 41 f2 84 3d 56 14 84 bd 8e 2e 71 3d b6 40 e1 bd
       0.06491519 -0.06449191 0.05888229 -0.10998671
0001e0 d3 55 e4 3d 10 3a 74 3d 02 91 78 3d d8 d2 0b 3d
       0.11149182 0.059625685 0.060685165 0.034136623
0001f0 b1 e0 ec ba 82 a0 9b bd 69 28 9a bd 1c 31 b6 bd
       -0.0018072334 -0.07598974 -0.07527239 -0.088960856
000200 10 4d c5 3d 6c b4 31 bd 73 93 89 b9 4a a7 fa bd
       0.09633839 -0.043384954 -0.00026240534 -0.12238939
000210 b8 c3 d6 3c 1d 3b 4a bd 8e c1 cc bd cc bb 53 3c
       0.026216373 -0.04937278 -0.09997855 0.012923192
000220 b4 d4 eb bd c0 c7 49 bc 92 5a de bd 08 d2 94 3d
       -0.11515179 -0.0123156905 -0.10857119 0.07266623
000230 58 4e cb bd c8 3e a7 3c f8 77 65 3d 28 8c cc bd
       -0.09927052 0.020415679 0.056022614 -0.0998767
000240 23 7c 99 3d 68 7d d0 3d 5e ed 9c bd 65 43 e2 3b
       0.0749438 0.10180169 -0.07662462 0.0069050067
000250 b0 42 1b 3d 19 0a c5 3d 2a ad b9 3d 60 bc d6 bd
       0.037905395 0.096210666 0.090662315 -0.104851484
000260 eb 12 d9 bd 62 b7 e8 bd 14 b5 63 bd b0 b3 ce bc
       -0.105993114 -0.113631025 -0.05559261 -0.025232166
000270 bd 99 53 bd 25 a8 a0 3d 41 5b bf bd 49 8b d7 bd
       -0.051660288 0.07844571 -0.09343577 -0.105246134
000280 94 1e c8 bd 18 1b 97 bd 4f 9f eb 3d 1d 8e 14 3c
       -0.09771457 -0.073782146 0.11504995 0.009067086
000290 dd a2 ce bc 7c 77 16 bd 9a 13 c4 bd 3d 35 48 bd
       -0.025224144 -0.036735043 -0.09574051 -0.048878897
0002a0 5b 16 72 3d ea 11 a3 3d 92 3b ac 3d 20 ce 11 3c
       0.05910335 0.07962401 0.084098 0.008899242
0002b0 ee 8f 95 bd 48 22 97 bd df c1 e9 3d 9c a3 ed bd
       -0.07302843 -0.073795855 0.11413931 -0.11603472
0002c0 a1 74 b7 3c 4f 1c 8c bc 60 4f e7 3d 52 f4 95 3d
       0.02239448 -0.017103342 0.112944365 0.07321991
0002d0 33 bd 1e bd d7 f9 e2 bd 83 32 3c 3c 02 ec c1 bd
       -0.038754653 -0.110828094 0.011486652 -0.09468843
0002e0 59 2e a7 bc dc 31 00 3d 3a 30 5d 3d 60 79 0a bd
       -0.020407842 0.03129755 0.05400107 -0.03380716
0002f0 c8 b5 b6 bd 9e 96 e7 bd ba 98 fb bd 98 fb 30 3c
       -0.08921391 -0.11308025 -0.1228499 0.010802172
000300 c8 cf 9b bd 00 8c 94 3b dc 8f 72 bd da 7e c4 bd
       -0.076079905 0.004533291 -0.059219226 -0.095945075
000310 72 9e ac 3d fe df 90 3d 76 bf b3 3d ce 91 f5 3d
       0.084286585 0.07073973 0.08776753 0.11990701
000320 67 42 ee bd b9 69 bd bd 6c ba c0 bd ec e5 ab 3d
       -0.11633759 -0.092486806 -0.09410557 0.083934635
000330 52 73 43 3d dc 6d 9a 3d 8c 20 b3 bd 56 4a 89 bd
       0.0477174 0.07540485 -0.08746442 -0.067036316
000340 8e 91 f9 3d 9e 43 f5 bd fc c7 de bd 40 7e 3c 3d
       0.121859655 -0.119757876 -0.10877988 0.04601884
000350 6d de 09 be a8 c2 10 bd 5c 8d 59 3d 58 b9 d1 3d
       -0.13463755 -0.03534189 0.053113326 0.1024043
000360 e0 62 68 bc 49 69 0b be 3e eb 90 3d 5b 7c ca 3d
       -0.01418373 -0.13614382 0.07076119 0.09887
000370 d1 ed f0 bd 40 f5 b4 bb ae b9 e7 bd f2 b7 82 bd
       -0.1176411 -0.0055224 -0.113147125 -0.06382741
000380 1d f1 86 3c b1 cd 06 3d e0 b7 53 3d 54 1f f1 bd
       0.016472394 0.032911006 0.05168903 -0.117735535
000390 0b 25 66 bd bb e7 e1 3c 40 19 3e bc 38 49 1e bd
       -0.05618767 0.027576318 -0.0116027 -0.038644046
0003a0 d2 3c 84 bd 59 ec c1 3d 8a c8 00 be e0 a7 c9 bd
       -0.06456913 0.09468908 -0.125765 -0.09846473
0003b0 08 8d ba 3d 32 27 d0 bd 28 b2 9a 3d 32 1e 8d bd
       0.09108931 -0.10163726 0.07553512 -0.06890525
0003c0 38 86 8a bc 88 61 77 bd da 82 d3 3d f8 d3 78 3d
       -0.016909704 -0.060395747 0.10327692 0.060749024
0003d0 40 d1 c4 3b c0 6c 44 3b c8 39 41 bd f4 b3 bd bd
       0.00600639 0.0029972047 -0.047174245 -0.09262839
0003e0 e8 a9 41 bd ab aa 80 3c 2f ff 43 bd 64 c4 ad 3d
       -0.047281176 0.01570638 -0.047850784 0.08484724
0003f0 50 6f 93 3c 80 dc b4 3a f8 15 9f bd 28 6d d2 3c
       0.017997414 0.0013798624 -0.07767862 0.025686815

player_encoder.2.bias f4 [32]
000000 cb ae 4f 3d 09 4f 28 bb 20 0f ee 3d 2a 11 e9 bc
       0.050703805 -0.0025681874 0.116239786 -0.028450567
000010 eb c9 be 3c 42 12 f7 bd 94 fe 0e be e0 67 03 bc
       0.023289641 -0.12064029 -0.13964301 -0.008020371
000020 74 2d cf 3d 54 65 c5 bd fb 6c 3e 3c bc 25 cb bd
       0.10116091 -0.096384674 0.011622663 -0.09919307
000030 b1 5f e9 bd ce 3f 82 bd 12 ee 75 bb ea cf d3 bd
       -0.11395205 -0.06359826 -0.0037525934 -0.10342391
000040 66 8b 52 bd 88 e9 8b bc e4 16 4e 3d 45 83 1b 3d
       -0.051402472 -0.01707913 0.0503148 0.037966985
000050 bb e8 ae bd d9 24 39 bd c7 b2 10 bd 0e 37 e7 bd
       -0.085404836 -0.045201156 -0.035326745 -0.11289798
000060 98 3d 1f 3e ea b0 ae 3d ff 1a 11 be 80 68 36 be
       0.1555084 0.085298374 -0.14170454 -0.17813301
000070 38 f2 15 be 4f d3 26 bd b1 7a c9 3c 78 8f 67 be
       -0.1464318 -0.040728863 0.024594637 -0.22613323

context_encoder.0.weight f4 [32, 10]
000000 14 bd 27 3d 75 9c 64 bc 97 66 02 3e 63 87 66 be
       0.040951803 -0.013953318 0.12734447 -0.22512583
000010 38 37 7b 3e 9e e0 b4 3e f6 76 c1 3d 11 4b ab be
       0.24532783 0.3532762 0.09446518 -0.3345571
000020 1e 44 88 3e 92 10 1d 3e 24 4e 00 3e a7 63 b7 3e
       0.2661447 0.15338352 0.12529808 0.35818216
000030 b9 cd 06 bf ba 56 b6 3c 22 47 b3 3e 06 71 fa bd
       -0.5265766 0.022258151 0.35015208 -0.12228589
000040 ed 04 4b bd f0 76 c4 3d b2 e1 a6 bd ed 36 b1 3e
       -0.049565244 0.09592998 -0.08148517 0.34612218
000050 6f 96 47 3e af 31 93 be d1 0d 46 be df 37 87 bb
       0.1949098 -0.28748843 -0.19341208 -0.0041265334
000060 d2 93 d2 bd 01 54 32 be 22 26 9f be c1 d2 6e 3e
       -0.10282101 -0.17414857 -0.3108378 0.23322584
000070 0e 4d 35 3e 35 ea bb 3d 82 40 37 be 01 bd b7 be
       0.17705175 0.09175531 -0.17895702 -0.35886386
000080 4f 0c 7d 3e 10 92 c4 3d 9e 1e 02 be 6f 42 4e 3e
       0.24711727 0.09598172 -0.12706992 0.2014253
000090 ee 10 8d 3d 17 1c 30 be 8b 01 f9 3d 2c 6c f7 3d
       0.06887995 -0.17198215 0.121584974 0.12081179
0000a0 71 03 76 be cf fc b3 3d 54 28 93 be f1 b4 87 bd
       -0.2402475 0.08788454 -0.28741705 -0.06626309
0000b0 2b f9 d1 bd e6 be 6e 3e 77 34 a0 be 6f 15 d5 3d
       -0.10252603 0.2331501 -0.31290027 0.10404479
0000c0 55 c7 97 be 72 df 03 3e 21 7e 8c bd a5 ed 29 be
       -0.29644266 0.12878206 -0.06859995 -0.1659456
0000d0 84 6c e6 3e 00 11 aa 3e 1c c0 3c 3e 84 43 84 be
       0.45004666 0.33216095 0.18432659 -0.2583276
0000e0 74 cb 21 bd 96 09 8e 3d ad 21 bb 3d aa be d2 bb
       -0.03950067 0.06935422 0.091372825 -0.0064314203
0000f0 8f f9 89 3b f3 ae f8 bd aa a8 75 bd e6 08 71 3c
       0.004210658 -0.12142744 -0.059975304 0.014711594
000100 78 a4 50 3e 8a 7b db bd 3c 9a c2 bd f7 56 32 3d
       0.2037524 -0.107169226 -0.09502074 0.043539967
000110 fc 12 03 be c2 f7 6a 3e d1 38 b9 3e cc 12 27 3d
       -0.1280021 0.22946075 0.3617616 0.04078941
000120 d6 38 10 bf 3c 24 44 3d 03 7e 81 3e 08 63 ae 3d
       -0.56336725 0.04788612 0.25291452 0.085149825
000130 f8 1b 9d 3d 03 91 0a 3d 58 15 bc be 4d 61 e7 bd
       0.0767135 0.0338297 -0.36735034 -0.112978555
000140 5a 14 23 3b 88 28 8b 3e c6 4d 88 3d 2f 29 7e bd
       0.0024883957 0.2717936 0.06655459 -0.062050994
000150 24 80 85 bd 75 82 99 bd ce 2d 37 be 56 54 0f be
       -0.065185815 -0.07495586 -0.17888567 -0.13997015
000160 bb 6d 4c 3d 4c bb 55 3e 7b 48 b4 3e 11 76 cc 3d
       0.049909335 0.2087223 0.35211548 0.09983457
000170 01 ae fe be ed 2f 76 3e 9f 72 8e 3e f2 05 f7 bd
       -0.4974213 0.2404172 0.27821824 -0.12061681
000180 34 95 54 bd df e5 d9 3e 63 2c 32 be 9a 66 16 3e
       -0.051900104 0.4255819 -0.17399745 0.14687577
000190 52 77 9e bd b8 5c bc 3d 0e bd b6 3e 7e 2a 93 3e
       -0.07737602 0.09197372 0.35691112 0.28743356
0001a0 40 22 4c 3e 07 66 84 be f6 1a 2b 3e 21 a3 6d be
       0.1993494 -0.2585909 0.16709504 -0.2320676
0001b0 0e 32 41 be c9 da 36 bc 44 47 34 be 20 06 69 be
       -0.1886675 -0.011160561 -0.1760531 -0.22756243
0001c0 64 1c 1c 3d f4 dd 1d be df ed 0a 3d 6d 33 55 3e
       0.038113013 -0.154167 0.033918258 0.20820399
0001d0 55 6e 66 3e 73 59 04 be 03 66 ad 3e db e1 9d be
       0.22503026 -0.12924747 0.3386689 -0.30836377
0001e0 2b 19 c1 be 79 2b a6 3d 91 32 39 3d 17 65 9a 3e
       -0.37714514 0.081137605 0.04521424 0.3015525
0001f0 72 4c 54 3c 95 c0 e0 bd 78 ff 99 3e ac 01 e7 bd
       0.012957679 -0.10974232 0.3007772 -0.11279616
000200 60 b1 91 3e 46 4b 1e 3e c8 aa 6b bd c5 68 8f 3e
       0.2845564 0.15458402 -0.057535917 0.2800962
000210 e1 69 4e 3d 1e a1 f8 3c 59 45 d9 3d 9a 53 85 be
       0.050393943 0.030350264 0.1060893 -0.26040345
000220 85 63 47 be 10 fa 97 3e 56 ad 59 be 04 5a 1d 3e
       -0.19471557 0.2968297 -0.21257529 0.1536637
000230 79 7a 4b 3d c5 cf 89 be 99 48 90 3e ab cf 13 3d
       0.049677346 -0.26916328 0.28180388 0.03608672
000240 8f 1c 72 3e 0f 80 a7 bd a8 22 ac 3e 8f ee f5 be
       0.23643707 -0.08178722 0.3362019 -0.48033568
000250 da 12 3b 3e 62 5f 00 3e e7 88 1c be d2 1a 56 be
       0.1826891 0.12536386 -0.15286599 -0.20908669
000260 b7 3b 49 be 5e 1f fb bc 26 aa 8e bc 80 e9 71 be
       -0.19651686 -0.030654605 -0.017415117 -0.2362423
000270 b2 1a 13 3e 9c eb 8d bd 06 33 25 be 7d 77 37 3e
       0.14365652 -0.069297045 -0.16132745 0.17916675
000280 8b cb 50 3d 95 76 28 3e ea 6b 30 3e bd f5 53 be
       0.050975364 0.16451485 0.17228666 -0.2069921
000290 a5 70 83 bb ff 92 8c 3e 6f cf 4d be 75 ae 17 3d
       -0.004011231 0.274559 -0.20098661 0.03703161
0002a0 c5 f7 6a 3e d8 cf f5 3c aa c7 a8 bd 44 02 cd 3d
       0.22946079 0.030006334 -0.08241208 0.10010198
0002b0 e1 e8 80 be 08 ea 79 3e 2e 01 6d 3e 3f 1a 04 be
       -0.25177673 0.24405682 0.23144981 -0.12900637
0002c0 c9 b5 08 be 1c 05 92 bd 06 50 97 3e 8b 73 ff bd
       -0.13350596 -0.07129881 0.2955324 -0.1247321
0002d0 94 a4 3a bd 35 c1 b5 be 7a ed c5 3e e3 ed 52 3e
       -0.04556711 -0.35498968 0.38657743 0.20598559
0002e0 e2 54 80 3d e8 92 9f bc 48 d3 25 3d ae fe a3 3d
       0.0626619 -0.01947923 0.040484697 0.08007561
0002f0 e4 8b 1e 3e a4 5e 08 be c9 0b 82 be 4d 00 6c 3e
       0.15483052 -0.13317353 -0.25399616 0.2304699
000300 37 1e f1 bd 9d e4 49 3e d7 28 82 bd 71 fb ab 3b
       -0.11773341 0.19716115 -0.06355446 0.00524848
000310 ac 5f 7f be 89 b9 f6 bd 3c be d5 3c f3 77 9c be
       -0.2493884 -0.12047107 0.026091687 -0.30560264
000320 3c ce b5 bd 3e 8f 33 3e 39 2d 57 3e 8b ef 64 3e
       -0.08877227 0.17535111 0.21013345 0.22357003
000330 ef 25 c5 bd 38 9b 19 3c fa 41 8e be 03 86 0f 3e
       -0.09626376 0.009375386 -0.2778471 0.14015965
000340 b6 b4 02 3d 18 ab 75 3e 39 d2 3e bd 13 30 9c 3e
       0.03191062 0.23991048 -0.046587203 0.30505428
000350 68 26 2e 3e b7 0e 8b 3e 66 97 a8 bc 59 13 7e be
       0.17006838 0.27159664 -0.020580005 -0.24812068
000360 5b 48 7b be 9f 53 97 be bc eb 61 3d 87 06 7c be
       -0.2453932 -0.29555985 0.055156454 -0.24611865
000370 c9 eb 87 be 5d db fa 3d 7d 4e 1b 3f 92 d4 62 bd
       -0.26547077 0.122488715 0.6066664 -0.055378504
000380 5f 3b 5d 3e 02 81 84 bc 0c cf bf bc e3 d6 95 be
       0.2160468 -0.016174797 -0.023414157 -0.29265508
000390 0e 04 d4 bd 3c ce 7f 3d 59 5e e0 ba 45 c6 1d be
       -0.10352336 0.06245254 -0.0017117962 -0.15407665
0003a0 76 f7 4d 3e 60 a9 10 be 80 50 5b be c2 d2 e0 3d
       0.2011393 -0.14127111 -0.21417427 0.10977699
0003b0 93 13 9f bc 02 42 32 be cc 2b 84 be c0 09 c2 bd
       -0.019418513 -0.17407992 -0.25814664 -0.09474516
0003c0 7c 6d bd be dc 45 2d 3e 96 41 9b 3e 7f de 55 3e
       -0.36997592 0.1692118 0.30323476 0.20885657
0003d0 4d 0b 28 3e 35 23 86 3d ba 5a ef 3b 5c b2 c7 be
       0.16410561 0.06549684 0.0073045166 -0.39003265
0003e0 28 3c 02 3e 55 cf 9b be 8b ad 2d be d6 68 77 3e
       0.1271826 -0.3043162 -0.16960733 0.24161085
0003f0 c3 ab 92 bd 90 72 79 3e ec c1 34 3e 4a 05 88 bd
       -0.07161667 0.24360108 0.176521 -0.06641634

context_encoder.0.bias f4 [32]
000000 3e 16 a0 be 97 e6 92 3e 1d 97 37 be 0e 97 2f be
       -0.3126697 0.2869155 -0.17928739 -0.17147467
000010 f6 ed c5 3d 0a fa 34 3d 5d 4b 45 3e 36 fe 6b be
       0.09664528 0.04418377 0.1926703 -0.23046193
000020 15 e1 27 3e 2c 4e 0e 3e 41 33 16 3e 5b 7b da bd
       0.16394456 0.13897008 0.1466799 -0.106680594
000030 d0 ea ad 3c a7 41 b8 3d b0 99 98 3e f6 35 91 be
       0.021230131 0.08996897 0.29804754 -0.2836148
000040 5f 14 97 be 89 e0 9a be 84 a8 65 3c 0c 1b 76 be
       -0.2950773 -0.30249432 0.014017228 -0.24033755
000050 9a f8 a8 bd f5 b3 14 be 04 41 43 3d 71 76 65 be
       -0.08250542 -0.14521773 0.047669426 -0.22408463
000060 cf 29 59 3e b4 81 a6 be 14 68 31 be 8e ee bd 3c
       0.21207355 -0.3252083 -0.17324859 0.02318504
000070 bd 47 a7 be 8d bc c3 3d d3 56 10 be 56 8f 66 be
       -0.3267192 0.095574476 -0.14095621 -0.22515616
