hierarchical_agent_final.pth (torch, 112125 bytes, 50 tensors)

network.0.weight f4 [64, 10]
-0.047215257 -0.103406064 0.20841046 -0.07776012 0.3032605 -0.0025195975 0.054248266 0.13042885
0.021863464 -0.16162032 0.13017434 -0.040310152 -0.100126676 0.017711919 0.28743804 -0.11898568
0.07809657 -0.1106139 0.3110789 -0.09345152 0.38634107 -0.044577505 0.10551598 0.0015776464
0.1983407 -0.20972891 0.10453695 -0.17001168 0.09776927 -0.20636788 0.36762553 0.039416112
0.38500565 0.08974861 0.29149115 0.13545957 -0.187212 0.3383475 -0.08161012 -0.19704095
0.050396465 0.1656582 -0.055456094 -0.10258551 0.097791955 -0.0739643 -0.21493956 -0.012158313
-0.03932916 -0.30057037 0.24576108 -0.11999245 -0.29948628 -0.14594108 -0.28219023 0.018396705
-0.19368127 0.16744708 0.17259628 -0.044403285 0.049993422 0.15656753 0.12976916 0.21271001
-0.047556035 -0.12365475 -0.15812418 -0.008249643 -0.016079107 0.12464082 0.18584217 0.1770539
0.06981339 0.20135549 -0.1003907 0.09529187 0.3258578 -0.0034914978 0.3492031 0.3478317
-0.07314637 0.3078185 0.012365613 0.089298405 -0.28289002 0.17019558 -0.26082632 0.29927632
-0.026075609 0.17919901 0.2929441 0.13592288 0.33634987 -0.14735791 0.21037832 0.33446828
0.11649013 0.36197785 -0.221094 -0.020301566 -0.0004433201 -0.29073304 -0.050545953 0.29564926
-0.29804173 -0.17850277 -0.24297063 0.13289817 0.24115965 -0.31362563 0.07255308 0.12675798
0.16677062 0.23783553 0.107611194 0.11532276 0.20893238 -0.0665443 -0.23410974 0.14027637
-0.28909928 -0.12939642 -0.30606183 -0.048840504 -0.19643216 0.26813027 0.04888336 -0.21589202
-0.18555152 0.2500198 -0.14602049 0.3061848 0.24305844 0.10213488 -0.04533865 -0.10211615
0.22993697 -0.12529172 0.086794764 0.27821672 -0.11765432 0.079403564 -0.049153645 0.021918334
-0.09702011 0.24867551 -0.2690518 -0.067484744 0.31179923 0.20719047 0.5039188 0.2771615
-0.040561866 -0.28032717 -0.13407941 0.3297897 0.18327135 0.21079226 -0.1672566 0.1547963
0.09682229 0.23890859 0.1466642 -0.0021881303 0.06544082 -0.025567407 0.09985299 -0.12335214
-0.13761261 -0.27323416 0.061916657 -0.031690966 0.099172965 0.119220585 -0.3131736 -0.14198212
-0.016806075 0.23577628 0.034339584 -0.06802756 -0.06755994 -0.1565927 -0.096731424 -0.24513927
0.08062858 -0.06412821 0.13152833 -0.2851363 0.23119341 0.0135356635 -0.09195861 0.29524758
-0.10279214 -0.050810568 0.18211134 0.19559464 0.08368579 -0.026817549 -0.33408612 0.19411461
0.15399754 0.021182552 -0.11244747 -0.17163822 -0.019856185 0.20513663 -0.010750352 0.06788562
-0.2804066 -0.26119533 0.21917638 -0.18109633 -0.058988594 -0.15029517 0.10735723 0.14055455
0.12137897 0.39794043 0.24715343 0.077264205 -0.12984307 0.24184984 -0.087619506 0.26309144
-0.26449576 -0.28590736 -0.04958108 0.26523176 -0.06241905 -0.18456718 0.044875987 0.15585469
0.29887313 -0.31740636 0.21483111 -0.033587072 0.19924739 0.20016186 0.05708633 -0.05923061
0.10771758 -0.29858577 -0.30787218 0.064634636 -0.035448875 -0.13505808 0.036173854 0.16359079
0.23046044 0.08326775 0.05796912 -0.10416822 -0.2469432 0.20267972 -0.2753545 -0.040575605
00000000: c964 41bd 8fc6 d3bd 8d69 553e b340 9fbd
00000010: f644 9b3e d51f 25bb 6e33 5e3d 248f 053e
00000020: 021b b33c cc7f 25be 6c4c 053e 421c 25bd
00000030: 370f cdbd 9618 913c 142b 933e c4ae f3bd
00000040: 18f1 9f3d 8a89 e2bd bc45 9f3e 8363 bfbd
00000050: 7fce c53e e796 36bd c318 d83d 07c9 ce3a
00000060: d319 4b3e 2dc3 56be 7817 d63d 8b17 2ebe
00000070: 413b c83d 1a52 53be 6a39 bc3e ca72 213d
00000080: 761f c53e 1fce b73d 543e 953e eab5 0a3e
00000090: 81b4 3fbe e23b ad3e 3523 a7bd 1ac5 49be
000000a0: 866c 4e3d 4ea2 293e ee25 63bd 5a18 d2bd
000000b0: 2647 c83d 987a 97bd 1e19 5cbe a933 47bc
000000c0: 9d17 21bd 5ce4 99be cba8 7b3e 9abe f5bd
000000d0: 4456 99be 9471 15be 3d7b 90be b0b4 963c
000000e0: 6254 46be 3f77 2b3e 14bd 303e 38e0 35bd
000000f0: e7c5 4c3d 3d53 203e 35e2 043e a7d0 593e
00000100: 1eca 42bd b43e fdbd 4eeb 21be 8329 07bc
00000110: 55b8 83bc b043 ff3d 694d 3e3e 9e4d 353e
00000120: 53fa 8e3d 2230 4e3e a499 cdbd 6228 c33d
00000130: d5d6 a63e 9dd1 64bb c0ca b23e ff16 b23e
00000140: c4cd 95bd 639a 9d3e 2499 4a3c 15e2 b63d
00000150: f6d6 90be c047 2e3e 078b 85be bf3a 993e
00000160: 849c d5bc f27f 373e c5fc 953e 5e2f 0b3e
00000170: 0d36 ac3e fee4 16be 6a6d 573e 6d3f ab3e
00000180: 6192 ee3d 2955 b93e 7766 62be 784f a6bc
00000190: 6b6d e8b9 f6da 94be 4609 4fbd 575f 973e
000001a0: ed98 98be 6ec9 36be 4bcd 78be 7516 083e
000001b0: 8ef2 763e 8a93 a0be b696 943d d8cc 013e
000001c0: ebc5 2a3e 288b 733e 4263 dc3d 572e ec3d
000001d0: 5ff2 553e 6148 88bd 77ba 6fbe 9ca4 0f3e
000001e0: d204 94be 7f80 04be 23b4 9cbe fb0c 48bd
000001f0: 8325 49be 5f48 893e eb39 483d cc12 5dbe
00000200: 3801 3ebe 9802 803e 6586 15be 41c4 9c3e
00000210: 50e4 783e 182c d13d 05b5 39bd 4622 d1bd
00000220: 9974 6b3e 794c 00be 74c1 b13d 6c72 8e3e
00000230: c0f4 f0bd 569e a23d 5555 49bd 148e b33c
00000240: 7bb2 c6bd cba4 7e3e 28c1 89be 7135 8abd
00000250: 26a4 9f3e bd29 543e d300 013f 1de8 8d3e
00000260: 3324 26bd 0b87 8fbe 1d4c 09be 32da a83e
00000270: 7cab 3b3e edd9 573e 5045 2bbe ec82 1e3e
00000280: c44a c63d 74a4 743e 242f 163e bc66 0fbb
00000290: d605 863d bd72 d1bc b97f cc3d 0ca0 fcbd
000002a0: 52ea 0cbe 59e5 8bbe 529c 7d3d 63ce 01bd
000002b0: 321b cb3d ec29 f43d 4a58 a0be c363 11be
000002c0: e5ac 89bc 566f 713e aaa7 0c3d 0952 8bbd
000002d0: de5c 8abd d659 20be 201b c6bd ca05 7bbe
000002e0: 9920 a53d a755 83bd 5daf 063e 63fd 91be
000002f0: f7bd 6c3e b0c4 5d3c cc54 bcbd b12a 973e
00000300: af84 d2bd be1e 50bd 657b 3a3e f649 483e
00000310: 7563 ab3d 7ab0 dbbc 560d abbe fbc5 463e
00000320: 88b1 1d3e 0887 ad3c dc4a e6bd eec1 2fbe
00000330: 70a9 a2bc 560f 523e 3f22 30bc 9e07 8b3d
00000340: 7491 8fbe 65bb 85be c66f 603e 5171 39be
00000350: 069e 71bd fae6 19be 1bde db3d 88ed 0f3e
00000360: 8a95 f83d d9be cb3e ca15 7d3e b23c 9e3d
00000370: 95f5 04be 7ca7 773e db71 b3bd ecb3 863e
00000380: fd6b 87be 7362 92be 8815 4bbd 75cc 873e
00000390: 1eab 7fbd 2eff 3cbe e2cf 373d 5f98 1f3e
000003a0: e605 993e 1683 a2be b0fc 5b3e 9992 09bd
000003b0: 8207 4c3e 3bf7 4c3e 5bd3 693d cc9b 72bd
000003c0: 099b dc3d 3ce0 98be 6ca1 9dbe 2a5f 843d
000003d0: d732 11bd aa4c 0abe 092b 143d 5884 273e
000003e0: d2fd 6b3e 4888 aa3d 0771 6d3d 2656 d5bd
000003f0: aede 7cbe 468b 4f3e 44fb 8cbe 9b32 26bd

network.0.bias f4 [64]
-0.18804361 0.20236744 0.13186713 0.15367544 0.19943878 0.2823259 0.3238567 0.085272245
-0.30331683 0.32464954 -0.01241202 0.16379508 -0.22274347 0.24931689 0.055176124 -0.1599855
-0.18669191 0.33262977 -0.23035195 -0.32287824 -0.13904436 0.31643328 0.15139766 -0.10772331
-0.0610574 0.04797273 -0.21811865 0.09837849 0.38713658 -0.23080027 -0.0029610088 0.1435896
0.14201815 -0.122520365 -0.14232044 0.05508305 0.2107412 -0.25920492 -0.16902463 0.30254355
0.31951603 -0.05095424 0.27835417 -0.012554768 0.21750617 0.029580882 0.31385857 -0.0666862
0.22401765 -0.19036444 0.037896406 0.26889357 -0.15023178 0.31270048 -0.17696466 -0.12392131
-0.016673144 -0.15697998 -0.17896447 -0.18489398 0.1769764 -0.0051806 0.16638519 0.31595078
00000000: 818e 40be 6939 4f3e 2d08 073e 185d 1d3e
00000010: ae39 4c3e 058d 903e 8cd0 a53e 37a3 ae3d
00000020: 584c 9bbe 7738 a63e c95b 4bbc e6b9 273e
00000030: dd16 64be ed4c 7f3e 5c00 623d 3dd3 23be
00000040: 2a2c 3fbe 734e aa3e 62e1 6bbe 4c50 a5be
00000050: a561 0ebe 8b03 a23e fd07 1b3e 0a9e dcbd
00000060: 5317 7abd 0e7f 443d 7f5a 5fbe a97a c93d
00000070: c436 c63e e856 6cbe 7c0d 42bb 2709 133e
00000080: 356d 113e f5eb fabd 73bc 11be c49e 613d
00000090: 8bcc 573e 82b6 84be cb14 2dbe fde6 9a3e
000000a0: 9b97 a33e 65b5 50bd 7084 8e3e 83b2 4dbc
000000b0: f0b9 5e3e 9b53 f23c 12b2 a03e c692 88bd
000000c0: e264 653e e5ee 42be 4339 1b3d 6bac 893e
000000d0: 5cd6 19be 471a a03e 3936 35be 75ca fdbd
000000e0: 1e96 88bc 5cbf 20be 7642 37be d954 3dbe
000000f0: 4d39 353e 06c2 a9bb e160 2a3e 4dc4 a13e

network.2.weight f4 [32, 64]
0.16367997 -0.0032828816 0.05367153 0.11695452 -0.11642972 -0.11195504 0.037876803 0.05601684
0.0865203 0.03701857 -0.08292097 0.06646501 0.07253418 0.011468311 -0.08857867 0.12640399
-0.07052372 0.07364695 -0.09295359 -0.0068126866 -0.06285214 -0.005853412 -0.052300233 0.10159989
-0.028084045 0.06748943 -0.0325755 0.067032166 0.024183331 0.014621694 0.11610907 -0.030306816
0.039857507 -0.10179867 0.038535547 -0.06925011 0.020601178 -0.10695626 0.0499474 0.06298972
0.15928319 0.040978614 0.031158648 0.118972145 0.2034333 -0.016009975 0.17375672 0.061706677
0.11488621 0.14404371 0.116891764 0.18527123 -0.061938006 -0.07245106 0.028060606 0.110623166
0.19257493 0.13245673 0.0872193 0.123195834 0.24103825 -0.07990535 0.035128746 0.15732197
-0.17259265 -0.08474885 0.06190532 0.2541484 -0.0073705763 -0.085088335 0.2158824 0.022027513
-0.030265812 0.14136454 -0.015267849 0.09999188 0.10386719 0.025722442 -0.034912646 0.19456492
-0.062191967 0.20117971 -0.2071477 -0.105327554 0.12777473 0.16839927 -0.10777449 0.008007661
-0.062404193 -0.11824932 -0.07863538 0.04172167 -0.050421026 -0.1029491 -0.071879014 -0.12198426
0.09096646 0.052672073 -0.11804941 0.101994544 -0.13439266 -0.11700605 -0.0039681005 -0.053133927
-0.035250552 0.015220703 0.22024113 0.12541826 0.25390548 -0.2681218 0.33834282 -0.04160635
0.4411199 0.10107084 0.22826481 0.1114672 0.056893006 -0.048970878 0.0851102 0.057550754
0.030173436 0.13467658 -0.098806754 -0.07680543 0.2177822 -0.10232819 -0.11087978 -0.014172775
-0.0870773 -0.12784597 -0.12540102 0.1978731 0.012499901 -0.072394595 -0.024729412 -0.07202863
0.047939282 0.017632106 0.1059621 0.036029063 0.05429264 0.052566063 0.118854195 0.027924705
0.024407646 0.024477359 0.07851866 0.060698915 -0.0042452514 -0.05104507 0.08742489 -0.04846682
0.063559845 0.09727522 0.11386201 -0.08930883 0.1221569 -0.0061199013 -0.019354865 -0.017491221
-0.06288451 0.073296696 0.055313617 0.019579262 0.0024211912 -0.015319586 0.008515835 0.06565108
0.11253828 -0.06470596 0.19276622 -0.09224137 0.1279682 -0.08442287 0.17068294 0.01702562
0.027596748 0.121212885 0.06910709 -0.09798183 0.029357089 -0.07577706 -0.027473211 0.07387415
-0.0007613297 0.029060725 -0.039975375 -0.044380646 0.10372621 -0.05061203 0.028798394 -0.048039723
0.10159851 -0.022556512 -0.074515045 -0.07649603 -0.11413725 -0.02836016 -0.062075518 0.10377136
0.02060206 -0.12034356 0.06775086 0.036795847 0.043892346 -0.07625117 -0.062783 0.050355837
0.014512145 -0.044084016 0.06076923 0.060353573 -0.062166244 -0.06936297 -0.04101811 0.08633813
-0.018743362 -0.095282756 -0.04067413 0.01998577 -0.118842095 -0.02001578 0.121322036 0.027457371
-0.10392639 0.06500992 -0.11294854 0.10237704 0.1008532 -0.012790427 0.11623869 0.0033264875
-0.035664912 0.10407489 0.117592834 0.049604494 -0.047905754 -0.07584871 0.025769295 0.04877603
0.013794347 -0.0421173 -0.12706287 -0.033462714 0.029441027 -0.045460716 0.11128046 -0.06198649
-0.09277664 0.070622794 0.038928933 -0.118602775 -0.0657158 0.012635686 0.09064635 -0.007862091
00000000: b99b 273e 9d25 57bb aed6 5b3d da85 ef3d
00000010: b472 eebd af48 e5bd b524 1b3d ea71 653d
00000020: 8e31 b13d c9a0 173d 78d2 a9bd cf1e 883d
00000030: cd8c 943d 95e5 3b3c bc68 b5bd 0c70 013e
00000040: bd6e 90bd 36d4 963d 745e bebd f53c dfbb
00000050: 9fb8 80bd fbcd bfbb c538 56bd 9a13 d03d
00000060: 8310 e6bc e637 8a3d e36d 05bd 2948 893d
00000070: 1f1c c63c d48f 6f3c 98ca ed3d 0046 f8bc
00000080: a041 233d d27b d0bd 73d7 1d3d 00d3 8dbd
00000090: cdc3 a83c e20b dbbd a595 4c3d c100 813d
000000a0: 221b 233e 31d9 273d 6c40 ff3c aba7 f33d
000000b0: d250 503e 5a27 83bc 48ed 313e 24c0 7c3d
000000c0: 7649 eb3d 3280 133e f364 ef3d beb7 3d3e
000000d0: b5b2 7dbd 3961 94bd 5bdf e53c 668e e23d
000000e0: 5d32 453e bda2 073e 08a0 b23d 194e fc3d
000000f0: bbd2 763e 6ba5 a3bd 29e3 0f3d 0319 213e
00000100: 21bc 30be ce90 adbd 6f90 7d3d bd1f 823e
00000110: e084 f1bb cb42 aebd 4710 5d3e 0b73 b43c
00000120: 02f0 f7bc dec1 103e 0026 7abc 8bc8 cc3d
00000130: 52b8 d43d dfb7 d23c 9000 0fbd 073c 473e
00000140: 01bd 7ebd 0e02 4e3e 871e 54be f9b5 d7bd
00000150: 61d7 023e dc70 2c3e dfb8 dcbd 9132 033c
00000160: 8a9b 7fbd b32c f2bd 960b a1bd 58e4 2a3d
00000170: 4786 4ebd fad6 d2bd 4e35 93bd e2d2 f9bd
00000180: a04c ba3d acbe 573d e4c3 f1bd 84e2 d03d
00000190: 3b9e 09be dea0 efbd d706 82bb f6a2 59bd
000001a0: e262 10bd 4160 793c e486 613e a56d 003e
000001b0: e6ff 813e 4347 89be 453b ad3e 6c6b 2abd
000001c0: 78da e13e 3bfe ce3d 40be 693e ea48 e43d
000001d0: a408 693d b095 48bd 424e ae3d 57ba 6b3d
000001e0: 482e f73c a8e8 093e 325b cabd 2a4c 9dbd
000001f0: 4c02 5f3e 7191 d1bd f014 e3bd ed34 68bc
00000200: 9555 b2bd 0eea 02be 2069 00be 3f9f 4a3e
00000210: 62cc 4c3c 9e43 94bd 5695 cabc bf83 93bd
00000220: fb5b 443d 3571 903c a802 d93d 3693 133d
00000230: f661 5e3d 834f 573d d469 f33d 5ac2 e43c
00000240: 8bf2 c73c be84 c83c 64ce a03d 6d9f 783d
00000250: c01b 8bbb a314 51bd d20b b33d 2585 46bd
00000260: aa2b 823d 3b38 c73d 7c30 e93d 8ce7 b6bd
00000270: 662d fa3d 7489 c8bb 188e 9ebc c049 8fbc
00000280: 98c9 80bd 941c 963d 8890 623d b064 a03c
00000290: d9ac 1e3b 00ff 7abc 0086 0b3c 1374 863d
000002a0: 787a e63d 8f84 84bd 8264 453e 0be9 bcbd
000002b0: 190a 033e e6e5 acbd 82c7 2e3e 5079 8b3c
000002c0: 9312 e23c 763e f83d 0588 8d3d b3aa c8bd
000002d0: 477e f03c 0131 9bbd 800f e1bc 554b 973d
000002e0: f993 47ba c210 ee3c 38bd 23bd 7bc8 35bd
000002f0: 686e d43d 8f4e 4fbd 9cea eb3c 4dc5 44bd
00000300: e112 d03d 6fc8 b8bc 589b 98bd f3a9 9cbd
00000310: cac0 e9bd 9153 e8bc e642 7ebd 1486 d43d
00000320: a7c5 a83c af76 f6bd f6c0 8a3d 3eb7 163d
00000330: 76c8 333d 9329 9cbd 6094 80bd ec41 4e3d
00000340: 59c4 6d3c 7191 34bd 28e9 783d 4f35 773d
00000350: 08a2 7ebd 2c0e 8ebd 9b02 28bd 0cd2 b03d
00000360: ae8b 99bc 9b23 c3bd eb99 26bd 33b9 a33c
00000370: 7c63 f3bd 22f8 a3bc b077 f83d 48ee e03c
00000380: 5cd7 d4bd ec23 853d 9051 e7bd 0eab d13d
00000390: 1f8c ce3d f08e 51bc 8d0e ee3d 3301 5a3b
000003a0: 5f15 12bd 3725 d53d 83d4 f03d 152e 4b3d
000003b0: d338 44bd 9256 9bbd 211a d33c 60c9 473d
000003c0: af01 623c 3183 2cbd c51c 02be 3310 09bd
000003d0: 4f2e f13c 0435 3abd 03e7 e33d 8ce5 7dbd
000003e0: ae01 bebd afa2 903d f273 1f3d 03e6 f2bd
000003f0: 0196 86bd e905 4f3c cba4 b93d 00d0 00bc

network.2.bias f4 [32]
0.027007714 0.09063347 0.10965665 0.05289794 0.102457635 0.060865596 0.14430611 0.049014654
-0.067902565 0.015316996 -0.11381225 -0.09671515 -0.08112924 -0.084828176 0.107088834 -0.09506436
0.05598046 -0.03360876 -0.10432312 -0.12931132 0.06192207 -0.031637546 0.19083792 -0.13389008
-0.07500985 -0.023095865 -0.028041257 -0.08287542 0.08957786 0.0073039737 0.0037477908 0.065426335
00000000: 483f dd3c 0a9e b93d aa93 e03d 83ab 583d
00000010: 4fd5 d13d 344e 793d fbc4 133e 97c3 483d
00000020: 8010 8bbd 23f4 7a3c 6616 e9bd 9812 c6bd
00000030: 1627 a6bd 65ba adbd 6451 db3d 1ab1 c2bd
00000040: c44b 653d 57a9 09bd 5ca7 d5bd 306a 04be
00000050: ffa1 7d3d 5f96 01bd 046b 433e 7b1a 09be
00000060: c49e 99bd 8a33 bdbc c7b6 e5bc 97ba a9bd
00000070: 9974 b73d 2c56 ef3b 7f9d 753b 3efe 853d

network.4.weight f4 [4, 32]
-0.20720737 -0.20516454 -0.17704646 0.025663635 0.040943418 -0.14943051 -0.19733888 -0.05087117
0.03661183 0.12628639 -0.09245059 -0.0133720655 -0.042662103 0.061058845 -0.019493507 -0.04089028
-0.12894544 -0.098464206 0.03226889 0.11650063 0.15744442 0.11911951 -0.01575249 -0.09233141
-0.16763474 0.16022207 0.16602284 0.14521682 -0.16751166 -0.1666374 -0.13710162 -0.1690321
0.20112939 0.21000098 -0.031846747 0.0015019813 -0.056255464 -0.03600173 0.18212049 -0.042753138
0.06318068 -0.0870368 -0.04116094 0.1637056 -0.12327812 -0.018692765 -0.09451943 -0.093350545
0.17995411 -0.095644265 -0.14331032 -0.06600881 -0.04697902 0.09002322 0.24773584 -0.018059773
0.15377837 0.003494961 0.108040564 0.09051333 0.043198753 0.2478802 0.03853003 0.05782562
0.05747494 0.23731661 0.1474093 0.15104885 -0.116595015 -0.10590677 0.0045149415 -0.0864642
-0.14281145 -0.016457971 0.09978863 -0.08905478 -0.12563685 -0.10262277 0.07274561 0.16895616
-0.08294177 -0.15213323 -0.16594419 -0.099756956 -0.01742555 -0.05647428 -0.0142647335 -0.06082837
-0.09748195 -0.012151001 0.023668023 0.08533546 0.00968979 0.089240186 -0.09089344 0.015061639
-0.21310048 0.09720445 -0.032545608 -0.12610222 -0.06518552 0.16137682 0.028237836 -0.02834369
0.07605167 0.081472866 -0.015252079 0.16097954 0.007959519 0.12153049 -0.109637775 -0.1707378
-0.106328405 0.118766 -0.03321576 -0.008173835 0.08380562 0.070225686 -0.114165254 0.04307851
-0.12922698 0.08093489 0.043157827 0.06636469 -0.05014151 -0.15970618 0.111158185 -0.030676415
00000000: 2b2e 54be a716 52be ab4b 35be 8b3c d23c
00000010: 49b4 273d 5004 19be 3413 4abe 4a5e 50bd
00000020: 49f6 153d 3851 013e bc56 bdbd 8216 5bbc
00000030: 75be 2ebd d718 7a3d d9b0 9fbc 917c 27bd
00000040: 460a 04be 9aa7 c9bd 622c 043d e297 ee3d
00000050: 1c39 213e eef4 f33d 5e0b 81bc 4018 bdbd
00000060: 71a8 2bbe 4111 243e e401 2a3e b8b3 143e
00000070: 2d88 2bbe ffa2 2abe 5e64 0cbe c016 2dbe
00000080: ddf4 4d3e 7f0a 573e bc71 02bd 21de c43a
00000090: 216c 66bd 8d76 13bd cb7d 3a3e ea1d 2fbd
000000a0: df64 813d 5a40 b2bd 6098 28bd 71a2 273e
000000b0: 3d79 fcbd 9221 99bc 6793 c1bd 922e bfbd
000000c0: e445 383e 24e1 c3bd f1bf 12be a12f 87bd
000000d0: 136d 40bd 185e b83d 77ae 7d3e 17f2 93bc
000000e0: 1478 1d3e b70b 653b 5f44 dd3d 0e5f b93d
000000f0: 2df1 303d 4fd4 7d3e aad1 1d3d 8fda 6c3d
00000100: d86a 6b3d 2003 733e 77f2 163e 8dac 1a3e
00000110: 5ec9 eebd a6e5 d8bd 13f2 933b 2414 b1bd
00000120: 2a3d 12be ded2 86bc fb5d cc3d 5a62 b6bd
00000130: f2a6 00be e32b d2bd a6fb 943d d802 2d3e
00000140: 60dd a9bd d0c8 1bbe 46ed 29be 604d ccbd
00000150: 07c0 8ebc 9351 67bd a1b6 69bc 2b27 79bd
00000160: 9ea4 c7bd fe14 47bc 71e3 c13c 5cc4 ae3d
00000170: edc1 1e3c 8fc3 b63d 5726 babd 18c5 763c
00000180: 0337 5abe 2013 c73d 8b4e 05bd f120 01be
00000190: fc7f 85bd f73f 253e 0953 e73c 0731 e8bc
000001a0: fac0 9b3d 3fdb a63d dbe3 79bc d2d7 243e
000001b0: a468 023c fae4 f83d c589 e0bd e4d5 2ebe
000001c0: b5c2 d9bd 973b f33d 400d 08bd 8deb 05bc
000001d0: 48a2 ab3d 7cd2 8f3d 79cf e9bd 1773 303d
000001e0: 1454 04be 31c1 a53d 43c6 303d 36ea 873d
000001f0: 2f61 4dbd 048a 23be e7a6 e33d 1b4d fbbc

network.4.bias f4 [4]
-0.08567947 -0.06636706 0.10275227 -0.09862578
00000000: b878 afbd 74eb 87bd c86f d23d 50fc c9bd

player_encoder.0.weight f4 [64, 6]
0.34215897 0.4373232 -0.25154802 0.036692142 0.26558596 0.25615534 -0.02115288 0.17639977
-0.25546956 -0.32406086 0.13183619 -0.04442452 0.1920315 0.15539828 0.3373111 0.36113152
-0.25687593 0.23495074 0.20776354 -0.1463367 0.263897 -0.34247577 0.33177367 -0.08431806
0.21435632 0.13263772 -0.25644568 -0.36912754 0.3326212 -0.35748628 -0.33562294 0.03366492
-0.09483126 -0.0107306605 0.25815895 0.028983148 -0.12745601 0.17441614 -0.22057804 0.3374437
0.27954718 0.19730423 -0.016223906 -0.16982715 -0.20844057 -0.25856432 -0.18060298 -0.2229416
-0.3188965 -0.32962856 -0.3795169 0.063693196 -0.532534 -0.49813348 -0.12952921 0.2573928
0.39878175 -0.3128534 0.05440244 0.14420673 -0.055738773 0.2255328 0.19157833 0.19473676
-0.06225358 0.18283507 0.32660222 -0.075513 0.33112693 0.099464245 -0.12633222 0.24051203
-0.17406955 -0.13229522 0.08812785 0.06452895 -0.16162679 0.16547747 0.62188387 -0.27139267
-0.15388073 -0.13548419 0.22184718 0.37137914 -0.37524408 -0.089088984 -0.3604725 0.20611574
0.2478508 -0.27219832 -0.37885615 -0.05899007 0.023954574 0.26471624 0.3522292 0.039908357
-0.425533 -0.33902916 -0.43354002 -0.31209236 0.065756865 -0.2914587 0.32719946 -0.07950335
-0.028399255 0.4332002 -0.11452172 0.29730764 0.053133488 -0.3235581 -0.03715946 -0.43079686
-0.42776054 0.3397185 0.27817208 0.21653274 -0.04510065 -0.33439976 -0.29250893 0.1962928
-0.25843635 0.09354162 -0.14850387 -0.17171562 0.34695274 -0.32788754 0.34817868 0.03323052
0.014369102 0.023892572 0.00095637946 -0.18818597 0.3673036 -0.0770353 0.059433665 0.48886776
0.34816802 0.3108642 -0.03665391 -0.3449302 -0.4964323 -0.3033924 -0.099686734 -0.4302858
-0.028603638 0.20897704 -0.20361616 0.2153645 -0.24550864 -0.052491505 0.29755986 0.086699955
-0.21876524 0.13120896 -0.058991656 0.33967116 0.09666821 -0.3431395 -0.060344096 -0.15633452
0.15763456 0.25651222 0.107974365 0.30828756 0.32065403 -0.31058154 -0.046498284 -0.14138393
0.10143233 0.001685557 -0.22529578 -0.39075744 -0.2625697 0.36474812 0.50819874 -0.13680352
0.29102784 -0.33867878 -0.34555718 0.16385698 -0.30221286 0.28549162 -0.12463328 0.0859135
0.023799878 -0.057211936 -0.08524831 0.29936484 0.3222434 0.41639197 0.008905625 0.14491326
-0.20729065 0.25046226 -0.31621954 -0.2954715 0.028283076 -0.048743837 0.32369903 -0.33941242
0.039139807 0.0073186676 -0.18357365 0.085023925 -0.038356755 -0.45547506 -0.46082056 -0.39757416
-0.33552733 -0.018702324 -0.017141696 -0.09914104 0.2840606 0.14500117 -0.41435215 0.18667042
0.24118553 0.21686237 0.25902045 0.28896782 0.21266678 -0.2679694 0.6262698 -0.10297713
-0.09609186 -0.325297 -0.09970674 0.013389525 -0.26470318 0.116836675 0.08504586 -0.09981689
0.31866482 -0.39374307 -0.52440834 -0.42330205 -0.2867035 -0.390153 -0.21902764 0.2050521
0.42777506 0.015371621 0.30652326 0.0831194 -0.22289762 -0.3414506 0.44252905 -0.07593611
-0.11694436 -0.04312016 -0.25230542 -0.29639056 0.020047324 0.3748004 0.20938288 -0.035313103
00000000: 762f af3e d4e8 df3e e7ca 80be 804a 163d
00000010: e2fa 873e cb26 833e ce48 adbc 24a2 343e
00000020: e8cc 82be 4eeb a5be 1100 073e 7cf6 35bd
00000030: e8a3 443e ba20 1f3e 0ab4 ac3e 3be6 b83e
00000040: 3e85 83be ed96 703e f7bf 543e 4ad9 15be
00000050: 821d 873e fc58 afbe 3dde a93e f2ae acbd
00000060: 3980 5b3e 2fd2 073e d94c 83be 49fe bcbe
00000070: 534d aa3e 7108 b7be c5d6 abbe 3ae4 093d
00000080: e436 c2bd a7cf 2fbc 692d 843e 116e ed3c
00000090: d483 02be 259a 323e 36df 61be 6cc5 ac3e
000000a0: cf20 8f3e 1f0a 4a3e ffe7 84bc 2be7 2dbe
000000b0: 7271 55be 8b62 84be fdef 38be ce4a 64be
000000c0: 6746 a3be 13c5 a8be 0a50 c2be 9471 823d
000000d0: 2654 08bf 5a0b ffbe 4ea3 04be fdc8 833e
000000e0: 1f2d cc3e 522e a0be 18d5 5e3d eeaa 133e
000000f0: 574e 64bd 12f2 663e 1c2d 443e 1369 473e
00000100: 9cfd 7ebd 1e39 3b3e 6838 a73e 8fa6 9abd
00000110: 7889 a93e e9b3 cb3d 3c5d 01be c948 763e
00000120: 4a3f 32be 6678 07be 607c b43d c127 843d
00000130: 7e81 25be ed72 293e c833 1f3f fbf3 8abe
00000140: e992 1dbe 5ebc 0abe e82b 633e 6825 be3e
00000150: fe1f c0be 4974 b6bd da8f b8be 0110 533e
00000160: 9acc 7d3e 945d 8bbe 6ff9 c1be 929f 71bd
00000170: 623c c43c e388 873e 6357 b43e f276 233d
00000180: 76df d9be 3b95 adbe f5f8 ddbe 92ca 9fbe
00000190: 89ab 863d 133a 95be b086 a73e a7d2 a2bd
000001a0: 8ea5 e8bc 6bcc dd3e 5d8a eabd b538 983e
000001b0: 80a2 593d 68a9 a5be 8534 18bd 6891 dcbe
000001c0: 6e03 dbbe 95ef ad3e 926c 8e3e c2ba 5d3e
000001d0: 76bb 38bd 7236 abbe bbc3 95be fb00 493e
000001e0: c551 84be c092 bf3d 6611 18be 38d6 2fbe
000001f0: caa3 b13e e0e0 a7be 7a44 b23e ba1c 083d
00000200: 626c 6b3c 5bba c33c 8ab5 7a3a d3b3 40be
00000210: 380f bc3e afc4 9dbd b770 733d e04c fa3e
00000220: 1443 b23e 9829 9f3e 6922 16bd b19a b0be
00000230: 602c febe 4056 9bbe 8f28 ccbd 6c4e dcbe
00000240: 2d52 eabc 14fe 553e c180 50be 8388 5c3e
00000250: 9e66 7bbe 5501 57bd c459 983e bf8f b13d
00000260: ff03 60be a45b 063e 3ca1 71bd 61e9 ad3e
00000270: fcf9 c53d fbaf afbe 5f2b 77bd 2816 20be
00000280: f46a 213e 9255 833e aa21 dd3d ded7 9d3e
00000290: c42c a43e 8b04 9fbe fc74 3ebd f3c6 10be
000002a0: c1bb cf3d e8ed dc3a f0b3 66be 5c11 c8be
000002b0: 896f 86be 44c0 ba3e 5019 023f 3916 0cbe
000002c0: 9a01 953e 4e67 adbe dfec b0be 20ca 273e
000002d0: a5bb 9abe f52b 923e bc3f ffbd 6bf3 af3d
000002e0: f6f7 c23c 1057 6abd aa96 aebd 5946 993e
000002f0: 16fd a43e 5431 d53e e6e8 113c 2464 143e
00000300: 0044 54be 973c 803e 87e7 a1be 0a48 97be
00000310: e9b1 e73c 9ea7 47bd e1bb a53e 77c7 adbe
00000320: 1051 203d 6fd1 ef3b bbfa 3bbe 0621 ae3d
00000330: f91b 1dbd 0734 e9be acf0 ebbe d78e cbbe
00000340: 3dca abbe 9e35 99bc be6c 8cbc 750a cbbd
00000350: 6470 913e 307b 143e f725 d4be 8826 3f3e
00000360: 57f9 763e 2b11 5e3e 549e 843e 97f3 933e
00000370: 52c5 593e 4933 89be 3853 203f ace5 d2bd
00000380: cfcb c4bd 548d a6be 0c33 ccbd bd5f 5b3c
00000390: 2d87 87be 1148 ef3d 862c ae3d cc6c ccbd
000003a0: 0928 a33e b198 c9be a03f 06bf 0cbb d8be
000003b0: cdca 92be 22c2 c7be c848 60be 2df9 513e
000003c0: 5505 db3e 40d9 7b3c 9ef0 9c3e 813a aa3d
000003d0: 463f 64be 9dd2 aebe 2b93 e23e 6484 9bbd
000003e0: 8680 efbd c49e 30bd 2d2e 81be 81c0 97be
000003f0: 493a a43c d7e5 bf3e 7768 563e 79a4 10bd

player_encoder.0.bias f4 [64]
-0.039549038 0.09003575 -0.015630372 0.16726586 0.049763434 -0.3298802 -0.09743498 0.43107545
-0.20963228 0.42718983 0.03446776 0.077880286 -0.42330554 -0.3066543 0.3415841 0.058955684
-0.1311618 -0.24158104 0.36895496 -0.3019382 0.038210962 0.42299926 -0.20560017 -0.05255422
-0.41203216 -0.15920265 0.30632225 0.10446343 -0.35728973 0.25894874 -0.0020518112 0.10700054
0.24834013 -0.30891356 0.22373898 -0.26159984 -0.31723532 -0.23270556 -0.0025627771 0.27621305
-0.19013411 0.10628373 0.1167094 0.27015316 0.038672093 -0.32388696 0.35284176 -0.29784477
0.08203153 0.13808344 -0.15780216 -0.31508535 -0.075878926 -0.2732336 0.01913949 -0.24776554
-0.10179669 0.4080002 -0.088231824 -0.2849954 0.42198983 -0.36024484 -0.37715885 0.41580278
00000000: 2cfe 21bd aa64 b83d 440b 80bc be47 2b3e
00000010: bed4 4b3d 0fe6 a8be fe8b c7bd ecb5 dc3e
00000020: d8a9 56be a0b8 da3e 112e 0d3d b37f 9f3d
00000030: 81bb d8be cb01 9dbe 1ce4 ae3e 847b 713d
00000040: 474f 06be 0561 77be aae7 bc3e a597 9abe
00000050: 1983 1c3d 5c93 d83e da88 52be 1843 57bd
00000060: e1f5 d2be 0506 23be 45d6 9c3e ecf0 d53d
00000070: aeee b6be ee94 843e ae77 06bb 1923 db3d
00000080: e04c 7e3e eb29 9ebe d51b 653e 6af0 85be
00000090: ab6c a2be 5e4a 6ebe 44f4 27bb cc6b 8d3e
000000a0: 84b2 42be 49ab d93d 5705 ef3d 8451 8a3e
000000b0: a166 1e3d 83d4 a5be ada7 b43e 1c7f 98be
000000c0: 2600 a83d bf65 0d3e e496 21be de52 a1be
000000d0: 6966 9bbd 46e5 8bbe 6bca 9c3c 40b6 7dbe
000000e0: c87a d0bd 67e5 d03e e3b2 b4bd ebea 91be
000000f0: 0d0f d83e 0372 b8be f71a c1be 1ae4 d43e

player_encoder.2.weight f4 [32, 64]
0.06565023 0.09155868 0.12213464 0.0058881976 0.07475938 0.024805415 -0.004997009 0.1282294
-0.102068886 -0.040527277 0.09135563 0.16772653 -0.06571606 0.24624722 -0.17475082 -0.03898491
-0.17931916 0.06951047 0.13592847 0.031983733 -0.07937208 0.10716837 0.009082449 0.12648194
0.008617552 0.044034213 -0.013551849 0.062229738 -0.07109823 0.070037596 0.043784015 -0.0670352
0.19808048 0.08450537 0.060255557 -0.07025916 0.08407603 0.0857918 0.04542651 -0.006278444
0.15636756 0.08342695 -0.08720084 -0.1726212 -0.038157042 -0.040511265 0.07609549 0.046759933
0.19537796 0.056200176 0.046553914 -0.036185876 0.20350148 0.0018984291 -0.0767735 0.11601381
0.23737462 0.08649886 0.25567746 -0.06525123 -0.016790925 -0.027878601 0.058417678 -0.18114625
0.10225837 0.2416569 0.021505017 0.15614575 0.1369427 0.11786868 0.040028665 0.057029516
-0.006446373 0.056529254 -0.02999906 0.02258718 0.018474702 0.2924808 -0.030803002 0.052975114
0.07802343 0.103253305 0.064556636 0.053312678 0.0903983 0.06364556 0.12589064 0.11201691
0.11253829 -0.03200184 0.045830905 -0.0014561436 -0.0025974351 0.091693446 0.122227035 0.08338075
0.08399144 0.14269654 0.079470254 0.09138042 0.060523428 0.21051492 -0.023113223 0.042018127
-0.06312048 0.05844142 -0.06704751 0.04139883 -0.022740446 -0.009413263 0.07297673 -0.01727295
0.12062597 0.26614696 -0.08804741 0.13119464 0.30777082 -0.099228084 0.08775746 0.03965726
0.16671574 0.21965274 0.08592664 -0.051379476 -0.067860276 -0.07155298 -0.06778149 -0.122816
0.20203288 0.068376355 0.16637944 0.026421702 0.07268243 0.024191862 0.04190512 -0.04918907
-0.032662574 0.031398047 0.12583877 0.15812296 -0.09636607 0.25198507 -0.08129814 -0.026724087
-0.11008342 0.055720396 -0.0046212794 0.04555455 0.036567647 0.19315858 0.17214595 0.059594955
0.12332345 -0.02661742 -0.013898958 0.005379975 -0.041367423 0.16823748 0.0056975856 0.012511745
0.0051136655 0.14735219 0.008219386 0.08165709 0.046693657 0.174825 0.12518477 -0.034879323
-0.01793428 0.14076065 0.12530926 -0.16111907 -0.07384474 -0.031930167 0.20285793 0.13334872
0.08433939 0.25209913 -0.05874921 0.14055975 0.27889845 0.025561372 0.14194849 0.007903064
0.17967519 0.0440192 0.25865752 -0.2107119 -0.1642803 0.12715355 0.065401115 -0.0076274923
-0.0010588852 0.07118871 -0.06418345 -0.007750688 -0.05257545 -0.111537345 -0.028767867 0.1582835
0.2261286 -0.041881543 0.01170462 -0.230107 -0.03758949 -0.26233172 0.15800485 0.013423043
0.3291051 -0.07109392 0.1746712 0.062465552 0.045354486 -0.06631055 -0.10351693 0.17355928
0.017993405 0.083984666 0.1042101 -0.12662473 -0.051481977 -0.005387731 0.061513077 -0.009362782
-0.080587745 0.0106970975 -0.01700152 -0.11344458 0.019379053 -0.17838708 0.109320804 0.19052237
-0.22628152 -0.0071645845 -0.055201195 0.28154472 0.12806639 -0.0619337 -0.14415817 -0.08826296
-0.018384913 0.032353755 -0.0014040163 -0.0019898252 -0.30710223 -0.131109 0.04953583 0.022429025
-0.062677935 0.0960082 -0.12615502 0.105602905 0.25631714 0.024893574 -0.093638316 0.28837597
00000000: a173 863d 1e83 bb3d ba21 fa3d c8f1 c03b
00000010: 721b 993d ba34 cb3c f3bd a3bb 914e 033e
00000020: 7e09 d1bd eeff 25bd a918 bb3d 81c0 2b3e
00000030: 2496 86bd 3b28 7c3e e1f1 32be a4ae 1fbd
00000040: 719f 37be 815b 8e3d d530 0b3e 6001 033d
00000050: d48d a2bd 177b db3d 8dce 143c 7b84 013e
00000060: a230 0d3c 385d 343d 9308 5ebc 9ce4 7e3d
00000070: f39b 91bd df6f 8f3d de56 333d c049 89bd
00000080: 9cd5 4a3e 2711 ad3d 88ce 763d 09e4 8fbd
00000090: 0e30 ac3d 9cb3 af3d 2611 3a3d 68bb cdbb
000000a0: d11e 203e c0db aa3d 5b96 b2bd 9dc3 30be
000000b0: 8f4a 1cbd 24ef 25bd f4d7 9b3d 5887 3f3d
000000c0: 2911 483e 2832 663d 51af 3e3d a437 14bd
000000d0: b162 503e b6d4 f83a 6d3b 9dbd a698 ed3d
000000e0: 5512 733e 5026 b13d 28e8 823e 70a2 85bd
000000f0: 1f8d 89bc aa61 e4bc 6047 6f3d 677e 39be
00000100: d66c d13d e874 773e 4a2b b03c ace4 1f3e
00000110: b53a 0c3e 2265 f13d 19f5 233d c897 693d
00000120: 193c d3bb 388b 673d 97c0 f5bc c008 b93c
00000130: 4258 973c 0bc0 953e 9456 fcbc 6ffc 583d
00000140: c0ca 9f3d 7876 d33d 4536 843d 655e 5a3d
00000150: be22 b93d 9a58 823d 7ae9 003e 1f69 e53d
00000160: 7a7a e63d 5d14 03bd 30b9 3b3d 12dc beba
00000170: bb39 2abb c6c9 bb3d 2b52 fa3d 87c3 aa3d
00000180: b403 ac3d 0b1f 123e 4dc1 a23d a825 bb3d
00000190: 6ae7 773d 3991 573e f157 bdbc 331b 2c3d
000001a0: 4f45 81bd 4560 6f3d 3450 89bd d291 293d
000001b0: 2c4a babc 163a 1abc d374 953d 0080 8dbc
000001c0: c00a f73d 6a44 883e 3352 b4bd e357 063e
000001d0: 2394 9d3e 1838 cbbd 2fba b33d a76f 223d
000001e0: 88b7 2a3e a6ec 603e 4efa af3d 4973 52bd
000001f0: 54fa 8abd 5e8a 92bd 06d1 8abd f486 fbbd
00000200: b5e1 4e3e e708 8c3d 5f5f 2a3e 5372 d83c
00000210: 87da 943d 032e c63c b4a4 2b3d 7a7a 49bd
00000220: 31c9 05bd 3d9b 003d e1db 003e fcea 213e
00000230: 935b c5bd 3004 813e a47f a6bd 79ec dabc
00000240: 6b73 e1bd 123b 643d 1a6e 97bb 6897 3a3d
00000250: f5c7 153d 5dcb 453e 0747 303e d719 743d
00000260: 0191 fc3d c70c dabc 75b8 63bc 804a b03b
00000270: e370 29bd 7246 2c3e d0b2 ba3b 10fe 4c3c
00000280: 8990 a73b 7ee3 163e 9baa 063c d53b a73d
00000290: d941 3f3d 5305 333e 7030 003e 9fdd 0ebd
000002a0: e9ea 92bc 8f23 103e 1251 003e 66fc 24be
000002b0: e93b 97bd 35c9 02bd fdb9 4f3e 918c 083e
000002c0: 21ba ac3d 2313 813e 03a3 70bd e5ee 0f3e
000002d0: c7cb 8e3e 1566 d13c f25a 113e da7b 013c
000002e0: c6fc 373e 7a4d 343d c26e 843e dcc4 57be
000002f0: 1839 28be 8a34 023e 05f1 853d 0bf0 f9bb
00000300: 4bca 8aba 63cb 913d 9d72 83bd 7cf9 fdbb
00000310: 5b59 57bd b16d e4bd 97aa ebbc 1215 223e
00000320: 418e 673e fb8b 2bbd bcc4 3f3c 2ba1 6bbe
00000330: 70f7 19bd 5850 86be 06cc 213e 53ec 5b3c
00000340: 7780 a83e b099 91bd 02dd 323e e1db 7f3d
00000350: a0c5 393d d3cd 87bd af00 d4bd 86b9 313e
00000360: e866 933c 2700 ac3d 1b6c d53d eaa9 01be
00000370: c4de 52bd 908b b0bb 23f5 7b3d 5b66 19bc
00000380: 300b a5bd e142 2f3c c646 8bbc a255 e8bd
00000390: d2c0 9e3c 1aab 36be 96e3 df3d 4c18 433e
000003a0: 58b6 67be e4c4 eabb a61a 62bd a126 903e
000003b0: d623 033e 31ae 7dbd 339e 13be 36c3 b4bd
000003c0: f59b 96bc 5f85 043d f806 b8ba ba67 02bb
000003d0: 813c 9dbe 7041 06be 15e6 4a3d 13bd b73c
000003e0: 4a5d 80bd f29f c43d c82e 01be 5646 d83d
000003f0: 003c 833e 9ced cb3c 72c5 bfbd 04a6 933e

player_encoder.2.bias f4 [32]
-0.01801705 -0.012735446 0.21304558 0.16198327 0.045748997 0.0019786842 -0.08387129 -0.03662893
-0.12173377 -0.06971971 -0.06966001 0.060435858 0.19011754 0.14738163 -0.10636047 0.08450371
-0.044751436 -0.0030458975 0.076993674 0.14309697 -0.05606745 0.07954193 0.06413083 0.017323162
-0.0067370036 0.12901197 0.15744974 -0.10798261 0.10452918 -0.0710153 -0.022912197 -0.0653134
00000000: 7e98 93bc 55a8 50bc 9f28 5a3e f1de 253e
00000010: 4d63 3b3d d0ac 013b b6c4 abbd 3808 16bd
00000020: 8e4f f9bd 35c9 8ebd e8a9 8ebd 978b 773d
00000030: 2cae 423e 36eb 163e 85d3 d9bd 4810 ad3d
00000040: 484d 37bd ae9d 47bb dcae 9d3d 0388 123e
00000050: fca6 65bd e1e6 a23d 0657 833d 4ee9 8d3c
00000060: 15c2 dcbb b71b 043e 813a 213e fd25 ddbd
00000070: 6513 d63d 7870 91bd 5cb2 bbbc 08c3 85bd

context_encoder.0.weight f4 [32, 10]
-0.046174064 -0.14398998 -0.011393811 0.10301047 0.23856044 -0.18550254 0.24738386 -0.14779404
-0.23705003 0.30886322 -0.3267691 -0.006896702 0.10308337 0.11026125 -0.23037927 0.19431472
0.011376446 -0.12158043 0.07161085 -0.17110012 0.23572528 0.24022116 -0.15115817 -0.19572467
0.07195057 0.22894286 -0.08113747 -0.08828536 0.016459515 0.29782477 0.29325038 0.26323467
-0.15879159 0.14723577 -0.26844525 -0.14706904 0.08220977 0.024967043 0.00012616422 -0.023431258
0.2911323 -0.24086621 0.27527928 -0.05913969 0.07434852 0.36480802 -0.03032845 -0.20115209
0.11346962 0.21639013 0.2896685 0.30461365 -0.13766816 0.21484919 -0.20188098 -0.09153968
0.19622056 -0.024976118 0.0010219294 0.24734537 0.04071223 0.12816794 -0.12001666 0.09550871
-0.028528178 0.3364777 0.11627867 0.40682456 0.12866075 0.35604125 -0.13411745 0.16355534
-0.26510265 0.14846474 -0.17574969 0.08778914 -0.19127001 -0.19027069 0.07586168 -0.06856767
0.18222472 0.30499035 -0.121310115 -0.25612244 0.18824533 -0.048085053 0.19321592 0.11374412
-0.06872271 0.12461708 -0.22302951 -0.0852261 -0.15312691 -0.29867557 -0.27175367 -0.12673387
-0.18555087 0.05307974 0.2836064 -0.057657547 -0.16228493 -0.22363658 -0.095837526 0.0090123
0.25074434 -0.19504271 -0.045088843 0.10700877 -0.056226764 -0.23921424 -0.13463013 -0.10916622
0.039154526 0.114289925 0.013046076 -0.030830119 -0.015565356 0.18690157 -0.024986362 -0.07912687
-0.050508577 -0.2229915 -0.12716 0.050658677 -0.13039084 -0.28440323 0.17456818 0.2206891
0.23039198 -0.15804012 0.22930282 0.049162842 -0.16387506 0.31134373 0.26918834 -0.033705432
0.21297874 0.013524499 0.36198038 0.19121872 0.1916708 0.019368472 -0.30255187 -0.22216949
-0.28283444 -0.06880911 -0.22386071 0.045864213 0.099396944 -0.13802172 0.07130646 -0.28892428
0.006587671 -0.12161919 -0.24403548 0.2664172 0.13294338 -0.103696235 -0.2383509 0.19017616
0.0418967 -0.07690535 -0.056218658 -0.048186224 0.14896815 0.19466066 0.03912351 -0.3762175
-0.2887323 0.23029776 -0.10548201 -0.0012227005 0.13932264 0.044135667 -0.2701447 -0.037297755
-0.054886606 0.17876735 -0.10267428 0.30702427 -0.15760839 0.04840835 0.044313278 0.15547349
-0.21326281 -0.009237136 0.10054714 0.07157254 0.26440838 -0.0043270406 0.2266542 -0.036397476
0.22224125 0.067169495 -0.14700483 -0.051250715 0.13652748 -0.1532939 -0.04958009 0.031786848
0.055259436 -0.078157105 0.03902393 0.2402237 -0.18951301 0.30242524 -0.27558115 -0.2170114
0.0654993 0.25314915 -0.058375154 -0.33420703 0.22597833 -0.12586164 -0.030474596 -0.113565475
-0.1121288 -0.07099585 0.18866934 -0.053849727 -0.1637144 -0.17717817 -0.18710607 0.33775622
-0.23082104 0.3098057 0.252966 0.1895425 0.26586273 -0.049816336 0.043936014 -0.12265947
0.071075134 0.00195528 -0.3326421 -0.30588204 0.19180311 -0.03107109 -0.112535775 -0.124471486
0.016421814 0.11284972 -0.18773617 -0.22169632 -0.32328904 0.13404848 0.05529245 0.039347995
0.2334166 0.033310022 -0.18975152 -0.242015 -0.19543336 -0.26429325 0.12526017 -0.18950927
00000000: 0421 3dbd 1c72 13be 1bad 3abc 27f7 d23d
00000010: 3049 743e 61f4 3dbe 3252 7d3e 5257 17be
00000020: 3ebd 72be 5223 9e3e 484e a7be bbfd e1bb
00000030: 601d d33d a6d0 e13d 8be8 6bbe 70fa 463e
00000040: 4664 3a3c 29ff f8bd b6a8 923d df34 2fbe
00000050: f861 713e 89fc 753e 35c9 1abe 0c6c 48be
00000060: d25a 933d ff6f 6a3e 672b a6bd f4ce b4bd
00000070: 1bd6 863c 7d7c 983e ea24 963e b2c6 863e
00000080: 439a 22be f9c4 163e a871 89be 4499 16be
00000090: 995d a83d af87 cc3c f34a 0439 e9f2 bfbc
000000a0: 4b0f 953e a2a5 76be 68f1 8c3e 763c 72bd
000000b0: 0944 983d 1ec8 ba3e 5f73 f8bc d0fa 4dbe
000000c0: c362 e83d 6095 5d3e 6e4f 943e 52f6 9b3e
000000d0: e2f8 0cbe 6d01 5c3e e3b9 4ebe 2879 bbbd
000000e0: 0bee 483e b79a ccbc 43f2 853a 1b48 7d3e
000000f0: dec1 263d 753e 033e 4bcb f5bd 129a c33d
00000100: edb3 e9bc ce46 ac3e 8323 ee3d 4f4b d03e
00000110: a5bf 033e 0a4b b63e 1656 09be 0d7b 273e
00000120: 89bb 87be 2407 183e baf7 33be cbca b33d
00000130: 49dc 43be 52d6 42be 5e5d 9b3d 356d 8cbd
00000140: 1e99 3a3e b227 9c3e 7071 f8bd 7b22 83be
00000150: 62c3 403e d5f4 44bd 65da 453e adf2 e83d
00000160: 7ebe 8cbd 3d37 ff3d d961 64be 068b aebd
00000170: 4dcd 1cbe 01ec 98be 4c23 8bbe 86c6 01be
00000180: 0c01 3ebe 246a 593d dc34 913e 522a 6cbd
00000190: 052e 26be fd00 65be 7746 c4bd 53a8 133c
000001a0: 9061 803e 47b9 47be 14af 38bd 6a27 db3d
000001b0: 094e 66bd 94f4 74be 7bdc 09be 8a92 dfbd
000001c0: 7f60 203d d610 ea3d 35bf 553c 728f fcbc
000001d0: d605 7fbc 2063 3f3e 33b0 ccbc 450d a2bd
000001e0: 15e2 4ebd e257 64be 3b36 02be 797f 4f3d
000001f0: 2d85 05be 4d9d 91be 00c2 323e 53fc 613e
00000200: e0eb 6b3e 45d5 21be 5cce 6a3e fa5e 493d
00000210: ddce 27be 7268 9f3e 0ed3 893e b50e 0abd
00000220: 1917 5a3e dc95 5d3c 7e55 b93e d7ce 433e
00000230: 5a45 443e a1aa 9e3c 14e8 9abe 6680 63be
00000240: adcf 90be caeb 8cbd be3b 65be 1ddc 3b3d
00000250: a090 cb3d 9155 0dbe 1f09 923d e2ed 93be
00000260: 64dd d73b 7b13 f9bd 70e4 79be d667 883e
00000270: 4f22 083e b15e d4bd 4212 74be 8abd 423e
00000280: e09b 2b3d 8d80 9dbd 8945 66bd eb5e 45bd
00000290: 1b8b 183e 2055 473e f93f 203d 959f c0be
000002a0: b8d4 93be 2dd3 6b3e f406 d8bd 0543 a0ba
000002b0: 98aa 0e3e 9ac7 343d 6850 8abe 88c5 18bd
000002c0: c7d0 60bd ca0e 373e e546 d2bd 4932 9d3e
000002d0: 1864 21be d647 463d d781 353d 7134 1f3e
000002e0: 9161 5abe 5b57 17bc a9eb cd3d a094 923d
000002f0: 8960 873e d9c9 8dbb 0a18 683e 8515 15bd
00000300: 3693 633e 2990 893d 6f88 16be 45ec 51bd
00000310: dccd 0b3e 13f9 1cbe 7e14 4bbd ed32 023d
00000320: b857 623d d510 a0bd 8ed7 1f3d 34fd 753e
00000330: b30f 42be 7bd7 9a3e f918 8dbe 3d38 5ebe
00000340: 7f24 863d c49c 813e c91a 6fbd 2f1d abbe
00000350: dd66 673e e0e1 00be dca5 f9bc 0495 e8bd
00000360: c9a3 e5bd 4666 91bd 8932 413e 8891 5cbd
00000370: bfa4 27be 326e 35be bc98 3fbe 62ee ac3e
00000380: 5a5c 6cbe da9e 9e3e c284 813e 6e17 423e
00000390: 291f 883e 370c 4cbd 40f6 333d e334 fbbd
000003a0: d78f 913d 2824 003b 1150 aabe 929c 9cbe
000003b0: 0968 443e cc88 febc 2879 e6bd e8ea febd
000003c0: 0a87 863c c11d e73d e93d 40be 5c04 63be
000003d0: 2486 a5be 0144 093e 567a 623d 5d2b 213d
000003e0: c304 6f3e 1770 083d 394e 42be c8d2 77be
000003f0: af1f 48be 7251 87be 3444 003e b80e 42be

context_encoder.0.bias f4 [32]
-0.24955288 -0.04267988 -0.2798772 -0.10291418 0.2790303 -0.00015184142 0.17996834 -0.17807874
-0.023955062 -0.22248071 0.1710037 -0.056818217 -0.2100728 0.27251053 0.2485418 0.21368705
-0.17136864 0.07820253 0.16764155 0.16531152 -0.29313922 0.057455078 -0.04399283 -0.2880341
-0.28923115 -0.20279044 -0.13811676 0.037196133 -0.19783577 -0.052462175 0.28563604 0.29178643
00000000: ca8a 7fbe 19d1 2ebd 104c 8fbe abc4 d2bd
00000010: 0fdd 8e3e 9f37 1fb9 9f49 383e 465a 36be
00000020: 683d c4bc fcd1 63be 981b 2f3e 38ba 68bd
00000030: 531d 57be 8086 8b3e be81 7e3e c7d0 5a3e
00000040: 437b 2fbe a628 a03d 3aaa 2b3e 6c47 293e
00000050: 5816 96be 0456 6b3d d331 34bd 3579 93be
00000060: 1b16 94be 4ca8 4fbe 7b6e 0dbe f95a 183d
00000070: 7695 4abe 94e2 56bd e33e 923e 0865 953e

context_encoder.2.weight f4 [16, 32]
-0.1282643 0.13260865 0.04007576 0.06234939 -0.18037118 0.16541667 0.07091913 -0.14535266
0.053439047 -0.14821215 0.12169201 -0.013439729 -0.0631442 -0.14254634 -0.023520341 -0.07886074
0.032070972 -0.12386898 0.04093737 -0.11358932 -0.0074365586 0.04214656 -0.16783275 0.11490138
-0.10553999 -0.15477002 -0.15105481 0.13924304 0.0084375115 -0.15092184 -0.037141822 -0.13862902
0.09908606 0.042856805 -0.052716184 0.13008043 -0.16817448 -0.13223632 -0.110584356 -0.0789367
0.11053019 0.13913962 -0.032999087 -0.13412198 -0.1292258 -0.14648856 -0.03848604 0.118498206
0.054748543 0.028512448 0.14473961 -0.17078203 -0.12703186 0.14507435 -0.017049914 0.11020333
0.0627778 -0.005968984 -0.02615715 -0.032291006 0.1164175 -0.06939435 -0.066896975 -0.02651243
0.04380663 -0.1714415 0.1758802 -0.022842918 -0.06927972 0.11591146 -0.13540941 -0.014733547
-0.112775415 -0.07073172 0.07673175 0.061765805 0.13064532 0.08127474 0.008699721 -0.15518716
0.07269847 -0.02100228 -0.0020347866 0.06600744 0.07483021 -0.04472417 -0.038671944 -0.07881223
0.049116902 0.051044594 -0.107176274 -0.115639485 -0.17425972 0.04685857 0.06617515 -0.13056469
0.15372998 -0.04477996 -0.084203064 0.1418213 0.0313718 0.015772056 -0.108278625 -0.019798566
-0.09456711 -0.08234495 -0.007766316 0.1145147 0.031135453 0.004357714 0.09242012 -0.026655141
0.08074837 0.0037575196 -0.14675586 -0.047398753 0.0303353 -0.15178919 0.098939374 0.08710166
-0.14527437 -0.13271794 0.07136408 0.064060345 -0.09838586 0.081408635 -0.036865674 0.12750973
-0.15778053 0.107261874 0.03337681 -0.030470109 -0.17419687 0.14988023 -0.014653459 0.15419431
-0.18939196 -0.12420183 0.05323413 0.024933131 0.13892248 -0.10633636 0.06640484 -0.095329784
0.04293348 -0.04114227 0.06624328 0.1395303 0.12858938 0.15547918 -0.014391608 0.009641073
-0.07184973 -0.09260379 -0.12475202 0.059295032 0.12846828 0.068799116 0.09472291 0.13750735
0.15767811 -0.01209345 0.056226738 -0.066641875 -0.106598414 0.05344223 -0.185479 -0.17666882
-0.03580706 0.13921201 -0.05064131 0.06305713 -0.18712352 -0.0904463 -0.162233 -0.11936308
-0.13180538 -0.09134004 -0.14098847 0.060364865 -0.05637398 0.12608513 -0.18794605 0.08820209
-0.116792634 0.00971605 -0.06047484 -0.13570142 0.056132287 0.08452815 0.14247803 -0.0072399527
-0.0121468725 -0.13574314 -0.13353251 0.17181143 -0.0094071925 0.20778464 0.23996389 -0.106478065
-0.028063785 0.017030193 -0.0070882016 -0.0029131046 -0.026849018 -0.046285994 0.05633934 0.055788733
-0.12027963 0.13518208 0.17832513 0.12060408 -0.011138548 -0.052904584 0.10828832 -0.15179953
-0.15549232 0.13852185 0.13166974 0.2747041 0.10492776 0.1364104 0.16026042 -0.007194243
-0.048568785 0.11096034 0.040321972 0.13669883 -0.01709883 -0.005684261 -0.06928468 -0.07215214
-0.1608294 -0.06660711 -0.12894602 0.027623171 -0.16349253 -0.018780425 -0.14428242 -0.13905437
-0.131583 0.052807007 -0.16000687 -0.1399637 0.09129271 0.091288894 -0.06586967 -0.00037824688
-0.051378947 0.14964278 -0.09224234 -0.041312993 -0.15821433 -0.12910566 0.015287631 -0.15372603
00000000: b757 03be 90ca 073e 7b26 243d 1362 7f3d
00000010: 39b3 38be fd62 293e 0d3e 913d 54d7 14be
00000020: e7e2 5a3d edc4 17be a939 f93d 4f32 5cbc
00000030: bf51 81bd abf7 11be bbad c0bc bd81 a1bd
00000040: da5c 033d 05af fdbd f2ad 273d 84a1 e8bd
00000050: 60ae f3bb dfa1 2c3d 59dc 2bbe 6a51 eb3d
00000060: 5a25 d8bd 087c 1ebe 1dae 1abe ba95 0e3e
00000070: 7d3d 0a3c 418b 1abe 0622 18bd c4f4 0dbe
00000080: a2ed ca3d 9e8a 2f3d edec 57bd ce33 053e
00000090: ee35 2cbe f568 07be 0d7a e2bd 91a9 a1bd
000000a0: a75d e23d 9e7a 0e3e 0d2a 07bd 4657 09be
000000b0: c553 04be 1901 16be 8aa3 1dbd 30af f23d
000000c0: 0240 603d f092 e93c 9f36 143e 7ce1 2ebe
000000d0: a414 02be 5f8e 143e 43ac 8bbc 49b2 e13d
000000e0: a691 803d 7897 c3bb 8547 d6bc 9343 04bd
000000f0: 4c6c ee3d a01e 8ebd 4801 89bd 9830 d9bc
00000100: 956e 333d 5c8e 2fbe f019 343e 1221 bbbc
00000110: 87e2 8dbd fd62 ed3d c4a8 0abe fa64 71bc
00000120: ccf6 e6bd cbdb 90bd 8925 9d3d 24fe 7c3d
00000130: e3c7 053e 5f73 a63d 4689 0e3c 62e9 1ebe
00000140: efe2 943d f90c acbc 0e5a 05bb e92e 873d
00000150: 9540 993d b130 37bd 7966 1ebd 4e68 a1bd
00000160: ce2e 493d 2314 513d 3c7f dbbd 65d4 ecbd
00000170: 2471 32be c6ee 3f3d d686 873d c0b2 05be
00000180: 646b 1d3e 316b 37bd a872 acbd 9a39 113e
00000190: b77f 003d 6634 813c 2fc1 ddbd 9a30 a2bc
000001a0: 67ac c1bd 78a4 a8bd 957c febb af86 ea3d
000001b0: c70f ff3c 28cb 8e3b c346 bd3d e25b dabc
000001c0: 675f a53d b840 763b 2b47 16be 3225 42bd
000001d0: bc81 f83c a06e 1bbe baa0 ca3d 5b62 b23d
000001e0: cec2 14be 36e7 07be 5527 923d 1232 833d
000001f0: 877e c9bd 92b9 a63d 7600 17bd e991 023e
00000200: 3891 21be 1dac db3d 1fb6 083d 739c f9bc
00000210: aa60 32be 347a 193e 1015 70bc 1de5 1d3e
00000220: f7ef 41be 875d febd 080c 5a3d 9140 cc3c
00000230: b241 0e3e e1c6 d9bd 43ff 873d 433c c3bd
00000240: 04db 2f3d cc84 28bd 8faa 873d 08e1 0e3e
00000250: efac 033e ef35 1f3e c7ca 6bbc 97f5 1d3c
00000260: f425 93bd 0ea7 bdbd fd7d ffbd 59df 723d
00000270: 308d 033e 8de6 8c3d 16fe c13d bace 0c3e
00000280: 5f76 213e 9b23 46bc 024e 663d 897b 88bd
00000290: 4550 dabd 3de6 5a3d 35ee 3dbe ace8 34be
000002a0: 6caa 12bd 988d 0e3e 436d 4fbd 1924 813d
000002b0: 4f9d 3fbe e93b b9bd 6820 26be a174 f4bd
000002c0: fdf7 06be 7d10 bbbd 485f 10be 2641 773d
000002d0: 67e8 66bd 761c 013e ee74 40be 4ca3 b43d
000002e0: fa30 efbd 1130 1f3c 77b4 77bd 50f5 0abe
000002f0: f8ea 653d 181d ad3d c3e5 113e 203d edbb
00000300: ad03 47bc 4000 0bbe bfbc 08be 56ef 2f3e
00000310: a020 1abc 7fc5 543e 18b9 753e 2c11 dabd
00000320: 06e6 e5bc e782 8b3c 2544 e8bb c9e9 3ebb
00000330: 79f2 dbbc 6296 3dbd 14c4 663d ba82 643d
00000340: 2b55 f6bd 2c6d 0a3e dd9a 363e 46ff f63d
00000350: 757e 36bc 7ab2 58bd 44c6 dd3d 5671 1bbe
00000360: 6139 1fbe acd8 0d3e 6fd4 063e 04a6 8c3e
00000370: 5ee4 d63d 2baf 0b3e 4f1b 243e afbd ebbb
00000380: 10f0 46bd 2d3f e33d a728 253d c7fa 0b3e
00000390: d812 8cbc 0a43 babb 20e5 8dbd 80c4 93bd
000003a0: 76b0 24be 4f69 88bd 6d0a 04be fd49 e23c
000003b0: 966a 27be 68d9 99bc c5be 13be 4564 0ebe
000003c0: b2bd 06be 294c 583d d7d8 23be a552 0fbe
000003d0: acf7 ba3d acf5 ba3d ade6 86bd 704f c6b9
000003e0: bb72 52bd f53b 193e 8de9 bcbd d037 29bd
000003f0: f002 22be 4634 04be f978 7a3c 5b6a 1dbe

context_encoder.2.bias f4 [16]
0.12695797 0.11444063 -0.14940387 -0.12070959 -0.16375594 0.13273399 0.16623709 0.01826499
0.008101722 0.03270092 0.25603324 -0.05591441 0.1366632 -0.07570777 -0.040982973 -0.17987145
00000000: 4501 023e d95f ea3d 54fd 18be 9736 f7bd
00000010: a3af 27be 6beb 073e 0e3a 2a3e 76a0 953c
00000020: 16bd 043c 66f1 053d ca16 833e 8206 65bd
00000030: 70f1 0b3e ad0c 9bbd c3dd 27bd 3930 38be
