hierarchical_agent_final.pth (torch, 112125 bytes, 50 tensors)

network.0.weight f4 [64, 10]
0	0x3e6bc1f3	0.23023205
1	0x3e82075c	0.2539624
2	0xbd8f83c6	-0.07007556
3	0x3e91166c	0.2833742
4	0xbd9b1826	-0.07572965
5	0x3d6afbf0	0.057369173
6	0xbe22de43	-0.15905099
7	0x3e3230cb	0.17401426
8	0x3e8c1f10	0.2736745
9	0xbe788765	-0.24270399
10	0x3e90341e	0.28164762
11	0x3d771ef8	0.06033227
12	0x3e6fda03	0.23423009
13	0x3d124ac8	0.03571585
14	0x3e1d02bd	0.15333076
15	0xbd7705c3	-0.06030823
16	0x3e75019d	0.23926397
17	0x3d5ed3aa	0.054401077
18	0xbe1bca66	-0.15213928
19	0x3dae333e	0.085058674
20	0xbe17fc81	-0.14842416
21	0xbd25e1e4	-0.04049863
22	0xbe038565	-0.12843855
23	0x3e53920c	0.20661181
24	0xbe7f9c96	-0.24962077
25	0xbe13c359	-0.14429988
26	0xbdb897fa	-0.09013362
27	0xbe458a50	-0.19291043
28	0x3ceda183	0.029007679
29	0xbe9edd98	-0.31028438
30	0x3e89dffb	0.26928696
31	0xbe91187b	-0.2833899
32	0x3e6f99e0	0.23398542
33	0x3d2c68d9	0.042092178
34	0xbde7f8ff	-0.11326789
35	0x3e3bacff	0.18327712
36	0x3d12a46f	0.035801347
37	0x3e750c0e	0.2393038
38	0x3cacbeb9	0.021087037
39	0xbde64879	-0.11244292
40	0x3d79c9a9	0.060983334
41	0xbddbf454	-0.10739961
42	0x3e01fe3f	0.12694643
43	0x3e87e2c9	0.2654021
44	0x3e29635c	0.16541809
45	0xbe0c907a	-0.13726988
46	0x3e2e6c3b	0.17033474
47	0x3d05e297	0.032686796
48	0x3e17f0ba	0.14837924
49	0xbe55cf9e	-0.20879981
50	0xbe9ce938	-0.30646682
51	0xbdf36182	-0.118838325
52	0xbe7e0f3e	-0.24810502
53	0x3e81b1db	0.25331005
54	0x3db69b13	0.08916297
55	0x3e03ca09	0.12870039
56	0x3dc4c5eb	0.09608062
57	0x3b2a2700	0.0025963187
58	0x3e7965cf	0.24355243
59	0xbe661b03	-0.22471242
60	0x3caa3c5d	0.020780737
61	0xbe5cc239	-0.21558465
62	0x3dac397f	0.08409404
63	0xbde49ac8	-0.11162335
64	0x3dbeda5c	0.093189925
65	0xbd892ece	-0.066983804
66	0x3e82f50d	0.25577584
67	0xbe3dacd6	-0.18522963
68	0xbe47c7e4	-0.19509846
69	0xbe46c18b	-0.19409768
70	0x3e8c00f2	0.2734447
71	0x3dc16f44	0.0944505
72	0x3e9764b1	0.2956901
73	0xbe873124	-0.2640468
74	0xbea03008	-0.31286645
75	0xbe7e0fc4	-0.24810702
76	0xbe61b053	-0.22039919
77	0x3defc5bc	0.11707637
78	0x3dd82e84	0.10555747
79	0x3e83a050	0.25708246
80	0xbe26052f	-0.16212915
81	0xbe5d210b	-0.21594636
82	0x3e239341	0.15974142
83	0xbe05d1c6	-0.13068303
84	0x3e3f3f87	0.18676578
85	0xbda5d0fc	-0.08096501
86	0x3e3330a2	0.1749902
87	0xbe787e68	-0.2426697
88	0xbe29766f	-0.16549085
89	0x3db750e9	0.08950979
90	0x3d5893f0	0.05287546
91	0xbdc1df10	-0.09466374
92	0x3e33825f	0.17530201
93	0x3e4d8939	0.20071878
94	0xbe78a360	-0.24281073
95	0xbe31d2ff	-0.17365645
96	0x3e8dc45b	0.2768887
97	0xbdf3c1e2	-0.119022146
98	0xbdff8b09	-0.12477691
99	0xbea39ad0	-0.3195405
100	0xbe3970c4	-0.18109423
101	0x3da1c80e	0.078994855
102	0xbd2af777	-0.041739907
103	0xbe6b0dec	-0.2295453
104	0x3bf30fd2	0.0074176574
105	0xbe5d318d	-0.21600933
106	0xbe895cdc	-0.2682866
107	0xbe325066	-0.17413482
108	0xbe8db452	-0.27676636
109	0xbe4e2fcf	-0.20135425
110	0x3e9f4178	0.31104636
111	0x3d5fed81	0.05466986
112	0x3dbd3777	0.09239095
113	0xbe970277	-0.29494068
114	0xbe54acb7	-0.2076901
115	0xbdd791a3	-0.10525825
116	0x3d35d387	0.04439118
117	0xbe910e6f	-0.28331324
118	0xbe10b3bc	-0.14131063
119	0xbe4709b3	-0.19437294
120	0x3a65bac6	0.0008763488
121	0xbdf0fca3	-0.11766937
122	0xbcb38368	-0.021913245
123	0xbe5b6d9d	-0.21428533
124	0xbe5e443f	-0.21705721
125	0xbe3cea62	-0.18448785
126	0xbdddaf01	-0.10824395
127	0xbe7f952f	-0.24959253
128	0x3e87c168	0.26514745
129	0xbd80883b	-0.06275984
130	0x3e8740a3	0.264165
131	0x3dbcd300	0.092199326
132	0xbe891a8e	-0.26778072
133	0x3e599fef	0.21252416
134	0xbdb2317a	-0.08700843
135	0xbded3877	-0.115830354
136	0xbe8a72e0	-0.27040768
137	0xbea5042f	-0.32229754
138	0x3da91552	0.0825602
139	0xbda0ba2d	-0.0784801
140	0x3dfeec17	0.12447374
141	0xbe821b17	-0.25411293
142	0x3e74f8a9	0.23922981
143	0xbe6d72c2	-0.23188308
144	0xbd37e994	-0.04490049
145	0x3d86f9ba	0.065906
146	0x3e2adc63	0.16685633
147	0x3e84537a	0.25844938
148	0x3e955645	0.2916738
149	0xbe7a36ca	-0.24434963
150	0x3d9b3ddd	0.07580159
151	0xbe10c8b6	-0.14139065
152	0xbd3ef032	-0.046615787
153	0xbe75ce74	-0.24004537
154	0x3e8f061e	0.27934355
155	0xbe6a6625	-0.22890528
156	0x3e26fcf1	0.16307427
157	0x3ddd3476	0.10801022
158	0x3dc64cc2	0.09682609
159	0xbe3b1744	-0.18270594
160	0x3e8ac53c	0.27103603
161	0x3d4da06d	0.050201822
162	0x3cf7ec52	0.030264053
163	0xbe94eea0	-0.29088306
164	0x3e04c6c5	0.1296645
165	0xbd7282c3	-0.059206735
166	0xbe1d5d22	-0.15367559
167	0x3e829ae4	0.25508797
168	0x3d7cb7b7	0.06169864
169	0xbe424bff	-0.18974303
170	0xbe23e581	-0.16005518
171	0xbc776d0e	-0.015101684
172	0x3e34ce98	0.17656934
173	0xbda57e15	-0.08080689
174	0xbe38c311	-0.18043162
175	0xbdddc71e	-0.10828994
176	0xbe71ea6c	-0.23624581
177	0x3de6f7ad	0.11277709
178	0x3e7aa5c7	0.24477302
179	0xbe986d64	-0.29770958
180	0x3d9572f1	0.07297314
181	0x3e2496a0	0.16073084
182	0x3d6f2155	0.058381397
183	0xbde9aad9	-0.1140954
184	0x3e27645e	0.16346881
185	0x3e1e77fa	0.15475455
186	0x3de9ce52	0.114163056
187	0xbd63a5f8	-0.055578202
188	0xbdb3db4a	-0.087820604
189	0x3d186f4d	0.03721552
190	0xbd757f10	-0.05993563
191	0xbdc13892	-0.09434618
192	0x3e41848c	0.18898219
193	0x3e8be596	0.27323598
194	0xbd0c71c3	-0.03428818
195	0xbd6e3bca	-0.058162488
196	0x3b6e7b62	0.003638946
197	0xbcb7b48b	-0.022424957
198	0x3d99b366	0.07504921
199	0x3da025d7	0.078197174
200	0xbe930dfa	-0.287216
201	0xbdef0066	-0.11669998
202	0x3e885918	0.26630473
203	0x3dfc4a0b	0.1231881
204	0xbc80d8d9	-0.015728401
205	0xbe433b35	-0.19065554
206	0xbe461cef	-0.19346975
207	0xbe910849	-0.28326634
208	0xbdd31ac0	-0.103078365
209	0x3ddab578	0.10679144
210	0x3e4075fe	0.1879501
211	0x3e0c936e	0.13728115
212	0xbe900f10	-0.28136492
213	0xbe4c7a81	-0.19968607
214	0xbd622607	-0.055212047
215	0x3e97777d	0.2958335
216	0x3d206685	0.03916027
217	0xbdc47422	-0.09592463
218	0x3dfe7383	0.12424376
219	0xbded1e0c	-0.115779966
220	0xbe4f4db6	-0.20244488
221	0x3e6c7422	0.23091176
222	0xbe18e34d	-0.14930458
223	0xbd816f62	-0.06320073
224	0xbea3d15f	-0.31995675
225	0x3e53d83b	0.20687954
226	0x3e71ec60	0.23625326
227	0x3df17fdf	0.117919676
228	0xbe653380	-0.22382927
229	0xbea20c6d	-0.31650105
230	0xbe878d14	-0.26474822
231	0x3e6b1e9c	0.22960895
232	0x3e23596d	0.15952082
233	0x3e87541e	0.26431364
234	0x3e2af8d8	0.16696489
235	0x3d9ca098	0.07647818
236	0xbadaed15	-0.0016702736
237	0xbe7fa920	-0.2496686
238	0xbe89fd0b	-0.2695087
239	0xbe939cbe	-0.28830522
240	0x3e037318	0.12836874
241	0xbe1d90b6	-0.15387234
242	0xbd57f079	-0.052719567
243	0xbe39f945	-0.18161495
244	0xbd77ad09	-0.060467754
245	0xbe64a1fe	-0.2232742
246	0xbe54b234	-0.20771104
247	0x3dd49c0a	0.103813246
248	0xbdc2b160	-0.09506488
249	0x3e46089e	0.19339225
250	0xbdee8c31	-0.11647833
251	0xbe76e954	-0.24112445
252	0xbd77510c	-0.060380027
253	0xbe22176a	-0.15829244
254	0xbdd5216c	-0.10406765
255	0xbe987743	-0.2977849

network.0.bias f4 [64]
0	0x3d5fc9e4	0.054635897
1	0xbe964a44	-0.29353535
2	0x3e8c1f30	0.27367544
3	0x3e3b1598	0.18269956
4	0xbea93589	-0.33048657
5	0xbe188d6a	-0.14897695
6	0x3dcdd0c6	0.10049586
7	0xbd9b1f02	-0.07574274
8	0xbd1724b3	-0.036900233
9	0xbe210fbe	-0.15728661
10	0x3e820c55	0.25400034
11	0xbe3a313d	-0.18182845
12	0x3e86445e	0.26224035
13	0x3c4c97d5	0.012487371
14	0x3d87d1cf	0.06631815
15	0x3e7716ad	0.24129744
16	0xbd8a214b	-0.067446314
17	0xbe385cf9	-0.18004216
18	0xbd5da07a	-0.05410812
19	0x3e811e02	0.25218207
20	0xbe7044af	-0.234637
21	0x3d7b040a	0.06128315
22	0xbe9fe51f	-0.31229493
23	0x3e260eae	0.16216537
24	0x3ded0fed	0.11575303
25	0x3b678c50	0.0035331436
26	0x3e061193	0.13092642
27	0xb8d23b34	-0.00010024608
28	0x3e332f68	0.17498553
29	0xbe802b91	-0.2503324
30	0xbd24630d	-0.040133525
31	0x3e06038e	0.13087294
32	0x3ea13b38	0.31490493
33	0x3e17fc4d	0.14842339
34	0xbe7438f8	-0.23849857
35	0x3e846ecc	0.2586578
36	0xbd8e0e0a	-0.069362715
37	0xbd81b25d	-0.06332848
38	0xbe8edc26	-0.27902335
39	0xbd4be4d5	-0.049778778
40	0x3e650b6b	0.22367637
41	0x3d199fa7	0.037505772
42	0xbe4487c5	-0.19192417
43	0x3de660cc	0.11248931
44	0xbdc5e0ae	-0.09661995
45	0x3e8fa048	0.28051972
46	0xbe8c8782	-0.27447134
47	0xbdbb8d46	-0.09157805
48	0xbe9cff6e	-0.30663627
49	0xbe00f8ee	-0.12594959
50	0x3daa918c	0.08328542
51	0x3e9f17a4	0.31072724
52	0x3d1f52a9	0.03889719
53	0x3ea3a9a3	0.3196536
54	0x3d8d5d27	0.06902533
55	0x3e4098dc	0.18808311
56	0x3e7b168d	0.24520321
57	0x3e856ab0	0.2605796
58	0xbe2fd673	-0.1717165
59	0x3e959584	0.29215634
60	0x3e383389	0.17988409
61	0xbe16fc9d	-0.14744802
62	0xbe1a86d4	-0.15090495
63	0xbe87ccdc	-0.26523483

network.2.weight f4 [32, 64]
0	0x3d600894	0.05469568
1	0xbdc97f97	-0.09838789
2	0x3d59fe06	0.05322077
3	0x3d43bb84	0.04778625
4	0xbddc9e90	-0.10772431
5	0x3d03dc0f	0.032192286
6	0xbc454152	-0.012039499
7	0x3d88abd8	0.066734016
8	0x3d893313	0.06699195
9	0xbe00a4e4	-0.12562901
10	0x3deac6fe	0.11463736
11	0x3de10c48	0.109886706
12	0x3d4bb768	0.049735457
13	0xbdd229bc	-0.102618665
14	0xbd331f06	-0.043730758
15	0xbd02d4f7	-0.03194138
16	0xbc9d6350	-0.019212395
17	0x3d905d44	0.07049039
18	0x3d42795f	0.04747903
19	0x3dd6951f	0.10477661
20	0xbd3fc180	-0.046815395
21	0x3d4e12e6	0.05031099
22	0x3d2f31bb	0.042772036
23	0xbdd1de4e	-0.102474794
24	0xbdf2163a	-0.11820646
25	0xbd914223	-0.07092693
26	0x3db1df4d	0.08685169
27	0xbde072fc	-0.109594315
28	0xbdded4c0	-0.108804226
29	0x3d8f694e	0.07002507
30	0x3d9d1e8f	0.07671844
31	0x3de30a5d	0.11085961
32	0xbdc143aa	-0.09436734
33	0xbd9da8d6	-0.076982185
34	0x3d65a8e2	0.056069262
35	0x3de9af19	0.1141035
36	0x3d987d24	0.07445744
37	0x3d1e95fa	0.038717248
38	0x3d1ad7ef	0.037803587
39	0x3df2f9f8	0.11864084
40	0xbda52c1c	-0.08065054
41	0xbd484c0d	-0.048900653
42	0x3dba0945	0.09083799
43	0xbd87013e	-0.06592034
44	0xbd4c067e	-0.04981088
45	0x3ddee36b	0.1088322
46	0x3d218c1c	0.03944026
47	0x3d6c83da	0.05774293
48	0xbd580846	-0.052742265
49	0x3bbc4b61	0.0057462906
50	0x3de4652e	0.11152111
51	0xbd9e75a8	-0.07737285
52	0x3be8ec76	0.0071082665
53	0x3d9b97a4	0.075972825
54	0xbdaa9000	-0.08328247
55	0x3e031e02	0.12804416
56	0xbd6b8069	-0.05749551
57	0xbc956e2e	-0.018241014
58	0xbd05510c	-0.032547995
59	0xbd6ae0a6	-0.057343148
60	0xbdf6775d	-0.120344855
61	0x3d94254e	0.07233678
62	0x3d080670	0.033209264
63	0xbdefc512	-0.1170751
64	0xbda90817	-0.08253496
65	0x3e025505	0.12727745
66	0x3d3af6db	0.045645576
67	0x3d4f09aa	0.050546326
68	0xbd941232	-0.07230033
69	0xbd6ebf70	-0.058288038
70	0xbc78674b	-0.015161346
71	0xbd00d904	-0.031456962
72	0xbda23d19	-0.0792181
73	0x3c28a27a	0.010292644
74	0x3c4b8bf0	0.0124235
75	0xbcab1338	-0.020883188
76	0x3c8df580	0.017328978
77	0xbd542401	-0.05179215
78	0x3d0e1454	0.034687355
79	0x3d584f0e	0.052809767
80	0xbd95f1f3	-0.07321539
81	0xbdfdd820	-0.12394738
82	0x3d8c0446	0.068367526
83	0x3d06beb8	0.032896727
84	0xbd8232d2	-0.063573495
85	0x3de9ac10	0.114097714
86	0xbd822ae8	-0.0635584
87	0x3da5ddd6	0.080989525
88	0x3d5eab7e	0.054362766
89	0xbdc82977	-0.09773534
90	0x3da52490	0.08063614
91	0xbdf6b698	-0.12046546
92	0xbd8dd3e8	-0.069251835
93	0xbcaab750	-0.020839363
94	0xbdb00fc6	-0.085967585
95	0x3dfeedb1	0.1244768
96	0xbccd64c0	-0.025072455
97	0x3d5244b7	0.051335063
98	0xbdd907df	-0.105972044
99	0x3d979a18	0.07402438
100	0xbd1afde0	-0.03783977
101	0xbdc873d5	-0.09787718
102	0x3caa5419	0.020792054
103	0x3d780b60	0.060557723
104	0x3ddd8aaa	0.10817464
105	0xbd96a41e	-0.073555216
106	0xbd6c84be	-0.05774378
107	0x3ca3d07f	0.01999688
108	0x3d0628aa	0.032753624
109	0x3d36e94c	0.044656083
110	0x3d8c8316	0.0686094
111	0xbd3046a4	-0.04303612
112	0x3d95e6ff	0.0731945
113	0x3dbe1494	0.09281269
114	0xbd225989	-0.03963617
115	0x3dbe3839	0.09288067
116	0x3d84bfc2	0.064818874
117	0x3de5f778	0.112288415
118	0xbd8c0262	-0.06836392
119	0xbd6cd1e7	-0.057817366
120	0xbd528e4a	-0.05140523
121	0x3bd75d30	0.006572388
122	0x3da556b0	0.08073175
123	0xbd90cb41	-0.070700176
124	0x3d531cbe	0.051541083
125	0xbd31f989	-0.043450866
126	0x3d9aa6e8	0.07551366
127	0xbbc27780	-0.0059346557
128	0xbdb533ae	-0.08847748
129	0xbd936779	-0.0719747
130	0xbda95a99	-0.08269233
131	0x3d85f708	0.06541258
132	0xbdb81564	-0.08988455
133	0xbc93a534	-0.01802311
134	0x3ca47034	0.020073034
135	0xbd7c22dd	-0.061556686
136	0x3cdab580	0.026697874
137	0xbe047969	-0.1293694
138	0xbdb72b90	-0.08943856
139	0xbddd9db3	-0.10821094
140	0xbd1ade50	-0.03780967
141	0xbd116d68	-0.03550473
142	0x3c745e98	0.014915131
143	0xbcbd0e65	-0.023078153
144	0x3d8b7101	0.06808663
145	0x3deab31a	0.11459942
146	0x3d2e3945	0.042535085
147	0xbd556c90	-0.052105486
148	0xbdefb6f8	-0.117048204
149	0x3d6a0669	0.05713502
150	0xbd88a7ea	-0.06672652
151	0x3d6a84fc	0.05725573
152	0x3dbd2e4f	0.09237348
153	0x3d18a658	0.037268013
154	0x3dfc294c	0.12312564
155	0x3dfd4e0c	0.12368402
156	0x3cd8d258	0.026467487
157	0xbdba87f0	-0.09107959
158	0x3df79e0e	0.120906934
159	0xbd688964	-0.05677165
160	0xbd71d854	-0.059044197
161	0x3df0a78b	0.11750706
162	0x3daf8f26	0.08572225
163	0x3d140c23	0.036144387
164	0x3b9b3dc4	0.0047375876
165	0xbdb23adf	-0.08702635
166	0xbc8e2ae7	-0.017354442
167	0x3df5894e	0.119890794
168	0x3d0262a4	0.031832352
169	0x3c831bb6	0.016004425
170	0xbcd0a79f	-0.025470553
171	0xbcdab23c	-0.026696317
172	0x3db222a2	0.08698012
173	0x3cbd8871	0.02313635
174	0x3da68c08	0.081321776
175	0xbba58bd3	-0.0050520687
176	0x3d428b89	0.047496352
177	0x3d59b39f	0.053149816
178	0x3ca02b16	0.019551795
179	0x3d9266ff	0.07148551
180	0x3d9e9919	0.07744045
181	0x3e02e8fe	0.12784192
182	0x3dbf0d4b	0.09328707
183	0xbd05bd5c	-0.03265129
184	0xbdced011	-0.10098279
185	0x3d060ccb	0.032727044
186	0xbab55b4d	-0.0013836414
187	0xbc804392	-0.01565722
188	0xbc4e68f1	-0.012598262
189	0x3ad9bb91	0.0016611685
190	0x3dbac906	0.091203734
191	0x3d1f9c8c	0.038967654
192	0xbd24dfa0	-0.040252328
193	0xbd60d408	-0.05488971
194	0xbcfd9310	-0.030953914
195	0xbd5bc7b5	-0.053657252
196	0x3ddbb602	0.107280746
197	0x3d74e878	0.059792012
198	0x3dddf8db	0.10838481
199	0x39d14c00	0.0003992021
200	0x3ca6597f	0.020306347
201	0x3d153db4	0.036435798
202	0xbdf2514e	-0.11831914
203	0x3c36e120	0.011162072
204	0xbc08fda0	-0.00836125
205	0xbd8f8706	-0.070081756
206	0xbdd01a59	-0.101612754
207	0x3ddefc3a	0.10887952
208	0x3dd7b9cf	0.10533487
209	0x3d6d4bc4	0.057933584
210	0x3debb1a3	0.11508491
211	0xbd6c241d	-0.057651628
212	0xbcb0de38	-0.021590337
213	0x3d43ea4f	0.047830876
214	0xbce5cc13	-0.028051412
215	0xbd029acc	-0.031885907
216	0xbdc78c16	-0.09743516
217	0x3cf0b60d	0.029383684
218	0xbda479bd	-0.08031032
219	0x3ba4fe50	0.005035199
220	0x3df99800	0.12187195
221	0xbd1d99f8	-0.038476914
222	0xbd2160d0	-0.03939897
223	0x3d95deae	0.073178634
224	0xbd3c3d0c	-0.045956656
225	0xbbaefa54	-0.0053399
226	0x3de55b84	0.11199096
227	0xbd68eefb	-0.056868535
228	0xbdb8830f	-0.090093724
229	0xbd89befe	-0.06725882
230	0xbd0df324	-0.034655705
231	0xbd72f180	-0.059312344
232	0xbd84d8b6	-0.06486647
233	0x3d53c37a	0.051700093
234	0x3cba3792	0.022731576
235	0xbd23df1c	-0.040007696
236	0xbdbcb1d3	-0.09213605
237	0xbd0d51eb	-0.03450195
238	0xbd581584	-0.052754894
239	0xbd269d50	-0.04067737
240	0xbdf22b4e	-0.11824666
241	0x3cb46c6f	0.022024361
242	0xbdb2e335	-0.087347426
243	0xbdd1ae50	-0.102383256
244	0xbdd7e5a8	-0.1054185
245	0x3d6d2ccd	0.057904053
246	0xbda30d9d	-0.07961581
247	0xbd5bf125	-0.05369677
248	0x3dc8a9c8	0.09798008
249	0x3d929ff6	0.071594164
250	0x3d92c9c4	0.0716739
251	0xbdea70ce	-0.11447297
252	0xbdad46db	-0.0846078
253	0xbd517337	-0.051135268
254	0x3dd37b22	0.1032622
255	0x3c5182e0	0.012787551

network.2.bias f4 [32]
0	0x3e0c932e	0.1372802
1	0x3d98140b	0.07425698
2	0x3da6622c	0.081241935
3	0xbd3280f5	-0.043580014
4	0x3e02ad01	0.12761308
5	0x3ceef8dd	0.029171402
6	0x3d896cb6	0.06710188
7	0xbd05941a	-0.032611944
8	0x3db494bc	0.08817431
9	0x3ddd32fa	0.10800739
10	0xbdc4290c	-0.095781416
11	0x3de69d7b	0.11260506
12	0xbd976de8	-0.0739401
13	0xbdbcabfa	-0.092124894
14	0xbde0a2da	-0.109685615
15	0x3ceec001	0.029144289
16	0xbdd44ad4	-0.10365835
17	0xbd3ee9ce	-0.046609692
18	0xbd8f4f4c	-0.069975466
19	0x3d027b4d	0.03185587
20	0xbdfb54b2	-0.12272014
21	0xbd9ad750	-0.07560599
22	0x3a9d7f57	0.00120161
23	0x3c4167a2	0.011804493
24	0xbd7faa0c	-0.06241803
25	0x3d3e4325	0.046450753
26	0xbda8e5a4	-0.082469255
27	0xbde25c5f	-0.11052775
28	0xbcb99458	-0.022653744
29	0xbd9d3e9e	-0.07677959
30	0x3da7f2fb	0.08200642
31	0xbdbd0938	-0.09230274

network.4.weight f4 [4, 32]
0	0xbcc629f3	-0.024189925
1	0x3d982a46	0.07429938
2	0xbe19b0e3	-0.15008883
3	0x3e0acb5c	0.13554138
4	0xbd9c3355	-0.07626978
5	0xbd450883	-0.04810382
6	0xbdd081cb	-0.10181006
7	0xbd8223be	-0.063544735
8	0xbd86d003	-0.06582644
9	0xbe1cc20a	-0.15308395
10	0x3d776c37	0.060405936
11	0xbab481a5	-0.0013771547
12	0x3e321631	0.17391278
13	0x3df5a5ca	0.119945124
14	0x3e22d2e9	0.15900768
15	0x3d3e2e32	0.046430774
16	0x3dc7c92f	0.097551696
17	0x3e2cd077	0.16876398
18	0x3e18161e	0.14852187
19	0xbe045610	-0.12923455
20	0xbd225bea	-0.039638437
21	0xbe290b9a	-0.16508332
22	0x3c0a233b	0.008431251
23	0xbd726df3	-0.059186887
24	0x3e170076	0.1474627
25	0x3cdf12eb	0.0272307
26	0x3aff02ed	0.0019455828
27	0xbdf82a32	-0.12117423
28	0xbe08444a	-0.133073
29	0x3cfcc4a7	0.03085549
30	0xbda92827	-0.082596116
31	0xbd962615	-0.07331482
32	0x3e12f5f1	0.14351632
33	0xbdaec832	-0.08534278
34	0xbda1e13c	-0.07904288
35	0x3e109c27	0.14122067
36	0x3d8ba2e0	0.06818175
37	0xbdbdc9f0	-0.09267032
38	0x3d6e6623	0.058202874
39	0x3daa3545	0.083109416
40	0xbe1ac4ec	-0.15114182
41	0x3d0224f2	0.031773515
42	0x3d256e10	0.040388167
43	0x3b55b174	0.003260699
44	0x3e269517	0.16267811
45	0xbdfd9b68	-0.12383157
46	0x3dcef703	0.101057075
47	0xbda51856	-0.08061282
48	0xbe161e45	-0.14659984
49	0x3e03c634	0.12868577
50	0xbda061d0	-0.07831156
51	0xbb67b7f4	-0.0035357447
52	0x3dbe65a2	0.09296729
53	0xbe0ac2ec	-0.1355092
54	0xbe15bc94	-0.14622718
55	0x3d860a7e	0.0654497
56	0x3e17ba42	0.14817145
57	0xbcb0a7d8	-0.02156441
58	0x3dfef49b	0.124489985
59	0x3d61dfe2	0.055145152
60	0x3d5bc411	0.05365378
61	0xbdd49b41	-0.10381175
62	0x3e23ea9c	0.16007465
63	0x3d95a121	0.073061235
64	0x3d019f97	0.031646337
65	0x3e000795	0.12502892
66	0xbe1645fa	-0.14675131
67	0x3d0aa43a	0.033848025
68	0xbdaa1b54	-0.08305994
69	0xbcae6424	-0.021287985
70	0x3d7b20f6	0.06131073
71	0x3d96184d	0.07328854
72	0x3d201f72	0.03909249
73	0xbe07d196	-0.13263544
74	0xbde29359	-0.110632606
75	0x3931d9c0	0.00016961154
76	0xbcd055bf	-0.025431512
77	0xbe11e540	-0.14247608
78	0x3e2cfbfa	0.16892996
79	0x3c981585	0.018564949
80	0xbdfb32c0	-0.12265539
81	0x3d9ede39	0.07757229
82	0x3dafaf75	0.08578388
83	0xbdb04025	-0.086059846
84	0x3db58acd	0.08864365
85	0xbddc4c02	-0.10756685
86	0x3d670249	0.056398664
87	0x3e27c3bf	0.16383265
88	0x3de2c6f8	0.110731065
89	0x3daa5964	0.08317831
90	0xbd135080	-0.035965443
91	0x3d1efc65	0.03881492
92	0x3d6b0a44	0.057382837
93	0x3d4e3f1f	0.050353166
94	0xbcf5f0ff	-0.030022142
95	0x3d03b4d2	0.032154866
96	0xbdb162ef	-0.08661448
97	0xbddadde0	-0.106868505
98	0xbe2c33a6	-0.16816577
99	0xbe10a9b9	-0.14127244
100	0xbde9dbce	-0.114188775
101	0x3e2c5e45	0.16832836
102	0x3cee58d5	0.029095093
103	0xbe182a3b	-0.1485986
104	0xbdbd4aad	-0.09242759
105	0x3d0db2da	0.034594394
106	0xbd58b88c	-0.052910373
107	0xbd69589c	-0.05696927
108	0xbd883bee	-0.06652056
109	0xbd2c06e3	-0.041998755
110	0x3cd15da8	0.025557354
111	0x3c1d940d	0.009617818
112	0x3dd459dd	0.103687026
113	0x3dd96633	0.10615196
114	0x3e0e28f4	0.1388281
115	0x3a96c76a	0.0011503522
116	0xbda1a84c	-0.07893428
117	0xbc7abae9	-0.015303352
118	0xbdefa78f	-0.11701881
119	0x3d8a2107	0.06744581
120	0xbc7bb644	-0.01536328
121	0xbd3f3c94	-0.04668863
122	0xbe197868	-0.14987338
123	0x3da50dfc	0.08059308
124	0x3dc2442d	0.0948566
125	0x3e1cc38a	0.15308967
126	0xbd894c6f	-0.06704032
127	0x3d49b115	0.049241144

network.4.bias f4 [4]
0	0x3bda3d39	0.0066601303
1	0xbdd1ab92	-0.102378026
2	0xbdddc675	-0.10828868
3	0x3da244b5	0.07923261

player_encoder.0.weight f4 [64, 6]
0	0xbe647138	-0.22308815
1	0x3e9861de	0.29762167
2	0x3e12dafa	0.14341345
3	0x3e0f78c7	0.14010917
4	0x3e874447	0.2641928
5	0x3e4ebafb	0.20188515
6	0x3e344bca	0.17607036
7	0x3e58e65d	0.21181627
8	0xbe3167ac	-0.17324704
9	0xbe5daea3	-0.2164865
10	0xbd992c61	-0.07479168
11	0x3e681606	0.22664651
12	0x3e92580f	0.28582808
13	0x3e951beb	0.29122862
14	0xbe120170	-0.14258361
15	0xbd860b2c	-0.065450996
16	0xbe9021ab	-0.28150687
17	0x3e7b46e6	0.24538764
18	0xbe8a7d2b	-0.2704862
19	0xbe26d9d2	-0.1629403
20	0x3eb208dd	0.34772387
21	0x3de1ffd6	0.11035125
22	0xbe29d24e	-0.16584131
23	0xbe88bed6	-0.26708096
24	0xbe9130a8	-0.28357434
25	0x3eab0cd6	0.3340823
26	0xbebbe453	-0.36697635
27	0x3eb7d133	0.35901794
28	0x3eaa73dd	0.33291522
29	0x3cc972dc	0.024590902
30	0xbd24a696	-0.04019793
31	0x3ea28aa0	0.31746387
32	0x3e3681f4	0.1782301
33	0x3ec41ccd	0.38303223
34	0x3ea95bb6	0.33077782
35	0xbe8b0486	-0.2715189
36	0x3e7b2177	0.24524485
37	0x3e56935c	0.2095465
38	0xbe960972	-0.2930408
39	0x3e459605	0.19295509
40	0xbe52154d	-0.20515938
41	0xbe72718c	-0.23676127
42	0xbaac386f	-0.0013139377
43	0xbd2420ba	-0.040070273
44	0xbdc998b8	-0.09843582
45	0xbe837950	-0.25678492
46	0x3e69c1fe	0.22827908
47	0x3ed70b6c	0.42000902
48	0xbdafd0d9	-0.085847564
49	0xbe8d5fd3	-0.2761217
50	0xbcb51665	-0.022105405
51	0xbeb6242b	-0.3557447
52	0xbeaa4740	-0.33257484
53	0xbe0c5720	-0.1370511
54	0x3e8642fa	0.26222974
55	0xbe9f7f88	-0.31151986
56	0xbd6f8a38	-0.058481425
57	0xbe54865f	-0.20754384
58	0xbec0a54e	-0.37626117
59	0xbdbbde3c	-0.09173247
60	0xbd0329c8	-0.032022268
61	0xbd8fcc43	-0.07021382
62	0x3e9694cb	0.29410395
63	0x3e23b9fe	0.15988919
64	0x3e84f2a1	0.2596636
65	0x3e2586d1	0.1616471
66	0x3d3fce22	0.046827443
67	0x3e51c067	0.20483552
68	0xbe8d7eb9	-0.27635744
69	0x3e445dda	0.19176427
70	0x3e365fde	0.17810008
71	0xbe416a00	-0.18888092
72	0xbcccb0e6	-0.024986695
73	0xbe9904a2	-0.29886347
74	0xbeb1cd7e	-0.3472709
75	0x3c1be53b	0.009515102
76	0x3daa1e4b	0.08306559
77	0xbd9ff044	-0.07809499
78	0x3dfb4732	0.12269439
79	0xbea23ecc	-0.31688535
80	0xbe68ff24	-0.22753578
81	0x3e8f3b3e	0.27974886
82	0xbeca376a	-0.39495403
83	0x3d893fd2	0.06701626
84	0x3e97c5a8	0.29642987
85	0x3e954665	0.2915527
86	0x3df5b17b	0.11996742
87	0xbec78174	-0.38965952
88	0x3d8044fb	0.06263157
89	0xbe090ea8	-0.13384497
90	0xbdd6dec6	-0.104917094
91	0x3e9b1c57	0.3029506
92	0xbe1824f9	-0.14857854
93	0xbe91e3e7	-0.28494188
94	0xbea2c023	-0.31787214
95	0x3e7dddab	0.24791591
96	0x3cbb34c4	0.022852309
97	0x3ecb0ba8	0.3965733
98	0x3dabf36a	0.08396037
99	0xbec2b69d	-0.38029948
100	0x3dce08f8	0.100603044
101	0x3ebadb65	0.3649551
102	0x3e801993	0.25019512
103	0x3df98f28	0.12185508
104	0xbe9d6029	-0.30737427
105	0xbe7b58af	-0.24545549
106	0x3e8d980d	0.27655068
107	0xbe8c19c8	-0.2736342
108	0x3daf3255	0.08554522
109	0xbd56601a	-0.052337743
110	0x3e07d586	0.13265046
111	0x3cb30c00	0.021856308
112	0xbe9a4338	-0.3012941
113	0xbe1b5bd6	-0.15171751
114	0x3eb69371	0.35659364
115	0x3d6ebdae	0.05828636
116	0x3e5c85c1	0.21535398
117	0xbe4b6749	-0.19863619
118	0x3eaa8ee8	0.33312154
119	0xbd9b5b6f	-0.07585799
120	0xbe08e4da	-0.1336855
121	0x3da2f3e0	0.07956672
122	0xbe16d255	-0.14728673
123	0xbe26ea2c	-0.16300267
124	0xbd5d755b	-0.054066997
125	0xbce5f90a	-0.028072853
126	0xbe6f1891	-0.23349215
127	0x3e08f979	0.13376416
128	0xbecdb71e	-0.4017877
129	0x3e7a5588	0.2444669
130	0x3ebddf19	0.37084273
131	0x3d785621	0.060629014
132	0xbdbb906b	-0.09158405
133	0xbebf6b2b	-0.3738645
134	0x3e4630a4	0.19354492
135	0x3eac2870	0.336246
136	0x3eb105a5	0.3457462
137	0x3d23cf6d	0.03999274
138	0x3e0cc061	0.13745262
139	0x3eca0206	0.3945467
140	0x3d825562	0.06363942
141	0xbe47e260	-0.19519949
142	0xbec44599	-0.3833435
143	0x3e359a07	0.17734538
144	0x3e27decc	0.16393584
145	0x3ebdea7d	0.37092963
146	0xbe4c808a	-0.19970909
147	0x3e3a4a19	0.18192329
148	0xbe10c72a	-0.14138475
149	0xbdc34718	-0.095350444
150	0x3e6d3489	0.23164572
151	0xbebed555	-0.37272134
152	0x3e988f41	0.29796794
153	0x3e3e7da8	0.18602622
154	0xbe78e98c	-0.24307841
155	0x3e6080ce	0.21924135
156	0xbdc55b56	-0.096365616
157	0x3cf92df6	0.030417424
158	0xbdecb304	-0.11557582
159	0xbecb2b71	-0.3968158
160	0xbd134ce2	-0.035961993
161	0x3e457fd0	0.19287038
162	0xbd3c3d24	-0.045956746
163	0xbe4f63c2	-0.20252898
164	0x3c3b524d	0.011433196
165	0x3d957fd4	0.07299772
166	0xbdec5c10	-0.11540997
167	0xbea2dd03	-0.31809244
168	0xbe5dbae0	-0.21653318
169	0xbd80adf3	-0.06283178
170	0x3e186569	0.14882435
171	0x3ebaeb8c	0.36507833
172	0x3c5b5924	0.013387952
173	0x3e18f839	0.1493844
174	0x3e707a95	0.23484261
175	0xbe3947f7	-0.18093859
176	0xbe1a9506	-0.1509591
177	0x3e8247c6	0.25445384
178	0x3e95df9b	0.2927216
179	0x3dc2052c	0.09473643
180	0xbea0eb1a	-0.31429368
181	0x3e668765	0.22512586
182	0xbeb09a52	-0.34492737
183	0x3e49f099	0.19720687
184	0x3d5948ca	0.053047933
185	0x3e02a48a	0.12758079
186	0xbeca6c79	-0.39535883
187	0xbe1295d0	-0.14314961
188	0x3e2fc869	0.17166294
189	0x3ea08ce6	0.31357497
190	0xbdf5916e	-0.11990629
191	0x3eb8a965	0.36066738
192	0xbdd512f6	-0.10404007
193	0xbe708c18	-0.23490942
194	0xbe296fe1	-0.16546585
195	0x3d166f8b	0.03672747
196	0xbd7ad211	-0.06123549
197	0x3e55ee80	0.20891762
198	0xbe67ad36	-0.22624668
199	0xbdec10c1	-0.11526633
200	0xbeceb32f	-0.4037108
201	0x3eab0ef5	0.3340985
202	0xbd9b8b0d	-0.07594881
203	0xbea454b3	-0.3209587
204	0xbc678e94	-0.014133114
205	0xbbc1791c	-0.00590433
206	0x3de236da	0.11045618
207	0xbd44de84	-0.04806377
208	0x3e801d15	0.25022188
209	0xbe1640b5	-0.14673121
210	0xbde0042d	-0.109382965
211	0xbdc405fd	-0.09571455
212	0x3d92c556	0.07166545
213	0x3ea79836	0.32733315
214	0xbc869fbc	-0.01643359
215	0x3e9b4033	0.30322418
216	0x3ea2ef7c	0.31823337
217	0xbe63f7b7	-0.22262464
218	0xbd303464	-0.043018714
219	0xbe4dabbc	-0.20085043
220	0x3e2f85ac	0.17140836
221	0xbe12fa49	-0.14353289
222	0x3dfce811	0.12348951
223	0x3cda7e5c	0.026671581
224	0xbe880c62	-0.26571947
225	0xbe8b5b60	-0.2721815
226	0xbecafd7b	-0.39646515
227	0xbe6782f0	-0.22608542
228	0x3de2e7b3	0.11079349
229	0x3cd272d7	0.025689526
230	0x3e99b290	0.30019045
231	0xbeba8fb7	-0.3643777
232	0xbc1c2971	-0.009531365
233	0xbeba5d70	-0.36399412
234	0xbbab2e9a	-0.005224061
235	0x3e1466f5	0.144924
236	0xbebc5e3d	-0.36790648
237	0x3eb7b7a4	0.35882294
238	0xbe0202c9	-0.12696375
239	0x3eb8ab81	0.36068347
240	0xbd948164	-0.07251242
241	0x3e6661e5	0.22498281
242	0x3eb929f0	0.36164808
243	0xbe210021	-0.15722705
244	0xbdda3183	-0.10653975
245	0x3e54bc91	0.20775057
246	0xbeb3f2e5	-0.3514625
247	0x3e7283b9	0.2368306
248	0xbe83a565	-0.25712124
249	0x3ec14f53	0.37755832
250	0xbe889a37	-0.26680157
251	0xbe2accab	-0.16679637
252	0x3e9bd42b	0.3043531
253	0xbe377b60	-0.17918158
254	0x3eb37af7	0.35054752
255	0x3e8fa6c2	0.28056914

player_encoder.0.bias f4 [64]
0	0xbe476f7c	-0.19476122
1	0xbe9fa16f	-0.31177852
2	0x3d9831cc	0.07431373
3	0xbe694a87	-0.22782336
4	0xbde611e3	-0.1123388
5	0xbcfc54ef	-0.030802218
6	0xbe82e3fa	-0.25564557
7	0x3c937255	0.017998854
8	0xbd4fe6ec	-0.050757334
9	0x3e053153	0.13007097
10	0x3e94192d	0.28925458
11	0xbe85edd6	-0.26158017
12	0x3e5a5bfe	0.21324155
13	0xbc253b77	-0.010084978
14	0xbe81b6eb	-0.25334868
15	0xbe47ac12	-0.19499233
16	0x3dca9629	0.09891922
17	0x3daf6dd2	0.085658684
18	0xbc850631	-0.016238304
19	0xbe4a5ed1	-0.19762732
20	0x3e4be96d	0.19913264
21	0x3d5c3989	0.053765807
22	0xbeca6bfd	-0.39535514
23	0xbd8be2cc	-0.068303674
24	0xbdc84068	-0.097779095
25	0xbe35cd1e	-0.17754027
26	0xbe6e5d51	-0.23277785
27	0xbea8cdac	-0.32969415
28	0x3ecfd8b8	0.4059503
29	0xbec32653	-0.38115177
30	0x3ebd876b	0.37017378
31	0xbea4c004	-0.32177746
32	0xbde20aca	-0.11037214
33	0xbe2c2616	-0.16811404
34	0xbe62f0a1	-0.22162105
35	0x3e17d034	0.14825517
36	0x3e71f253	0.23627596
37	0xbe8a79bd	-0.27046004
38	0xbe456aab	-0.19278972
39	0x3e4be1d9	0.19910373
40	0xbd71a93f	-0.058999296
41	0x3dbe7b74	0.093008906
42	0x3e5d672e	0.21621391
43	0xbe1a2208	-0.15052044
44	0xbe631260	-0.22174978
45	0x3e13ffa8	0.14452994
46	0xbe15f94b	-0.14645879
47	0xbe90eb3f	-0.2830448
48	0xbe4baa29	-0.1988913
49	0xbe48dfaf	-0.19616579
50	0x3ed49f21	0.41527656
51	0x3db5d4e5	0.08878497
52	0x3e3108f9	0.17288579
53	0x3d766d94	0.060163096
54	0xbe9191b0	-0.28431463
55	0x3e9acf26	0.30236167
56	0xbd8f0e6f	-0.06985175
57	0xbdcb5e0f	-0.0993005
58	0x3eaa1f1c	0.3322686
59	0xbe5d22c7	-0.21595298
60	0x3dacc66e	0.08436285
61	0xbeb08914	-0.34479582
62	0x3e649fd1	0.2232659
63	0x3e25f71b	0.16207545

player_encoder.2.weight f4 [32, 64]
0	0xbde3acd2	-0.11116947
1	0x3d8ee212	0.06976713
2	0x3c022d53	0.007945376
3	0xbd9fe737	-0.078077726
4	0x3dcbfa64	0.099598676
5	0x3d3b3a22	0.045709737
6	0x3d37b59e	0.044850938
7	0xbd6c0208	-0.057619125
8	0xbd8c5eba	-0.06854005
9	0xbd815d30	-0.06316602
10	0x3d1d8b44	0.038462892
11	0x3cd273f7	0.025690062
12	0xbd993726	-0.07481222
13	0x3ddcc055	0.10778872
14	0x3d9dcf9d	0.07705615
15	0xbd75aefe	-0.05998134
16	0x3d6d0990	0.057870448
17	0xbd590934	-0.052987292
18	0x3d0a83f2	0.03381724
19	0x3dccaa29	0.09993393
20	0xbdfbb3a9	-0.12290127
21	0xbd936dab	-0.07198652
22	0xbc8cc021	-0.017181458
23	0x3c4858ed	0.012228233
24	0xbddc7502	-0.10764505
25	0xbdbbcd9d	-0.09170077
26	0xbc8f3033	-0.017479038
27	0xbc93a360	-0.01802224
28	0x3c8c0101	0.017090322
29	0x3c0d5c47	0.008627958
30	0x3c7d9a74	0.015478719
31	0xbb8b74bc	-0.004255859
32	0x3c6b6430	0.014367148
33	0xbbec6a80	-0.007214844
34	0x3d1dd9f4	0.038537934
35	0x3d9ab033	0.075531386
36	0xbd7c19a2	-0.061547883
37	0xbd849f02	-0.06475641
38	0x3d6f6cab	0.058453243
39	0xbdc9bbc2	-0.09850265
40	0x3d92f574	0.07175723
41	0x3d389bb2	0.045070358
42	0x3c2b7c61	0.010466666
43	0xbd5e47b4	-0.0542676
44	0xbb71968d	-0.0036863417
45	0xbdcf19fa	-0.101123765
46	0xbdf19e83	-0.11797812
47	0x3de154c9	0.110024996
48	0xbdf8f8fd	-0.12156866
49	0xbde20465	-0.110359944
50	0xbd5e4937	-0.054269042
51	0x3c372f55	0.011180718
52	0x3ca00240	0.019532323
53	0xbd92ab69	-0.071616
54	0xbca074a9	-0.019586878
55	0xbd237661	-0.039907817
56	0x3dc75a82	0.0973406
57	0x3dde323c	0.10849425
58	0x3d1fcbc0	0.03901267
59	0xbc57bcc1	-0.013167561
60	0x3da4a5b3	0.08039417
61	0xbddd481c	-0.108047694
62	0x3d436050	0.047699273
63	0xbda32941	-0.07966853
64	0x3dcb6ed0	0.09933245
65	0xbde24d06	-0.11049847
66	0x3d587d2a	0.05285374
67	0xbdc9581e	-0.0983126
68	0x3d961a9a	0.073292926
69	0x3ccfe448	0.025377408
70	0x3ddba86e	0.10725485
71	0xbd9d95aa	-0.07694562
72	0x3da4c390	0.08045113
73	0xbdaad854	-0.083420426
74	0xbd83cb91	-0.064353116
75	0x3d3dfb39	0.046382163
76	0xbcac5cf0	-0.02104041
77	0xbdca1ed8	-0.09869164
78	0xbdceed31	-0.101038344
79	0xbd04ed94	-0.032453135
80	0x3d168a6d	0.036753107
81	0x3de0dbda	0.10979433
82	0x3dc0e7e9	0.09419233
83	0x3bfaaf31	0.007650279
84	0xbd9d0762	-0.07667424
85	0xbde324da	-0.11091013
86	0x3deab6c4	0.11460641
87	0xbd9b7ccd	-0.07592163
88	0xbc9a1389	-0.018808143
89	0xbdc1641c	-0.094429225
90	0xbdb0f334	-0.08640137
91	0x3cc6b138	0.024254426
92	0xbce9688c	-0.028492235
93	0x3c9d6c1f	0.019216595
94	0xbab02e69	-0.0013441566
95	0x3bf3b9f0	0.007437937
96	0xbccae668	-0.02476807
97	0xbb9e6480	-0.004833758
98	0x3d654ac2	0.055979498
99	0x3dc04477	0.09388059
100	0x3de4a6d8	0.111646354
101	0xbdd0dcb6	-0.10198347
102	0xbdd86634	-0.10566369
103	0xbc8ac126	-0.016937803
104	0xbbf345e1	-0.0074241017
105	0x3d8f4068	0.069947064
106	0x3df930dd	0.12167523
107	0x3d037af8	0.032099694
108	0xbdac48c3	-0.08412316
109	0xbc09ee51	-0.008418635
110	0x3da6a5b5	0.08137075
111	0x3d5d2bb8	0.05399677
112	0xbdb17aa6	-0.086659715
113	0x3c2cb7b2	0.010541843
114	0xbded05e5	-0.1157339
115	0xbd4e50ac	-0.050369903
116	0x3db0c353	0.08631005
117	0xbd568747	-0.052375104
118	0x3d9beffa	0.07614131
119	0xbdccb881	-0.09996129
120	0x3de2ea94	0.110798985
121	0x3d743a10	0.059625685
122	0x3da9f742	0.08299114
123	0x3d0bd2d8	0.034136623
124	0x3c215749	0.009847471
125	0xbd727418	-0.059192747
126	0xbd847203	-0.064670585
127	0xbdab716e	-0.08371244
128	0x3dc59a2a	0.09648545
129	0xbd31b46c	-0.043384954
130	0xb983ad26	-0.00025115273
131	0xbdfa40d8	-0.12219399
132	0x3cd82330	0.026383966
133	0xbd49ab48	-0.049235612
134	0xbdccc18e	-0.09997855
135	0x3c5374ed	0.012906295
136	0xbdebd4b4	-0.11515179
137	0xbc49c7c0	-0.0123156905
138	0xbdde18c9	-0.10844571
139	0x3d9539ad	0.072863914
140	0xbdcb4e58	-0.09927052
141	0x3ca73ec8	0.020415679
142	0x3d65a842	0.056068666
143	0xbdcc8c28	-0.0998767
144	0x3d99b390	0.07504952
145	0x3dd07d68	0.10180169
146	0xbd9ced5e	-0.07662462
147	0x3be2eb9d	0.00692506
148	0x3d1b42b0	0.037905395
149	0x3dc55f18	0.09637278
150	0x3db9fb57	0.090811424
151	0xbdd6bc60	-0.104851484
152	0xbdd8fc15	-0.10594956
153	0xbde8b5be	-0.113627896
154	0xbd63b514	-0.05559261
155	0xbcceb3b0	-0.025232166
156	0xbd530795	-0.051520903
157	0x3da0ba21	0.07848001
158	0xbdbf040e	-0.09326945
159	0xbdd727cb	-0.10505637
160	0xbdc81e94	-0.09771457
161	0xbd971b18	-0.073782146
162	0x3debf647	0.11521583
163	0x3c16c916	0.009203216
164	0xbcce8416	-0.025209468
165	0xbd16777c	-0.036735043
166	0xbdc4139a	-0.09574051
167	0xbd47b162	-0.04875315
168	0x3d72a658	0.05924067
169	0x3da37921	0.07982088
170	0x3dac7522	0.08420779
171	0x3c11ce20	0.008899242
172	0xbd95272d	-0.07282863
173	0xbd972248	-0.073795855
174	0x3dea1c3a	0.11431165
175	0xbdeda00a	-0.11602791
176	0x3cb8bc9e	0.022550877
177	0xbc8b6dfd	-0.01702022
178	0x3de751ae	0.11294876
179	0x3d95f452	0.07321991
180	0xbd1e1734	-0.038596347
181	0xbde2aa31	-0.11067618
182	0x3c3f6bd0	0.011683419
183	0xbdc1965f	-0.09452509
184	0xbca59105	-0.020210752
185	0x3d0031dc	0.03129755
186	0x3d5dcccd	0.05415039
187	0xbd0a7960	-0.03380716
188	0xbdb64ec3	-0.08901741
189	0xbde750f4	-0.112947375
190	0xbdfb7d82	-0.12279798
191	0x3c342a87	0.010996467
192	0xbd9bcfc8	-0.076079905
193	0x3b948c00	0.004533291
194	0xbd728fdc	-0.059219226
195	0xbdad3e1e	-0.084591135
196	0x3dac9e72	0.084286585
197	0x3d90dffe	0.07073973
198	0x3db3bf76	0.08776753
199	0x3df591ce	0.11990701
200	0xbdb939d8	-0.09044236
201	0xbd8845ca	-0.06653936
202	0xbdc0ba6c	-0.09410557
203	0x3dabe5ec	0.083934635
204	0x3d96d642	0.07365085
205	0x3dcf860e	0.10132991
206	0xbdb3208c	-0.08746442
207	0xbd894a56	-0.067036316
208	0x3df9918e	0.121859655
209	0xbdcb48a0	-0.099259615
210	0xbdaa7f64	-0.08325079
211	0x3d3c7e40	0.04601884
212	0xbddfc88a	-0.10926922
213	0xbd10c2a8	-0.03534189
214	0x3d598d5c	0.053113326
215	0x3dd1b958	0.1024043
216	0xbc6862e0	-0.01418373
217	0xbde28b78	-0.11061758
218	0x3d90eb3e	0.07076119
219	0x3dff3756	0.12461726
220	0xbdbe0c80	-0.09279728
221	0xbbb4f540	-0.0055224
222	0xbdb92f38	-0.090422094
223	0xbd82b7f2	-0.06382741
224	0x3d2c4d30	0.0420658
225	0x3d6f331c	0.05839835
226	0x3d53b7e0	0.05168903
227	0xbdf11f54	-0.117735535
228	0xbcf83eb0	-0.03030333
229	0x3d5a3600	0.053274155
230	0xbc3e1940	-0.0116027
231	0xbd1e4938	-0.038644046
232	0xbd843cd2	-0.06456913
233	0x3df2bbc4	0.1185222
234	0xbdccead2	-0.10005726
235	0xbdc9a7e0	-0.09846473
236	0x3dba8d08	0.09108931
237	0xbd9b7eda	-0.075925544
238	0x3d9ab228	0.07553512
239	0xbd8d1e32	-0.06890525
240	0xbc8a8638	-0.016909704
241	0xbd776188	-0.060395747
242	0x3dd382da	0.10327692
243	0x3db179c6	0.086658046
244	0x3bc4d140	0.00600639
245	0x3b446cc0	0.0029972047
246	0xbd4139c8	-0.047174245
247	0xbd88d65c	-0.06681511
248	0xbd41a9e8	-0.047281176
249	0x3d27a7c8	0.040931493
250	0xbcb82f28	-0.022483423
251	0x3dadc464	0.08484724
252	0x3c936f50	0.017997414
253	0x3ab4dc80	0.0013798624
254	0xbd9f15f8	-0.07767862
255	0x3d4e8c10	0.050426543

player_encoder.2.bias f4 [32]
0	0x3d761d7b	0.06008671
1	0x3c14a7e7	0.009073234
2	0x3dee48c7	0.11634975
3	0xbb249e80	-0.0025118887
4	0xbba3bf8d	-0.0049972
5	0xbdf71242	-0.12064029
6	0xbdf0c3c3	-0.117560886
7	0xbabb20c0	-0.0014276728
8	0x3dd47476	0.10373776
9	0xbdad210f	-0.08453571
10	0x3c942c20	0.018087447
11	0xbdca93dd	-0.09891484
12	0xbddd6797	-0.10810774
13	0xbd67ad16	-0.056561552
14	0xbd9d4ef4	-0.07681075
15	0xbdd3cfea	-0.10342391
16	0xbd08d760	-0.033408523
17	0xbc8be988	-0.01707913
18	0x3d814cae	0.063134536
19	0x3d857090	0.0651561
20	0xbab3806c	-0.0013694889
21	0xbce40678	-0.027835116
22	0xbcb6a82f	-0.022296993
23	0xbdc7f71a	-0.09763928
24	0x3da9e17d	0.082949616
25	0x3df0e35c	0.11762115
26	0xbdcedc0b	-0.101005636
27	0xbde66352	-0.112494126
28	0xbdfe56df	-0.12418913
29	0xbcbfb29e	-0.023400601
30	0x3c0eb6bc	0.008710559
31	0xbda919ff	-0.082569115

context_encoder.0.weight f4 [32, 10]
0	0x3e2bf256	0.16791663
1	0x3c344764	0.011003349
2	0xbe2c0998	-0.16800535
3	0xbe9b3f86	-0.30321902
4	0x3e77284d	0.24136467
5	0x3e9baa4c	0.30403364
6	0x3cd64923	0.026157921
7	0xbe2219e3	-0.15830187
8	0x3e4a973f	0.19784258
9	0x3e3c0f9f	0.18365334
10	0xbd2ce980	-0.04221487
11	0x3e9931aa	0.29920703
12	0xbe721894	-0.23642188
13	0xbce51616	-0.027964633
14	0x3e8e9292	0.278462
15	0xbe40cf3f	-0.18829058
16	0xbdb16a26	-0.08662824
17	0xbe0719af	-0.13193391
18	0xbdf2c3cd	-0.11853752
19	0x3e927450	0.28604364
20	0x3e47966f	0.1949098
21	0xbe9331af	-0.28748843
22	0xbe460dd1	-0.19341208
23	0xbb8737df	-0.0041265334
24	0xbdd293d2	-0.10282101
25	0xbe325401	-0.17414857
26	0xbe9f2622	-0.3108378
27	0x3e6ed2c1	0.23322584
28	0x3e354d0e	0.17705175
29	0x3dbbea35	0.09175531
30	0xbd704d48	-0.05866745
31	0xbe957215	-0.291886
32	0xbc0a19cc	-0.008429002
33	0x3e051d30	0.12999415
34	0xbd9ec3fc	-0.07752225
35	0x3e83e345	0.2575933
36	0x3dabec94	0.08394733
37	0xbb5b0635	-0.0033420448
38	0x3e0bee67	0.13665162
39	0x3e319d00	0.17345047
40	0xbe6d81f4	-0.23194104
41	0x3dc4f235	0.0961651
42	0xbe932854	-0.28741705
43	0xbd87b4f1	-0.06626309
44	0xbdd1f92b	-0.10252603
45	0x3e774063	0.24145655
46	0xbe9bf3b6	-0.30459374
47	0x3de61842	0.112350956
48	0xbe9388c3	-0.28815278
49	0x3e0c60ef	0.13708852
50	0x3d9f9a0e	0.077930555
51	0xbdfa8fc1	-0.1223445
52	0x3ddb905b	0.10720893
53	0x3e9f5cbd	0.3112544
54	0x3e49f463	0.19722132
55	0xbe90084f	-0.2813134
56	0xbd98578e	-0.07438575
57	0x3e928963	0.28620443
58	0x3d6762dd	0.056490768
59	0x3d2ea3b6	0.042636596
60	0x3cf3815e	0.029724773
61	0xbdd77798	-0.105208576
62	0xbda65c4a	-0.081230715
63	0x3cb326b1	0.021869035
64	0x3e67fd59	0.22655238
65	0xbdcd0f9c	-0.10012743
66	0xbdb39a80	-0.08769703
67	0x3d8b399a	0.06798096
68	0xbdf72848	-0.1206823
69	0x3e8cd1fd	0.27503958
70	0x3e67a6a2	0.22622159
71	0x3a817517	0.0009876814
72	0xbe5df648	-0.2167598
73	0x3da23bd8	0.079215705
74	0x3e835c6c	0.2565645
75	0x3dc160b7	0.09442275
76	0x3df69a79	0.12041182
77	0xbe36e530	-0.17860866
78	0xbea5b619	-0.32365492
79	0xbe00b80a	-0.12570205
80	0x3bdba970	0.006703548
81	0x3e8d37c6	0.27581614
82	0x3d813f21	0.06310869
83	0xbd809952	-0.062792435
84	0xbdb0373e	-0.086042866
85	0xbd62e58f	-0.055394705
86	0xbe32899b	-0.17435305
87	0xbe0b07b8	-0.13577163
88	0x3d5efd86	0.054440998
89	0x3e598f30	0.21246028
90	0x3e85b3e9	0.26113823
91	0x3dd7c11b	0.10534879
92	0xbe5f053d	-0.21779342
93	0x3e93322c	0.28749216
94	0x3e9a01c9	0.30079487
95	0xbdcd07df	-0.10011267
96	0x3be97912	0.0071250284
97	0x3e8ea0a6	0.2785694
98	0xbdeb7a1f	-0.11497902
99	0x3e18d656	0.14925513
100	0x3d46ceac	0.04853694
101	0x3e2ee058	0.17077768
102	0x3dd2c11a	0.102907375
103	0x3e9d248d	0.3069195
104	0x3e83065d	0.25590792
105	0xbe668b2e	-0.2251403
106	0x3e377803	0.17916875
107	0xbd855f28	-0.0651229
108	0xbe34d4fa	-0.17659369
109	0x3d3becfe	0.04588031
110	0xbd15b9a3	-0.03655399
111	0xbe480adc	-0.19535393
112	0xbe8dd1e8	-0.27699208
113	0xbe2f4960	-0.17117834
114	0x3d1bf30d	0.03807359
115	0x3e4af35d	0.19819398
116	0x3e439583	0.19100003
117	0x3dbae86f	0.091263644
118	0x3e9bfa02	0.30464178
119	0xbe895b0e	-0.26827282
120	0xbe4eefe7	-0.20208703
121	0x3e0c8ad9	0.13724841
122	0xbe95b731	-0.29241326
123	0x3e969a59	0.29414633
124	0x3d0295b6	0.031881057
125	0xbded6b6a	-0.11592753
126	0x3e8c2079	0.27368525
127	0x3e149ee0	0.14513731
128	0x3e83d307	0.2574694
129	0x3e691b01	0.22764207
130	0xbd5bb9fd	-0.05364417
131	0x3e93fee9	0.2890542
132	0x3d40bee0	0.047057033
133	0x3d10aedd	0.035323013
134	0x3dd619fd	0.104541756
135	0xbe7e5d3e	-0.24840257
136	0xbe42539f	-0.18977211
137	0x3e99f35e	0.30068487
138	0xbe549e0e	-0.20763418
139	0x3e27da9b	0.16391985
140	0x3e50a746	0.2037631
141	0xbe77ba9c	-0.2419228
142	0xbd0ebbfc	-0.034847245
143	0x3ae27d0a	0.0017279696
144	0x3e6f1f6f	0.23351835
145	0xbdabb2a7	-0.083836846
146	0x3e935c67	0.28781435
147	0xbe80d841	-0.2516499
148	0x3e098789	0.13430609
149	0x3e2fc312	0.17164257
150	0xbde2431e	-0.11047958
151	0xbdc3d45d	-0.095619895
152	0xbe490b27	-0.1963316
153	0x3db2dc6b	0.08733448
154	0x3de4884d	0.1115881
155	0xbde4a1d7	-0.11163681
156	0x3e856491	0.2605329
157	0xbd391165	-0.045182604
158	0xbd362c08	-0.044475585
159	0x3e819b0d	0.25313607
160	0x3d77b656	0.060476623
161	0x3e3288ac	0.17434949
162	0x3e3ede08	0.18639386
163	0xbe53f5bd	-0.2069921
164	0xbb833fd5	-0.004005412
165	0x3e91961d	0.2843484
166	0xbe430af5	-0.19047149
167	0x3d3e67cf	0.04648572
168	0x3e75ba38	0.23996818
169	0x3d23c1de	0.039979808
170	0xbd942928	-0.072344124
171	0x3de90487	0.11377817
172	0xbe85ec1d	-0.26156703
173	0x3e83527b	0.25648865
174	0x3e795f8d	0.24352856
175	0xbdc35d83	-0.0953932
176	0xbdf4b158	-0.11947888
177	0xbd7fb009	-0.06242374
178	0x3e9e7e38	0.30955672
179	0xbe03a91b	-0.12857477
180	0x3dc2e7a8	0.09516841
181	0xbe9ac2cb	-0.3022674
182	0x3db89b62	0.09014012
183	0x3e3e056e	0.18556759
184	0x3db2e35c	0.087347716
185	0xbcbe0b19	-0.023198651
186	0x3c40d458	0.011769377
187	0x3e8d7f7a	0.2763632
188	0x3e01253c	0.1261186
189	0xbda214fc	-0.07914159
190	0xbe820bc9	-0.25399616
191	0x3e6c004d	0.2304699
192	0xbdf11e37	-0.11773341
193	0x3e49e49d	0.19716115
194	0xbd8228d7	-0.06355446
195	0x3babfb71	0.00524848
196	0xbe7f5fac	-0.2493884
197	0xbdf6b989	-0.12047107
198	0x3cd5be3c	0.026091687
199	0xbe9c77f3	-0.30560264
200	0xbd828a7d	-0.06374071
201	0x3e415e2c	0.1888358
202	0x3e624c05	0.22099312
203	0x3e72bf68	0.23705828
204	0xbdb77ffb	-0.08959957
205	0x3cf57329	0.02996214
206	0xbe8126bb	-0.25224862
207	0x3e291b12	0.16514233
208	0x3d6b83b3	0.057498645
209	0x3e850357	0.2597911
210	0xbd32f5d9	-0.04369149
211	0x3e9daa7f	0.3079414
212	0x3e2610d1	0.16217352
213	0x3e8cfe14	0.27537596
214	0xbca89766	-0.020580005
215	0xbe7e1359	-0.24812068
216	0xbe785149	-0.24249758
217	0xbe95d819	-0.29266432
218	0x3d6dcf5d	0.058059085
219	0xbe7a67fe	-0.24453732
220	0xbde02241	-0.109440334
221	0x3e278f79	0.16363324
222	0x3e94b1c9	0.2904189
223	0xbd9e89ff	-0.077411644
224	0x3e61eb03	0.22062306
225	0xbc8a2cad	-0.016867006
226	0xbd761a81	-0.06008387
227	0xbd38709e	-0.045029275
228	0xbe0f8dcc	-0.14018935
229	0x3dae573f	0.085127346
230	0xbae05e59	-0.0017117962
231	0xbe1dc645	-0.15407665
232	0x3e4df776	0.2011393
233	0xbe10a960	-0.14127111
234	0xbe5b5080	-0.21417427
235	0x3de0d2c2	0.10977699
236	0xbc9f1393	-0.019418513
237	0xbe324202	-0.17407992
238	0xbe842bcc	-0.25814664
239	0xbdc209c0	-0.09474516
240	0xbe70067e	-0.23439977
241	0x3e3d98ad	0.18515272
242	0xbd1b2333	-0.037875365
243	0x3e2b31a7	0.1671816
244	0x3e206e0a	0.15666977
245	0x3d047ae3	0.032343756
246	0xbd3b57fb	-0.0457382
247	0xbe1dffd5	-0.15429623
248	0x3d97d859	0.07414312
249	0xbe8ce2c1	-0.2751675
250	0xbe1b47c2	-0.15164092
251	0x3e83892a	0.25690585
252	0xbd66890a	-0.056283034
253	0x3e854c8a	0.26034957
254	0x3e425c44	0.18980509
255	0xbd88866c	-0.06666264

context_encoder.0.bias f4 [32]
0	0xbea14bf2	-0.31503254
1	0x3e5a6eb4	0.21331292
2	0xbe37971d	-0.17928739
3	0xbe057e1c	-0.13036388
4	0x3dd6f0f5	0.10495178
5	0x3d69d99b	0.05709229
6	0x3e601a6f	0.21885084
7	0xbe6e87c8	-0.23293984
8	0x3e2c4cc8	0.16826165
9	0x3e22b53c	0.15889448
10	0x3e3fb738	0.18722236
11	0xbdcce1f6	-0.10004036
12	0x3d446cd7	0.04795536
13	0x3dc0adff	0.09408187
14	0x3e9ccc74	0.30624735
15	0xbe40c7e0	-0.18826246
16	0xbe921141	-0.2852879
17	0xbe945489	-0.28970745
18	0x3d11933f	0.035540815
19	0xbe761b0c	-0.24033755
20	0xbd6a361d	-0.057180513
21	0xbe11bce4	-0.14232212
22	0x3d679f51	0.05654842
23	0xbe657671	-0.22408463
24	0x3e4c80c6	0.19970998
25	0xbe9db253	-0.30800113
26	0xbe316814	-0.17324859
27	0x3d990d9b	0.07473298
28	0xbea1d628	-0.316087
29	0x3daafcac	0.083489746
30	0xbdf14cb4	-0.11782208
31	0xbe30d878	-0.17270076

context_encoder.2.weight f4 [16, 32]
0	0x3de83071	0.113373645
1	0xbd6d090e	-0.057869963
2	0x3d2b2b7f	0.041789528
3	0xbd99b7f4	-0.075057894
4	0x3da95ced	0.08269677
5	0x3e2779cc	0.16355056
6	0x3e2e878a	0.17043892
7	0xbdf16ea1	-0.11788679
8	0xbe2c40a8	-0.1682154
9	0xbdffd737	-0.12492221
10	0x3d39a664	0.045324698
11	0x3d7966e6	0.060889147
12	0x3db2cb2f	0.087301604
13	0x3daf7af2	0.08568372
14	0x3e285f95	0.16442712
15	0xbe11b4ec	-0.14229172
16	0xbe0dea64	-0.13858944
17	0xbd78c6af	-0.060736354
18	0x3e08af3d	0.13348098
19	0xbe0affe1	-0.13574173
20	0x3e0e0f79	0.1387309
21	0x3d0f0521	0.034917
22	0x3de29aa5	0.11064652
23	0x3e335832	0.17514113
24	0x3e276359	0.16346492
25	0x3e325080	0.17413521
26	0xbd31b07d	-0.043381203
27	0xbda4082e	-0.08009373
28	0x3da4c311	0.080450185
29	0x3e15c8d6	0.14627394
30	0xbb803b02	-0.0039132843
31	0xbd51abf3	-0.051189374
32	0xbd14c1a0	-0.036317468
33	0xbd8bfeca	-0.068357065
34	0x3dadd673	0.084881686
35	0xbe3bc56d	-0.1833703
36	0x3e1a086b	0.15042274
37	0xbbeb8f13	-0.0071886866
38	0xbddd0bdb	-0.10793277
39	0xbd910202	-0.07080461
40	0xbddf6cf3	-0.10909452
41	0xbe26bc9b	-0.16282885
42	0x3c1851cb	0.009296845
43	0xbd43d0eb	-0.04780666
44	0xbdb26c68	-0.08712083
45	0xbcfbcbd1	-0.030736836
46	0xbd060e75	-0.03272863
47	0x3d8fa5f1	0.07014073
48	0xbe126db5	-0.14299662
49	0xbb87d180	-0.0041448474
50	0xbc3c3ac1	-0.011488617
51	0xbe13faf0	-0.14451194
52	0x3e262475	0.16224845
53	0xbdaba0f9	-0.083803125
54	0x3e064665	0.13112791
55	0x3e0abfa4	0.13549668
56	0xb96b505f	-0.00022441287
57	0x3e06c93c	0.13162702
58	0xbe083778	-0.1330241
59	0xbce33b29	-0.02773817
60	0xbe15523e	-0.14582154
61	0xbdea49f2	-0.11439885
62	0x3d4a5631	0.049398605
63	0x3dfdf579	0.12400336
64	0xbde2dcc6	-0.110772654
65	0xbd9d6744	-0.07685712
66	0xbdcafede	-0.09911893
67	0xbcd1cf36	-0.025611501
68	0xbe165bbe	-0.14683434
69	0xbe1af71c	-0.15133327
70	0xbd4d024f	-0.05005103
71	0x3e240007	0.16015635
72	0x3cf97774	0.030452468
73	0xbda8ba4b	-0.082386576
74	0x3ddde54f	0.10834753
75	0x3df6f471	0.12058342
76	0x3de39f3b	0.11114355
77	0x3bda3eed	0.0066603334
78	0xbcf2fca8	-0.029661492
79	0x3dd5481d	0.10414145
80	0x3dc29d70	0.09502685
81	0x3e0eedb7	0.13957869
82	0x3debd810	0.1151582
83	0xbd4d875a	-0.05017791
84	0x3e19520a	0.14972702
85	0x3d0daa72	0.034586377
86	0x3e32eb1a	0.17472497
87	0x3e3414cb	0.17586057
88	0x3e10ff30	0.14159846
89	0x3df0fede	0.11767362
90	0x3e0e21ba	0.13880053
91	0xbdbd3dee	-0.09240328
92	0xbd99226a	-0.07477267
93	0xbd4e9fdb	-0.05044542
94	0xbdcca105	-0.099916495
95	0x3df47cc2	0.11937858
96	0x3c093493	0.008374351
97	0xbd689d30	-0.05679053
98	0xbda23494	-0.07920185
99	0xbe1e511a	-0.15460625
100	0x3c4fd026	0.012683904
101	0x3e1be93e	0.15225694
102	0x3de23db8	0.11046928
103	0x3e0d5ca8	0.13804877
104	0x3e02ad83	0.12761502
105	0x3d8f0287	0.06982904
106	0xbbee63d0	-0.007275082
107	0xbe069343	-0.13142113
108	0x3e01ae34	0.1266411
109	0xbdf99f70	-0.121886134
110	0xbddecd58	-0.1087901
111	0x3d8cffe0	0.06884742
112	0x3dd13577	0.10215276
113	0xbdd5977a	-0.104292825
114	0x3de34a35	0.11098138
115	0xbe296905	-0.16543968
116	0x3d43e73e	0.04782795
117	0x3d94915f	0.0725429
118	0x3cee5380	0.02909255
119	0xbdcbb8c0	-0.09947348
120	0xbdfd389a	-0.123643115
121	0x3e0b6a7d	0.13614841
122	0x3d1f84b3	0.03894491
123	0xbda14438	-0.0787434
124	0x3e23d52b	0.15999286
125	0xbd214615	-0.039373476
126	0xbd114c96	-0.03547343
127	0x3d373768	0.044730574
128	0x3e1336f3	0.1437643
129	0xbda48306	-0.08032803
130	0x3a69a081	0.00089121616
131	0xbd9dfddc	-0.077144355
132	0xbda3fb7e	-0.08006953
133	0xbca795e5	-0.020457217
134	0xba03a668	-0.000502205
135	0x3dc0b6b1	0.094098456
136	0xbe031393	-0.12800436
137	0x3dd57ec3	0.104245685
138	0x3e101428	0.14070189
139	0xbca78575	-0.02044938
140	0xbc575bd0	-0.013144448
141	0x3d3d9b93	0.046290945
142	0xbe241f70	-0.16027617
143	0x3e0733e1	0.13203384
144	0xbd136d90	-0.03599316
145	0x3b764f01	0.003758371
146	0x3dafef51	0.08590568
147	0x3d96c027	0.07360869
148	0xbda58d7f	-0.08083629
149	0xbdfeaf4e	-0.124357805
150	0xbe2b994f	-0.16757701
151	0xbe17280c	-0.1476137
152	0xbd188099	-0.037232015
153	0xbe0b3455	-0.13594182
154	0xbc923970	-0.017849654
155	0xbdbbe890	-0.09175217
156	0x3dd5435e	0.1041324
157	0x3dfed763	0.124434255
158	0x3e1a0fa9	0.15045036
159	0xbdeace69	-0.11465151
160	0xbdea07fd	-0.11427305
161	0x3d686fd7	0.056747284
162	0xbd2559f4	-0.04036899
163	0x3e120ce2	0.14262727
164	0xbe26110c	-0.1621744
165	0x3e25a223	0.16175131
166	0xbe039879	-0.12851132
167	0xbe07e38b	-0.13270395
168	0xbcec6705	-0.028857717
169	0xbd964165	-0.07336692
170	0xbdd560ba	-0.1041884
171	0x3de0c57c	0.10975167
172	0x3e135e56	0.14391455
173	0x3db64db3	0.08901539
174	0x3ceeeaf2	0.029164765
175	0xbc8d2b6c	-0.01723262
176	0xbdbb278d	-0.09138403
177	0x3e31cedf	0.17364071
178	0xbdb959ca	-0.09050329
179	0xbe1eb6b0	-0.15499377
180	0x3e0e7935	0.13913424
181	0xbca1d781	-0.01975608
182	0x3dfb8ef7	0.12283128
183	0xbd705480	-0.058674335
184	0x3e168593	0.14699392
185	0xbe017f5f	-0.12646244
186	0x3dd9de73	0.10638132
187	0x3e1427a6	0.1446825
188	0xbc0f6496	-0.008752009
189	0x3dffec08	0.12496191
190	0x3c7704b6	0.015076807
191	0xbe1c6709	-0.1527368
192	0x3d9e9b6b	0.077444874
193	0xbe0cb972	-0.13742617
194	0x3bb60ac1	0.005555481
195	0xbe22d4df	-0.15901516
196	0xbdac5f7f	-0.08416652
197	0xbd57bf72	-0.05267281
198	0xbd8cb1dd	-0.06869862
199	0xbe325074	-0.17413503
200	0xbdb3d1d2	-0.087802544
201	0xbe27ba59	-0.1637968
202	0xbe1755b9	-0.14778794
203	0xbe34995a	-0.17636624
204	0xbdd08ef5	-0.10183517
205	0xbd22410b	-0.03961281
206	0x3e23136e	0.1592538
207	0xbdfeb2f2	-0.12436475
208	0xbe09a757	-0.13442741
209	0xbe135c6e	-0.14390728
210	0x3e2959ba	0.16538134
211	0xbcb93289	-0.022607105
212	0xbd40a5d3	-0.047033142
213	0x3dc680c5	0.096925296
214	0xbdd5e903	-0.10444834
215	0xbd3f5c94	-0.04671915
216	0x3e25eaf1	0.16202904
217	0x3dc0d3ad	0.09415374
218	0xbe0c6c27	-0.13713132
219	0xbd4701ea	-0.04858581
220	0x3c8e3559	0.017359423
221	0x3d82ce88	0.06387049
222	0xbda69002	-0.08132936
223	0x3dfd7f14	0.12377754
224	0x3b352c8c	0.002764496
225	0xbe1c8370	-0.15284514
226	0x3d4205f1	0.047368947
227	0xbe2fb9d8	-0.17160738
228	0x3c49a3ae	0.012307091
229	0xbe330884	-0.17483717
230	0xbd4e8a0b	-0.050424617
231	0xbd284788	-0.041083843
232	0xbe229a94	-0.1587928
233	0xbd4cce71	-0.050001565
234	0x3bc28549	0.005936299
235	0xbdcbfa60	-0.099598646
236	0x3ccd8338	0.025086984
237	0x3dbf2dfc	0.09334943
238	0x3caae983	0.0208633
239	0xbe31ae63	-0.1735168
240	0xba126e8f	-0.00055859325
241	0xbda9aad7	-0.08284538
242	0x3d4e644d	0.050388623
243	0xbe113e53	-0.14183931
244	0xbdfa6f48	-0.122282565
245	0xbbc04c99	-0.005868506
246	0x3dd0c45b	0.10193702
247	0xbd4170a2	-0.047226556
248	0xbc18ba96	-0.009321829
249	0xbc8f6ae2	-0.01750702
250	0xbe0da35a	-0.13831845
251	0xbc65261c	-0.013986137
252	0xbba30818	-0.00497533
253	0x3cefb402	0.02926064
254	0x3da20a38	0.07912105
255	0x3d57a340	0.05264592

context_encoder.2.bias f4 [16]
0	0xbd96be52	-0.073605195
1	0x3e1fc450	0.15602231
2	0xbdd787dc	-0.1052396
3	0x3e24eff7	0.16107164
4	0x3d8bdfe0	0.0682981
5	0x3d9b3c58	0.07579869
6	0xbd25a1c5	-0.04043748
7	0xbd455355	-0.048175175
8	0xbe056d40	-0.13029957
9	0xbe2c87ed	-0.16848727
10	0x3dfd7b6c	0.123770565
11	0x3e2c300c	0.16815203
12	0x3d4fa2da	0.050692417
13	0xbd9be106	-0.07611279
14	0x3d014f30	0.03156966
15	0xbc81c84f	-0.015842585
