hierarchical_agent_2023_trained.pth (torch, 112545 bytes, 50 tensors)

network.0.weight f4 [64, 10]
00000000: 7b40 ae3e 1ded ec3d 4871 2fbe 2006 39bd
00000010: 9814 313e 7a0e cb3c 425a 893d 80ac 723e
00000020: e347 95be 37cb c03d 5df6 84be 0721 4dbe
00000030: 02bc 42be d91a 57be 15bf 84be b86d 163e
00000040: 5069 5c3e e133 223c bf37 9d3d c24c 1d3d
00000050: bc76 9b3d 8c63 473e 8085 25be abeb 55bd
00000060: 2676 05be c797 f13d 5711 1d3e 3f4c 363e
00000070: 4d3a 80bc 6ac4 ecbc eb2a 643e 8506 4bbd
00000080: 7307 dd3c 2b14 a83e b1aa 2d3e dc8c 0fbe
00000090: bd3b a93e 02a9 503e 9a54 1ebe 4327 2a3e
000000a0: def0 6bbe 82fe 933e 3753 39bd acb7 9b3b
000000b0: 5d8f da3c 78bd 613e 82c0 ffbd 653c 30be
000000c0: 2e55 85be 2b67 56be 4a12 e23d 2d42 a6bd
000000d0: c559 0ebe adb8 883d 37ee 373e e9da 50bd
000000e0: 0bf0 c43a 4eec 50be 3a3c afbd aa7b 1cbe
000000f0: 1aef 28bd 8da9 133e 5fb9 9cbd ec54 92bd
00000100: 41bb 11be fd50 063e 4dfc 033d 5940 c83d
00000110: db25 983e c447 93be 01b4 7bbe 3405 8dbe
00000120: bb17 06be 6098 83ba a879 7ebe 4bc7 60be
00000130: 91f7 c4bd 102f 8a3e 3948 a5bd 3751 2bbe
00000140: 65c9 0c3e ffac a33d 714b 19be a81c be3d
00000150: f435 203e afaa 6d3e eef2 96be def1 323d
00000160: 8d01 663e 4ac4 8a3d b66c f63c 7456 12be
00000170: 2175 cc3d 0c86 d13d e568 a6bd 7302 4b3d
00000180: 247c 8f3e fc9b 8e3e b08c e83d eaa6 883e
00000190: ffcf fabc 67a8 3a3e b482 c7bd 44cb 5e3e
000001a0: 2ac0 4cbe 2bd4 3f3d 0e7f 43be 6b2e 943d
000001b0: 3c52 033e 752d 2b3e 6398 62bd 6501 b5bd
000001c0: 60f4 3b3d 1432 6cbe aaa4 7fbe 8736 01be
000001d0: 522f 743e 0e1b cdbc 890d a73d 09b1 f03d
000001e0: 1695 7d3e af6d 6abe 6cab 96be fdeb 873e
000001f0: 8671 4f3e 1fee 00be dd84 8dbd c160 a1be
00000200: 3f86 dc3b 8095 883d b58c a73e 8de8 953e
00000210: e005 1cbd 9f73 633e 574d 683e c6a0 42be
00000220: 5c8e da3d 570d 043e bf7e 6e3e 565c 913e
00000230: 21bd fd3d 46e6 c9bd 11bb fbbd 6413 f4bc
00000240: 3dfc 99be e77e 90bd b533 3ebe 49ad 37be
00000250: 11d3 9d3e ffb8 4d3e ad70 e33d bc3a 69be
00000260: d4e9 1cbe d02b 20be 56df 953e 2ec9 813e
00000270: 5449 4b3d fec6 1fbe 50d1 81be 5e7c d73c
00000280: 88de 6a3d be75 203e 46e6 9fbe 1255 adbd
00000290: f997 653e a3c4 a03d 9555 c6bd 4155 4bbe
000002a0: ab9e 133e 4c4f be3d 8f8f 4bbe 61d7 0d3c
000002b0: e12d 9c3e 72fc 233d ddc7 8c3d 708d 813e
000002c0: bc8a 46be a216 08be 015a 783e 3d3a 6cbe
000002d0: 4b64 5abc 8b34 c5bc f1d3 41be cbf5 79be
000002e0: 2d68 e1bd e175 223d ffa3 2ebe d4c7 ba3d
000002f0: e672 0cbe 66d4 4d3e 870c 653e 9989 cfbd
00000300: 8c31 973e 3df6 213e fdf8 33be 475f a13e
00000310: dabb 9b3d 65e5 7a3e e89d 5cbe d169 6b3e
00000320: 659f 1e3e c41b 053d 6091 a0be 87a7 113e
00000330: 7a6d 633e 229e 263e c8ec 78be 8dad 503e
00000340: ab0d 8c3a 7cec 793d 91ff 843e 3f8b 33be
00000350: 4786 7bbe eae5 2739 7f8e 5cbe cd5d ab3d
00000360: 4a28 dfbb 43dc cabd 7fa3 5c3e efc7 5abe
00000370: 9de4 b9bd 7158 823e 1c0e 203e fc96 28be
00000380: 3399 013e fd4a 04be 9521 a83e aefe 683e
00000390: 229c 823e a703 073d 5be8 1fbc a202 0fbe
000003a0: cb78 9a3e 198c 9d3e ac4f 81be 2748 043e
000003b0: 77f7 5f3e f7c1 19be 2065 c7bd ac0a 0bbe
000003c0: 6fc8 adbc ef30 28be 2d93 80be bb14 e2bd
000003d0: e1a0 5f3e 8ab4 7ebe edea 34be 8f6a b53d
000003e0: 92eb f03d a1cc 2f3e fcc9 593e a5b2 743e
000003f0: d25d 563e 89e5 7f3d d8d9 8bbe 86c8 623e
0.3403357 0.11568663 -0.17133057 -0.045171857 0.17293012 0.024787176 0.067066684 0.23698616
-0.29156408 0.0941376 -0.2596921 -0.2003213 -0.19017032 -0.21006335 -0.25927034 0.14690292
0.21524549 0.009900064 0.07676648 0.03840328 0.07591006 0.19471568 -0.16164207 -0.052226704
-0.13033351 0.11796527 0.15338646 0.17802523 -0.0156528 -0.028902251 0.22281997 -0.049566764
0.026981091 0.32827887 0.16959645 -0.14018577 0.3305339 0.20376971 -0.1546196 0.1661654
-0.23041102 0.28905112 -0.045245375 0.00475212 0.026679689 0.22044933 -0.1248789 -0.17210539
-0.2604155 -0.20937793 0.110386446 -0.08118091 -0.13901432 0.06675849 0.17961966 -0.05099002
0.0015025152 -0.20402643 -0.08556409 -0.15281549 -0.04124365 0.14420147 -0.07652544 -0.07145104
-0.14231588 0.13116832 0.032223035 0.09777898 0.2971638 -0.2876569 -0.24580385 -0.27543032
-0.1309499 -0.0010039918 -0.24851096 -0.21951024 -0.09617532 0.2698903 -0.08070416 -0.167302
0.13748701 0.07991981 -0.14970185 0.092828095 0.15645581 0.23209642 -0.29482216 0.043687694
0.22461529 0.067757204 0.030081134 -0.14290792 0.09983278 0.102306455 -0.08125476 0.049562883
0.280244 0.27853382 0.11354959 0.26689845 -0.030616758 0.18228303 -0.097417265 0.21757227
-0.1999518 0.0468332 -0.19091436 0.07235416 0.12824339 0.16716559 -0.05532111 -0.088381566
0.04588735 -0.23065978 -0.24965158 -0.12618457 0.23846176 -0.025037315 0.081568785 0.11752517
0.24763903 -0.22893403 -0.2942766 0.26547232 0.2025815 -0.12590836 -0.06910107 -0.3151913
0.0067298706 0.0666914 0.32724538 0.29278985 -0.03809154 0.22212075 0.22685753 -0.19006643
0.10671684 0.12895714 0.23290537 0.2839076 0.12389589 -0.09858374 -0.122915395 -0.029794402
-0.30075255 -0.07055455 -0.18574412 -0.17937197 0.30825093 0.20090102 0.111054756 -0.22776312
-0.15323573 -0.15641713 0.29271954 0.253488 0.049630478 -0.15603253 -0.25355005 0.02630442
0.05734113 0.15669915 -0.31230372 -0.084634915 0.22421254 0.078500055 -0.09684292 -0.1985674
0.14415996 0.092924684 -0.19878982 0.008657307 0.30503753 0.040035672 0.068740584 0.2530322
-0.1938886 -0.13289884 0.24253084 -0.23069091 -0.013329576 -0.024072906 -0.18928505 -0.24410169
-0.11006198 0.0396632 -0.17054747 0.091201454 -0.13715705 0.20100555 0.2236806 -0.101336665
0.2952999 0.15816589 -0.1757545 0.31518003 0.07604189 0.2450157 -0.21544611 0.22989585
0.15490492 0.032497182 -0.31360912 0.14224063 0.2220973 0.1627126 -0.24309075 0.20378704
0.0010685226 0.061016545 0.25976232 -0.17533587 -0.24562941 0.00016012011 -0.21538733 0.083675005
-0.0068102228 -0.09905293 0.21546744 -0.21365331 -0.09076808 0.254581 0.15630382 -0.16463846
0.12656097 -0.12919231 0.3283812 0.22753403 0.25509745 0.032962468 -0.009759988 -0.13965848
0.30170283 0.3077095 -0.25256097 0.12918149 0.21871744 -0.15015398 -0.09736085 -0.1357829
-0.021213738 -0.16424917 -0.25112286 -0.1103911 0.21838714 -0.24873558 -0.17667742 0.08858215
0.117636815 0.17167903 0.21268457 0.23896272 0.20934227 0.06247476 -0.2731464 0.22146806

network.0.bias f4 [64]
00000000: b3c0 9c3e 2038 263e d139 37be 79b6 9f3e
00000010: 80d3 88be 1839 183d c2a6 a33e c603 92be
00000020: 0e33 b3bd ea4f 1fbe add7 6ebe 2483 90be
00000030: d82e 50be aae0 5bbe f9b2 aa3b 7e43 103e
00000040: 77fc 8dbe b049 ce3d a107 3ebd 102c 953e
00000050: 8048 223e 9f5f 8cbe ce2d 463e 8eab 323e
00000060: a45c 893c 7071 c73d b51a 553e 0d53 113e
00000070: 3229 0abe 5ece 32be a313 033e 8223 16be
00000080: 9b7f 593e 0654 4e3d 1811 90be 05c2 783e
00000090: 4939 82bb e65c fcbd dd2f a73e 769e 3bbe
000000a0: bb49 033e 7936 cfbd a05e a5bd b3ea 6ebc
000000b0: 9f4f 66be 97ba 47be 1f99 f9bc 45d6 b4be
000000c0: 941d 763e 5e31 c43c 5159 3b3c 119c 8a3e
000000d0: 443a 45be dc53 3d3e 46c5 7c3e e5f1 aabc
000000e0: 1577 cbbb ac34 4c3d 7c92 193e 56eb 323e
000000f0: ab4e 833e cfe8 803d cf4c 81be 40fd 10bd
0.30615768 0.16232347 -0.17893149 0.31193903 -0.26723862 0.037163824 0.31963164 -0.28518504
-0.08749972 -0.15557829 -0.23324461 -0.28225052 -0.2033037 -0.21472421 0.0052093235 0.14088246
-0.27731678 0.100726485 -0.046393994 0.2913518 0.15847969 -0.27416703 0.1935341 0.17448255
0.016767807 0.09738433 0.20810969 0.14191838 -0.13492277 -0.17461535 0.1280046 -0.14661983
0.21240084 0.0503731 -0.28138041 0.24292763 -0.003974114 -0.123224065 0.32653704 -0.18322167
0.12821095 -0.10117812 -0.08074689 -0.014582324 -0.2249131 -0.19504772 -0.030468522 -0.35319725
0.2403472 0.023949321 0.011434869 0.27072194 -0.19260508 0.18489021 0.24684629 -0.020867297
-0.006209264 0.04985492 0.14997286 0.17472586 0.25645956 0.06294405 -0.25253913 -0.035397768

network.2.weight f4 [32, 64]
00000000: 02d6 0bbe 042e 86bc de9b f33d 7261 d93d
00000010: 48c4 863d 1365 a9bd c05a a2bd 9843 ebbc
00000020: 07f3 363c fd34 ab3d fdf7 423d 0dfc 013e
00000030: e646 5dbd 3571 4fbc 5a37 b43d 56ac cdbc
00000040: fc17 59bd 0b1c cb3c fe30 2e3d 4363 0f3d
00000050: d867 4e3c fd89 d9bd a727 b63d 0a27 8abd
00000060: 9352 abbd 4db4 06bd 3f77 c23c 1f0a dc3d
00000070: 6891 9ebd 3e38 703d 3c16 9abc d827 153d
00000080: 6821 b73d ad92 853d 4a15 c53b dbe5 5cbd
00000090: e8d1 333c 344d 963d 6395 17bd c7d0 4bbd
000000a0: 87e7 573d 6d90 b2bc 5012 0bbd 2535 aabc
000000b0: fe54 d73d f22f c83d 8ac7 21bd b44e 11be
000000c0: 1e2b 2abd 1c80 a63d dcc3 c63d 3185 f93b
000000d0: 2d5a a3bd 3ad7 ca3c b160 9d3d 1775 063e
000000e0: 7286 843d 1b0c b63d b08a 00bd 0f24 95bd
000000f0: 7a39 283c d703 cc3d 7f5e ffbd c030 90bc
00000100: 3497 563d c843 8e3b 90b5 573c 73c2 6c3c
00000110: 2c33 ad3d 5d82 72bb dda8 773d 066f 9e3d
00000120: dfd0 aebd 0e2e 073d 671b dfbc 5288 92bd
00000130: a483 b1bc 42e5 183d 6772 b9bd 37bd 173d
00000140: ab1c 673d 22f0 ebbd 17ab 47bd c555 733c
00000150: cd0f 98bc d9bb 903d a638 dc3d df4e 173c
00000160: 823d cc3a f455 4e3c 59c9 c33d 519f 983d
00000170: d0ff 633c 0560 65bd ede6 c53d b84a ddbd
00000180: 84bf 5dbd 23a8 873d 6474 8f3c 01eb 163e
00000190: 1895 123d 5e1e adbd 87fc 243e 3cbc 2bbd
000001a0: eef3 0f3e 1f82 1dbd 89a6 8abd 4043 21bd
000001b0: 9dad 983c 747c 2b3d 16d0 823e 3e92 74bd
000001c0: 49d4 483e a5f8 96bc b855 6fbd e000 be3c
000001d0: bf32 6e3d 9dcd adbc a52f 41bd 27b6 b23d
000001e0: 2d9f 37bd 9165 3b3e 60f4 93bd 75fd 233e
000001f0: eeb8 dcbb ebfe c93b 3031 1fbd b66e 9a3c
00000200: 8040 f1bb 608f 02bd a6cc c1bd 1874 8cbd
00000210: a440 6abd 7ce5 61bd 206d 66bd c470 863d
00000220: 2085 d73b 90ee e9bd 4cd4 6a3d 08cc 513d
00000230: 3858 4fbd 6009 103c e8fc 63bd 18b3 69bd
00000240: 66e8 e63d 7459 fabd be36 9e3d a0ff 64bc
00000250: d43e 4b3d 98be f4bd 404a f9bd 4e08 d9bd
00000260: e0bf bf3d 30e8 21bc 20e7 fe3d 5889 0cbd
00000270: dc72 88bd a4c4 923d be12 92bd 2ca1 f7bd
00000280: 541c 70bd f0db 71bc 00a1 85bd 28d7 8cbd
00000290: 7407 163d ec47 b43d 08f9 a13d 9ccd a0bd
000002a0: 5a87 d03d c0df 7a3d 3ed9 bc3d 9cd6 7cbd
000002b0: 6498 6d3d c6a7 83bd 7c8a c93d 94e8 0a3d
000002c0: fae8 fb3d 1871 4dbd 4c51 25bd f4a7 6ebd
000002d0: 9070 b93c 08b1 73bd d85a b43c b8c5 fd3d
000002e0: d892 a83d 4042 9abd 108a f63c e844 833c
000002f0: 3076 4f3d c2f4 bcbd f6b2 f03d 681e f8bd
00000300: f030 1c3d a498 9f3d 60e2 30bd 991e c23d
00000310: e020 913c f43b 783d 2873 41bd b2a2 e1bd
00000320: 8952 cf3d df20 a3bd 8ffb e7bc 3e9b e43d
00000330: 2fa8 da3d ac9e f53d 12a1 e73d 971c 1cbc
00000340: c7b9 babc df6a 9b3a 3cd3 c23d cca8 ad3d
00000350: b408 ef3d 6aaf db3d 3d93 1c3e 1a5e 043e
00000360: 706e b73d ae8f b33d 6604 3bbd 3a5c cb3d
00000370: c050 31bd d371 f53d a2a9 9abd a043 a2bd
00000380: 609a 103c 013b e13d 3ff4 a9bc fda8 9ebd
00000390: d174 be3d 56f1 98bd fdf7 fd3d c6f3 c93d
000003a0: def7 32bd 81d3 f43c e740 edbc 557c 30bd
000003b0: 4f87 a5bd 28c2 b43d 03f6 453e cb7e 933b
000003c0: e487 f13c 6326 b63b 8ce2 d93d e59b 0e3e
000003d0: a41f b9bd 86a0 fe3d 78e6 e2bd a65f b7ba
000003e0: b5c7 0d3e 88ae 2d3e 300a 133c e713 36bd
000003f0: 00fa c03d a80a 923d 5e9d 12bd 2ad0 a83c
-0.13655856 -0.016379364 0.11894964 0.10614289 0.065804064 -0.082712315 -0.079274654 -0.028718755
0.011166341 0.08359716 0.04759978 0.12693806 -0.054022692 -0.012661268 0.0879962 -0.02510659
-0.05300139 0.024793645 0.04252719 0.035006773 0.0125980005 -0.10622022 0.08894282 -0.06745727
-0.08365359 -0.032886792 0.023738502 0.10744118 -0.07742578 0.058647387 -0.01880943 0.03641495
0.089419186 0.06522117 0.0060145007 -0.053930145 0.0109753385 0.07338944 -0.0370077 -0.049759652
0.052711036 -0.021797383 -0.03395301 -0.020777294 0.10514258 0.0977477 -0.039496936 -0.14190179
-0.041545026 0.08129904 0.09705326 0.0076147546 -0.07976184 0.024760831 0.07684458 0.13130604
0.06470956 0.08889028 -0.031382263 -0.07282268 0.01026761 0.0996167 -0.124691956 -0.01760137
0.052390292 0.0043415762 0.0131658465 0.014450657 0.08457026 -0.0037003972 0.060463775 0.0773602
-0.08535933 0.033002906 -0.027234746 -0.07154907 -0.021669216 0.037328012 -0.09055024 0.037045684
0.056423824 -0.11520411 -0.04874715 0.014851992 -0.018562222 0.07067079 0.10752992 0.009235113
0.0015582296 0.012593735 0.095598884 0.07452262 0.013915971 -0.055999774 0.09663186 -0.10805267
-0.05413772 0.066238664 0.017511554 0.14738084 0.035786718 -0.08453058 0.16111957 -0.04192756
0.14057896 -0.03845417 -0.06770045 -0.039370775 0.018637473 0.041866735 0.25549382 -0.05970978
0.1961223 -0.01842911 -0.058431357 0.023193777 0.058153864 -0.021216208 -0.047164578 0.08726149
-0.044829536 0.18300463 -0.07224345 0.16014655 -0.0067359125 0.006164422 -0.03886527 0.01885162
-0.0073624253 -0.031875014 -0.09462862 -0.068580806 -0.057190552 -0.055150494 -0.056256413 0.06564477
0.006577149 -0.11422455 0.05733137 0.05121997 -0.05062124 0.008791298 -0.055661112 -0.057055563
0.11274795 -0.12224093 0.07725285 -0.013976961 0.049620464 -0.119504154 -0.12172365 -0.10597287
0.09362769 -0.009882018 0.12446427 -0.03431067 -0.06662533 0.071664125 -0.07132481 -0.12091288
-0.058620766 -0.01476191 -0.06524849 -0.06876975 0.0366282 0.088027805 0.07908827 -0.07851717
0.10182066 0.06124854 0.09221123 -0.061728105 0.05800666 -0.064284846 0.09840867 0.03391321
0.12300296 -0.050156683 -0.040360734 -0.05826564 0.022636682 -0.059495002 0.022015974 0.123912275
0.08231133 -0.075321674 0.03009513 0.016024068 0.05064982 -0.09226371 0.11752884 -0.121151745
0.038132608 0.07792786 -0.043184638 0.09478492 0.017715871 0.06060405 -0.047228962 -0.1101736
0.10123164 -0.07965254 -0.028318195 0.111624226 0.1067661 0.11993155 0.113100186 -0.009528301
-0.022793664 0.0011857412 0.09512946 0.08479461 0.11671582 0.10726817 0.15290542 0.12926522
0.08956611 0.08767639 -0.04565849 0.099297 -0.0432899 0.11984601 -0.07551886 -0.07923055
0.008825868 0.10997582 -0.020746348 -0.07747076 0.09299625 -0.07467906 0.12400816 0.09860949
-0.043693416 0.02988601 -0.028961612 -0.043087322 -0.08082449 0.08826095 0.19332127 0.004501199
0.029483743 0.0055587753 0.106389135 0.13926657 -0.09039238 0.12432961 -0.11079115 -0.0013990297
0.13845713 0.1696111 0.008974597 -0.044452574 0.09422684 0.07130939 -0.03579461 0.020607073

network.2.bias f4 [32]
00000000: 95e9 873d cea1 bc3d 6aa2 93bd 52f8 043e
00000010: f813 10bd e40b f4bd 084f 51bd 9c98 e93d
00000020: 22bb f8bd e337 cf3d a787 acbd 0a50 e3bc
00000030: cfb2 a83b 329c 443d de3d 8a3d db0e 0b3e
00000040: bf05 5d3d dc25 73bd c244 873d 6076 28bd
00000050: 4066 adbc b8b6 e13c decf d03d 00eb 59bc
00000060: 8889 313d 6c77 0ebe 324f d5bd e3dd 3dbd
00000070: f40d 36bc f33c 41bc c079 833c 661d b73d
0.06636349 0.09210549 -0.072087124 0.12985352 -0.035175294 -0.119163305 -0.05110076 0.11406061
-0.12145068 0.101180814 -0.08424311 -0.027748127 0.005148269 0.048000522 0.067500815 0.13579886
0.053960558 -0.059362277 0.066049114 -0.041128516 -0.02116692 0.027552947 0.101958975 -0.013300657
0.04334405 -0.13912743 -0.10415496 -0.046354186 -0.011111725 -0.011794317 0.016049266 0.08941154

network.4.weight f4 [4, 32]
00000000: b4bf b33c 6047 2e3d 51e9 323d ef04 89bb
00000010: 9d9c 333e 015f d33d aa07 f9bd 240e 073e
00000020: 8c2b 053e 3bb7 2cbd e4e1 af3d d0f7 d73d
00000030: b640 043e 3f7d c9bd 9cdc 66bc 6668 babd
00000040: fbd3 38be 51a2 ac3d 8a3e 8a3d bee7 ecbd
00000050: 8c6f c13d 1ab2 843d 58fa a83d bd7d e63d
00000060: 2ad7 a0bd aee1 ef3c d968 09be 1c74 20bb
00000070: 904b 1d3d 9e56 983d 4930 cb3d 5ba7 c13d
00000080: 3601 a4bb 38bb bcbd 1e74 293c ba73 2cbd
00000090: c72f 1b3e 3de3 073e deba d43d e9fa 2fbe
000000a0: 9132 12bd a566 8f3d 5c10 ec3d 2b60 66bd
000000b0: de3a 8dbd 0817 03be 3ecc d4bc f9c5 d0bd
000000c0: 5c77 51be ecca 273d aeac 1a3e c47e d53c
000000d0: 78e1 cebd bed8 cf3d 9238 b7bd 0fcb 183e
000000e0: d144 3abe 12de 6e3d c8d7 2c3d 91e2 a3bd
000000f0: 4e52 d33d 2c40 2dbb cc9e b63d aeff 0b3e
00000100: c385 103d cc85 3a3e f3cc e1bd 5fca 4c3e
00000110: 752f aabd 3a31 32be d2a3 023e a12c 843d
00000120: a64e 13be ccbf 17be bb9b 09be 188d 623e
00000130: 5802 8c3d 6af9 7d3d 264f ad3c 5cce 863c
00000140: 98d4 103e bd40 93bd 1e75 45bd 4412 98bd
00000150: 5eb3 32be 2bfc 183e 24bd d5bd 07cf 7dbc
00000160: 19a6 e03d 9575 40bd 046b f23d 0e0b 99bc
00000170: c6ac 94bd 871a 983e 937e 1dbd 7dd3 953c
00000180: 0ebd d9bd ba1a ac3d d201 6e3d 8876 b43d
00000190: 0d1f e1bd c39b 4e3d 485f c2bc 532f aabd
000001a0: fb19 f33d 6c5b 2f3b 369b 97bb 69ad 123d
000001b0: a2e2 52bd 0347 94bd 2a3a 413b 1964 dbbd
000001c0: 7db3 ea3b d97b 4c3d d328 b9bd e455 133d
000001d0: 781e 5bbd fca2 903d eabb 9fbd e574 223e
000001e0: e155 403d 02db d2bd 5742 b23d ae99 36bd
000001f0: 9b09 d4bd 5d9b 633d aee5 7a3d 7ec6 2f3c
0.021941997 0.042548537 0.04367954 -0.0041814963 0.17540212 0.10320855 -0.12159665 0.13188988
0.13004893 -0.04216693 0.08588007 0.10545313 0.1291531 -0.09838342 -0.014090683 -0.09101944
-0.18049614 0.08429397 0.0675021 -0.11567639 0.09445104 0.06479283 0.08250874 0.112544514
-0.07853539 0.029282417 -0.13418902 -0.002448327 0.03840214 0.07438396 0.09921319 0.09455749
-0.005005027 -0.09215397 0.010342626 -0.042102553 0.15154944 0.13270278 0.103872046 -0.17185558
-0.035692755 0.07002 0.11526558 -0.056244057 -0.06895994 -0.12801754 -0.025976297 -0.1019401
-0.20455688 0.040965006 0.15104935 0.026061423 -0.101015985 0.10148762 -0.08946337 0.1492121
-0.18190314 0.05831725 0.042197973 -0.080021985 0.10318433 -0.0026435954 0.08917007 0.13671753
0.035283815 0.18215102 -0.11025419 0.19999073 -0.08309833 -0.17401591 0.12757805 0.06453825
-0.14385471 -0.14819258 -0.13438313 0.22124135 0.068363845 0.062005438 0.021155905 0.016455822
0.14143598 -0.07190082 -0.048207395 -0.07425359 -0.17451236 0.14939944 -0.10436466 -0.015491254
0.109691806 -0.046987135 0.11836818 -0.01868203 -0.072595164 0.2970774 -0.03845079 0.018289322
-0.106317624 0.08403535 0.058107205 0.088116705 -0.109922506 0.050441515 -0.023727074 -0.08309808
0.1187019 0.0026757373 -0.004626657 0.035809908 -0.051485665 -0.07240107 0.0029484131 -0.107124515
0.00716251 0.049922798 -0.0904099 0.035970584 -0.053495854 0.07062337 -0.07799514 0.15864904
0.0469569 -0.10295679 0.087040596 -0.044580154 -0.103533946 0.055568088 0.061254196 0.010728477

network.4.bias f4 [4]
00000000: e079 5e3c a7e8 203d c567 3d3d a190 e5bb
0.013578862 0.039284375 0.04624154 -0.0070057665

player_encoder.0.weight f4 [64, 6]
00000000: b9e8 4e3d df86 82be 0ac8 e7bd abca 4c3e
00000010: 6cf2 ecbe efbc b43d 2ee1 413e ff5a cc3e
00000020: 6cff b83e 7c2e 703e 3a99 743e ef8e 713d
00000030: c17e 733e 0400 e13d 6ce2 8d3e f4ef fa3d
00000040: 2937 3a3e b0ce 9cbe 4b40 0f3d 136f 3d3e
00000050: cb34 aabe 6890 303e 7ca2 ca3e 4c09 bf3e
00000060: 598b 53bd 53ee 3ebd 1747 333e e993 c33e
00000070: e36b aabe 6eb2 22be bdc0 aa3e a127 87be
00000080: cb85 7d3d f61c 9bbe 867c 20be 79b9 8a3e
00000090: f9bd b73d 3018 58be 92e4 b13e ccd6 6abe
000000a0: 25da 26be f9f9 a6be 4f9a 20be 8444 c1bc
000000b0: 5d5c 9a3e d39d 5f3e bd8e 6e3c e0f6 023e
000000c0: 06ae 1cbe f1b7 ee3e a1a2 a73e 7ff3 ad3e
000000d0: 5de0 a13e d002 abbe 8790 8dbe 2b8a 51be
000000e0: 91b9 a73d 77b7 c63e 7cb9 613d 19b8 7abe
000000f0: 8d4c d73e 96af eabc 275b 9f3e 8fa5 463d
00000100: 5824 01bd 157c 61be 5036 f9bd 18fe 863d
00000110: 560d 42be a416 abbe 992d 223e fb8b bd3e
00000120: 4cad 143d 22b3 b3be 3945 a53e 24c2 5ebe
00000130: 664a 8bbe 664c 28bd 1d3c 7dbe a37d db3e
00000140: 2b03 c03e a14d 83bd 8c35 e33d 68a1 b9be
00000150: f212 f33d c3d8 27be 4e44 5c3e 0b48 c73d
00000160: dae8 843e f831 993e 467c 96be a709 b03d
00000170: 880d b33e 75bd e23d 0076 afbe c914 40be
00000180: c39b 00be 8e86 ba3e 7b87 203c 73bc 4f3d
00000190: 921d c9be 707c 85be 5e83 483e 27fc 033d
000001a0: bf0c 3abd bc31 863d 6a5f b93e 3d3d 103e
000001b0: 0056 3d3c 0699 f0be 7747 8f3e a6b7 a2bc
000001c0: 0373 8b3e 3785 abbe bb57 c23e 40bc 7dbe
000001d0: 710f a4bd f324 833e 7f17 793e f280 173d
000001e0: bbf4 2c3e 9d8d 813e e00b 09bd 7657 3ebe
000001f0: 8fdc 32be 6b87 84bb 919e a73e 00d6 94be
00000200: 3da5 0ebe 0590 173c 5ccd 52be 9b09 843e
00000210: 6702 a73e 4cb8 53be 1fbe a2be e665 1abe
00000220: 70c8 a9bd 69d1 303e 01d5 ad3c 9523 32bd
00000230: 4b14 8fbe fefd 5b3e 7419 3a3e bd74 6bbd
00000240: 06d3 813a fc25 aebe 6c38 40be cf62 aabd
00000250: 76b3 693e 25ca 61be b38d a8be 85d8 153e
00000260: 828c d03e d120 61be e367 e03b 49c5 95be
00000270: 2193 3d3e a5cf 8dbe 6f57 b7be eef9 4fbd
00000280: 8411 b7be e9b6 bb3e c9a9 b5be 6c20 473d
00000290: 7ab0 d23d e01b c2be 1c8d cebd 3adf 133e
000002a0: 098f 303e 74ed af3e 5808 82be 29e7 55be
000002b0: 9b70 46be 98c5 c03e 8b07 2b3e 3a9e b9bd
000002c0: fed4 903e 8eeb b83e 8631 883e b0a2 8b3e
000002d0: ae5e 45be 9808 983e 6541 abbe 43bf 78be
000002e0: a681 d3bd 5dc8 5b3d a81e 9dbe 934f bc3e
000002f0: a5ed 433e 325d bebe f43f bcbd f3b1 6b3e
00000300: d7ed afbe 0824 523e d517 06be ba02 5d3e
00000310: 0932 7cbb 5bcd 44be 6ac6 c5be c308 58be
00000320: 3364 bbbe f9ee aa3e 163c c13d b8a3 88be
00000330: e21e b1be 4409 343e 18f3 6dbe ec54 e53b
00000340: e5bf 953e 4dfc 1cbe 4183 d53d 5a2f b6bd
00000350: 103b 29bd b5ff f2bd bdb3 debc 38c1 6a3e
00000360: 4d1d 213e 8e08 6abe 63f8 033e c5d8 c73e
00000370: a24c 80be bf52 5d3e dbbf a6be 74ac 9e3e
00000380: 80b8 29be f9d0 46bc d37f 3ebe 882e b73d
00000390: a8be 8a3e 45c0 8fbe 4c53 ffbc fea6 0b3e
000003a0: 1658 08bd 6d9a 373e ea54 523e 4d96 ac3e
000003b0: 06ec 0a3d dac8 4f3e 3787 243c 8f5f 9dbd
000003c0: 9ef5 ec3b 9238 c5bd 3dbb 963e 6187 b73e
000003d0: cee0 8e3c 9b45 0a3e 37da 69be 1d8e a1bd
000003e0: cc27 03be be59 cbbe 8666 c1be 6321 bc3e
000003f0: 8b40 abbe ddfd 06be 432a ba3e c452 acbe
0.05051491 -0.25493523 -0.11317451 0.19999187 -0.46278703 0.08825099 0.18933555 0.39913175
0.3613237 0.23455232 0.23886576 0.058974203 0.23778822 0.10986331 0.2771181 0.12252799
0.18185104 -0.3062644 0.034973424 0.18499403 -0.33243403 0.17242587 0.3957709 0.3731178
-0.051646564 -0.046614002 0.17507587 0.38198784 -0.33285436 -0.15888378 0.33350173 -0.26397422
0.061895173 -0.30295533 -0.15672502 0.2709463 0.08971781 -0.21102977 0.34744698 -0.22933501
-0.16294153 -0.3261259 -0.15683864 -0.023592241 0.30148593 0.21837549 0.014560399 0.12789488
-0.1530076 0.4662471 0.32741264 0.33974835 0.31616488 -0.33400583 -0.27649328 -0.20462863
0.08189691 0.38811848 0.055108532 -0.2448429 0.4205059 -0.028648179 0.3112423 0.048497733
-0.0315288 -0.2201999 -0.121685624 0.06591433 -0.189504 -0.3341571 0.15837707 0.3702086
0.03629808 -0.35097605 0.32279375 -0.21753746 -0.272052 -0.041088484 -0.24729963 0.4286929
0.37502417 -0.06411291 0.11094198 -0.36255956 0.11868848 -0.16391282 0.21510431 0.09730538
0.25958902 0.29920936 -0.29391688 0.08595591 0.3497126 0.11071292 -0.34269714 -0.18757929
-0.12559418 0.36430782 0.009797926 0.05071683 -0.39280373 -0.260715 0.19581363 0.032222893
-0.045422312 0.06552455 0.36205608 0.1408586 0.0115561485 -0.46991748 0.2798421 -0.019862961
0.27236184 -0.33500072 0.37957558 -0.24778843 -0.08010758 0.25614128 0.2432537 0.036988206
0.16890232 0.25303355 -0.03345859 -0.18588051 -0.17466949 -0.0040444634 0.32738164 -0.2906952
-0.13930221 0.0092506455 -0.20586151 0.25788578 0.3261902 -0.20675772 -0.31785676 -0.15077934
-0.082901835 0.17267384 0.021219732 -0.043490965 -0.2794517 0.21483609 0.18173772 -0.057484377
0.0009904809 -0.34013355 -0.18771523 -0.083196275 0.22822365 -0.22049768 -0.32920608 0.14633377
0.407322 -0.21985175 0.0068483218 -0.2925208 0.18513156 -0.27697483 -0.35808894 -0.05077546
-0.3575555 0.36662987 -0.35481098 0.048614904 0.102875665 -0.37911892 -0.10085508 0.14440623
0.17242064 0.3436085 -0.2539699 -0.20888962 -0.19378893 0.37650752 0.16702096 -0.090633824
0.282875 0.36117214 0.26600283 0.27272558 -0.19274399 0.29694057 -0.3344833 -0.2429171
-0.10327463 0.05365788 -0.3068745 0.3677946 0.19133623 -0.37180477 -0.091918856 0.23017101
-0.34361145 0.20521557 -0.13095029 0.21583071 -0.0038481972 -0.19218962 -0.3862794 -0.21097092
-0.36599883 0.33385447 0.094352886 -0.26687407 -0.34593874 0.1758166 -0.23237264 0.006998649
0.29247966 -0.1533062 0.10425425 -0.0889575 -0.041316092 -0.118651785 -0.027185315 0.2292527
0.15733834 -0.22854826 0.12887721 0.3903257 -0.25058466 0.21613596 -0.3256825 0.30990946
-0.16574287 -0.012134784 -0.18603449 0.08944422 0.27098584 -0.28076378 -0.031167649 0.13637921
-0.03328713 0.17930003 0.20540205 0.3370842 0.033916496 0.20291463 0.010042003 -0.07684242
0.0072314283 -0.096299306 0.29439726 0.35845473 0.01744118 0.13503115 -0.22837149 -0.07888434
-0.1280815 -0.39716905 -0.37773532 0.36744222 -0.3344768 -0.13182779 0.36360368 -0.33656895

player_encoder.0.bias f4 [64]
00000000: ae00 ec3d be90 50bd c559 15be 9989 153e
00000010: f07a bdbd b005 38be e1d3 463e 9af2 95be
00000020: 118d adbe 00a2 b93c 238b 2b3e 450b 26be
00000030: 8521 93be b5a5 703e 027f e3bd 2d30 79be
00000040: fc92 9b3e b089 dfbe 44ac 753e ebc7 e83c
00000050: b727 a0be 0b5c 27be 121e c6be 7cf5 56be
00000060: 9860 913e ff81 8abd d983 20bd 160a 52be
00000070: 46e5 50be a4fc 953e 67cb 6e3e a10d 0abe
00000080: 6406 f6bd 4940 253d 41dc 2cbe bd4f a2bd
00000090: f296 3b3e e204 4cbe 719c c23d be63 6b3e
000000a0: a4d5 80be d618 0cbd d520 843e 1108 443d
000000b0: 1776 7c3d 7486 103d 7cfd 073e 246d d9bd
000000c0: 9c44 69be e9c2 353d 5ca4 643e fd75 ab3e
000000d0: d07a 973e 3463 983c 2fd7 bb3e 9e01 743d
000000e0: c2cc e63d 26bb d1be 2b45 623e b34d 5dbe
000000f0: 1692 cdbe e127 91be cc19 2fbe c227 c2be
0.11523567 -0.050919287 -0.14585026 0.1460327 -0.09251964 -0.1797092 0.19416763 -0.29286653
-0.33896688 0.022660255 0.16752295 -0.16215236 -0.2873651 0.23500712 -0.11108209 -0.24334784
0.30385578 -0.43659735 0.23991495 0.02841564 -0.312803 -0.16343705 -0.38694817 -0.20992082
0.28394008 -0.06763076 -0.03918824 -0.2051166 -0.20399961 0.29294312 0.2331978 -0.13481762
-0.12012938 0.04034451 -0.16880895 -0.07925365 0.183193 -0.19923738 0.09502495 0.22987267
-0.25162995 -0.034203373 0.258063 0.047859255 0.061636057 0.035284474 0.1328029 -0.1061652
-0.22780079 0.044375334 0.22328323 0.33488455 0.29585886 0.018601991 0.3668761 0.059571855
0.11269523 -0.40963095 0.22096698 -0.21611671 -0.40150517 -0.28350738 -0.17099684 -0.37920958

player_encoder.2.weight f4 [32, 64]
00000000: e5b8 a1ba d140 b0bd d182 dabc 767c 923d
00000010: 36a7 63bc 40ac 033e 5923 bb3d e964 38bd
00000020: 2d23 6ebd 645b 963d 6a13 823c 28e8 8fbd
00000030: 1360 1b3d 155c 513d b2ac 403d 7fbb a73d
00000040: a115 9ebd 786a c93c d8f9 47bd 16e4 f83d
00000050: c20c acbd f2f5 f7bb 289c 05bd 6280 f33d
00000060: af06 643d 68ba 94bd 907a 62bc cb45 bc3d
00000070: 6cd4 923d d686 c43d 6143 96bc ba62 4dbd
00000080: 694e 943d cba1 debd a74f c63d adf0 4cbd
00000090: 8194 48bb 6f6d c13c 668b 9dbd 9998 883b
000000a0: 4318 433d 2dd7 c93d f2d5 953d 3e11 22bd
000000b0: c0af 34bd 08d3 10bd a9ed fe3c 3e8d febd
000000c0: 94cd 473d e6da 9a3d e933 74bd 07de 0a3d
000000d0: 024c 92bc f79a f9bb 7b74 babd a89f 673d
000000e0: b60c f1bd e5f3 08bd 4590 08be 5596 0d3e
000000f0: 46aa 99bd a207 2e3d 486a 233d 72b4 d53d
00000100: fe6a 033e f8d9 6c3d b53a a33d a205 3a3d
00000110: 2132 d6bd 0b9d e53d 263b e13d 0c3e e93a
00000120: 39ee a93c 4fae 723d c12e 8c3d c786 323c
00000130: 8479 443d d832 97bd a0f2 bebd 047c bebd
00000140: 6d14 a53c 0973 223d a67a a13d adec b83d
00000150: 5be9 e63d 8737 04bd e08f 5fbd e28b e93d
00000160: 3b40 aa3c 6506 9cbc 8026 a0bc 79be 603d
00000170: 4a21 913d 0d76 043d 6861 9cbd 194f cc3d
00000180: 9d69 e8bd 5607 08bd 36db 0f3d 924b dabd
00000190: b191 a1bd 6cda 8c3d 6338 153e a669 8a3d
000001a0: 5130 c93d a726 cb3d cd43 5e3c bb95 bf3d
000001b0: d77b a6bd 3b58 8cbd 4c38 753d 0328 ee3d
000001c0: 3850 95bc 11b5 1a3d 3401 933c e168 3abc
000001d0: bb4d b8bd 7442 edba 80f0 4437 a9c6 28bc
000001e0: 883a ecbc cf05 303d ac21 a7bd 3ef6 363e
000001f0: dc92 8a3d 73b6 c4bd 8ad5 563d 3825 d1bc
00000200: c817 e03d 2e97 fc3d a03d 623d 2ff8 be3c
00000210: 93bd 733d 3ce8 e93d 4567 24bd c28e a6bd
00000220: b0d5 e4bd af19 713d b6e0 fc3d 9afc 113d
00000230: 1eac 5c3c 451a 33bd 2583 863b 8bbb 0dbc
00000240: 68c1 9ebc f067 9bbd 9882 353d cd37 7b3d
00000250: b8c6 a83d 25de 73bd d04f 1f3d 166c f5bd
00000260: 17b6 cfbc 5b9f 873d 2ded 773d c3ad e1bd
00000270: 82e8 ebbd c02e d7bd f459 513d 204f 5f3d
00000280: 9de3 06be ec70 aabd 0f01 453d 701a 8c3c
00000290: 217e bbbc 9d1b a83d 02f5 1d3d 4b9d 993d
000002a0: 18d1 a9bc 4fed ee3d ac7d 2fbd 0aae 7e3d
000002b0: 09d9 0d3c 8a9e 6bbd a97f 263d f716 033c
000002c0: 886d 9dbc 6b75 81bd e746 91bd 0941 833d
000002d0: f2da a4bd 29ad d7bd 9b9b 073e dd98 d7bd
000002e0: fc3a aabd 7739 edbd 94ac fd3d 380f 84bd
000002f0: 07ae edbd e0b5 053d f062 a5bd 3486 a6bd
00000300: c376 bebd 42d5 9abd b5fc 84bc 46dc 6fbc
00000310: 26e3 0a3d 8ad1 ca3c 3656 3fbc 4ec7 b4bd
00000320: 7fe2 72bd a42b aabd 60f0 e53c 354a 92bc
00000330: db84 cebd 87bc ca3c f1ca 1ebd 9b00 d83d
00000340: 488e b8bd 044c f93d 1fe1 01be 1441 efbd
00000350: fc8a 95bd 1306 893d 10df 6abd c03d fb3c
00000360: 75ca c6bb d2dc 3fbb 4858 debd f482 133d
00000370: 1d8e a9bd 5cc5 aabc bef8 e13d 3f9e 60bd
00000380: ae59 993d f289 abbd 49db 0c3d c0fb b23c
00000390: be9f 39bd 1f18 9a3d 9ec4 c0bb dec7 a23d
000003a0: fcc8 733d 2244 fcbc 9966 083d ef1c bc3d
000003b0: 8edc abbd 4bcb 8d3d 695b b1bb 0210 cbbd
000003c0: dc40 223d ecf7 a83d 2231 cf3d 4774 40bd
000003d0: d0a9 173d f8f8 71bd 9972 d33d 3b6f 893d
000003e0: a8af 573d 334c cd3d 683d 2d3c a073 9dbd
000003f0: 80aa 94bd a834 b5bd c464 543d 90d1 9bbc
-0.0012338428 -0.08606113 -0.026673706 0.07152645 -0.013894847 0.12858677 0.091376014 -0.04501811
-0.058139015 0.0734165 0.015878398 -0.07026702 0.03793342 0.051113207 0.047039695 0.08190059
-0.07718969 0.024586901 -0.048822254 0.12152879 -0.08400871 -0.0075671608 -0.032619625 0.118897215
0.055670436 -0.07262117 -0.0138231665 0.091929995 0.071694225 0.095960304 -0.018342676 -0.05014298
0.07241518 -0.10870703 0.09683161 -0.050034214 -0.0030606093 0.023611752 -0.07692604 0.0041685817
0.04763056 0.09855495 0.073161975 -0.039567225 -0.04411292 -0.035357505 0.031119185 -0.124292836
0.04878004 0.07561283 -0.059619818 0.033903148 -0.017858509 -0.00761735 -0.09104248 0.056548744
-0.117700025 -0.03343572 -0.13336284 0.13826878 -0.0750318 0.042487748 0.03989628 0.10434808
0.12833783 0.05782506 0.07970182 0.045415528 -0.1045878 0.11211594 0.1099761 0.0017794981
0.020743476 0.059248265 0.06844855 0.010896391 0.04796745 -0.073827446 -0.09323621 -0.09300998
0.020151341 0.039660487 0.078847215 0.09029517 0.11274978 -0.032279518 -0.05458057 0.11403634
0.02078258 -0.019046018 -0.019549608 0.05486915 0.070864275 0.032339144 -0.07635766 0.09976024
-0.11348269 -0.03321012 0.035121165 -0.10658945 -0.078891166 0.06877598 0.14572291 0.06758432
0.09823669 0.09919482 0.01356597 0.09354731 -0.08129089 -0.06852766 0.059868142 0.116287254
-0.018226728 0.037770335 0.01794491 -0.011377544 -0.08999201 -0.001810147 1.1738506e-05 -0.0103012705
-0.028836504 0.04297429 -0.08160719 0.17867371 0.067662925 -0.09605112 0.05244974 -0.025530443
0.10942036 0.12333523 0.05523455 0.023311703 0.059506964 0.11421248 -0.040137548 -0.08132698
-0.1117357 0.058862384 0.12347548 0.03564129 0.01346877 -0.043726224 0.004104989 -0.008650671
-0.019379333 -0.07588184 0.044313997 0.061332513 0.082410276 -0.059538025 0.038894475 -0.119835064
-0.025355382 0.066221915 0.060528923 -0.110194705 -0.11518957 -0.10506964 0.051111177 0.05451882
-0.13172765 -0.083223194 0.048096713 0.01710245 -0.022887291 0.08208392 0.038563736 0.075007044
-0.020729586 0.11666357 -0.04284446 0.062177695 0.008657702 -0.05752424 0.04064909 0.008001081
-0.019217268 -0.06321224 -0.07093602 0.06408889 -0.08049573 -0.105310746 0.13242953 -0.10527203
-0.083120316 -0.11583226 0.12386432 -0.06448215 -0.11605459 0.032644153 -0.080755115 -0.08131066
-0.09299996 -0.07560207 -0.016233781 -0.01463992 0.033908032 0.02475812 -0.011678269 -0.08827077
-0.059298035 -0.08309105 0.028068721 -0.01785765 -0.10083934 0.0247481 -0.03876776 0.105469905
-0.09011513 0.12172702 -0.12683533 -0.116823345 -0.073019 0.06690612 -0.057341635 0.030669093
-0.006066615 -0.0029275906 -0.10856682 0.03601356 -0.08279059 -0.020846061 0.11033772 -0.054838415
0.07487808 -0.0837592 0.034388814 0.02184856 -0.045318358 0.07524132 -0.0058828136 0.07948278
0.059517846 -0.030794207 0.03330097 0.09185206 -0.08391677 0.06923541 -0.0054125083 -0.099151626
0.039612636 0.08250412 0.10116793 -0.04698589 0.03702718 -0.059075326 0.10324592 0.06710669
0.052657753 0.100242995 0.010573722 -0.07688069 -0.07259083 -0.08847934 0.05185391 -0.019020826

player_encoder.2.bias f4 [32]
00000000: 0174 a0bd d345 1a3d 9688 ae3d 1a56 083d
00000010: 60d9 bf3d f0b1 f2bc 3b3f f8bd 0311 963d
00000020: 48ba a0bd 94af 51bd 1837 903d ac44 f5bd
00000030: b7ad a73d a663 10bd f3ae 93bd a686 bc3d
00000040: ab91 443c cc9f 1cbc d189 4b3b 3556 b73d
00000050: 017f 203c 51be 75bc 1cf6 dcbd fc98 23bd
00000060: 983f b1bd d0a4 c4bd 1fd8 c23d 8813 aebd
00000070: e1fb 333e 060f 9e3d b017 a9bd 734a f93b
-0.07834626 0.037664246 0.085221455 0.033285238 0.09367633 -0.029625863 -0.12121435 0.073274635
-0.0784803 -0.051192835 0.07041758 -0.11975989 0.0818743 -0.035251282 -0.07211103 0.0920537
0.011997621 -0.009559583 0.0031057487 0.089519896 0.009795905 -0.014998988 -0.10789129 -0.03994082
-0.08654708 -0.09601748 0.09513878 -0.08499819 0.17576553 0.07717709 -0.08256471 0.007607752

context_encoder.0.weight f4 [32, 10]
00000000: 6278 0c3e 48ca 42be b346 d5bd 38af 7e3e
00000010: 1c78 2ebe 3dfd 6b3e ceca 28be 673d 643b
00000020: 0872 8ebe e276 6b3e dbe9 a63d 8573 5c3e
00000030: a4ea 81bd e99d 9cbe e27c 26be dc2d 1f3e
00000040: a92d 71be b4a9 86be 8ed3 b43c a0c0 183e
00000050: 5ffb ef3d 4a96 3abe 82c0 843e 888e 9a3e
00000060: 7c9d 9c3e 4504 1f3e e60d e7bd 76cd 53bd
00000070: b4d0 53be 6acc 33bd 4712 71be 05a4 2fbe
00000080: 7610 f1bd 2602 ad3c 75b3 1abe b4cb 4abd
00000090: 3555 16be 83cf 07be 5b13 003e 1b1a 843e
000000a0: 6ed9 953e 5fd3 a3be 91b2 093e 4ef1 88bd
000000b0: 5993 033e 5336 3a3e 66df d1bd 05d4 00be
000000c0: 7153 e3bd 7fb5 1ebd 403b 153e fb09 893e
000000d0: 279b 073e f9ae 60bd 5592 46bc 2f79 57be
000000e0: b480 4bbe c88d 7f3c 2e7d 303e b68e 043d
000000f0: 97d9 3f3e 9724 c33d 6f3a e43b 2fba 1a3d
00000100: 001d 7a3d a0ec 01bd 9b19 683e 3618 a8be
00000110: 0019 75bb 7172 cd3d 78fd 6dbe 1f8c a0bd
00000120: 48df 18bd d0e8 a9bb e132 92be 7131 5d3d
00000130: 9866 debd c2c8 523e a157 833c 2d6f e53d
00000140: a919 62be e490 4d3d 4d27 64be c32e 4a3e
00000150: 3bf0 193e 255d 2dbc 18bb e2bd b7e2 7f3e
00000160: 74fa 183e 5f10 12bd 05de 743e 1aca 233e
00000170: 97c8 3d3e c2bd 8abe 4360 8dbc 1491 10be
00000180: f514 96bd f7f6 973e 3277 9fbe 6fc4 00be
00000190: 073b 933e 66ee a43d fa29 a2bd 2184 cc3d
000001a0: f5bd e73d 0aca 8bbd ab58 853e a1b2 e9bd
000001b0: 4dea 3d3e 75e9 3d3e 82c2 68bd 7120 093e
000001c0: a8f9 843e 4b01 41be 54c7 1e3e 3224 1f3e
000001d0: cc92 c43d b3f9 28bd 34e4 893e 8d5d 9b3e
000001e0: 21fe 9c3e 0ec1 5bbe cfa9 803e df72 3a3e
000001f0: 15c4 8fbe d365 84be 22b0 c4bb 1e4e 953e
00000200: ddcd 62be f5d1 e63d f709 803e dc15 49be
00000210: 2a1e 98bd 4925 3cbe 4612 9d3e da21 65bd
00000220: 8de3 d33d 37c2 7dbd 65a3 96be 04f6 313e
00000230: 8f3b c5bb caf1 96bc 9249 613e f64b 913d
00000240: 8df5 5ebe 8f8a e3bc 1a05 193e 720c 22bd
00000250: 8568 85be 1ace 253e e6be 263d 9a85 513e
00000260: d5d8 9a3e ac1c b6bd b2a3 473e 87bc 243b
00000270: e644 743e a673 923d 8184 003d 5eb8 9abe
00000280: f6a0 a63d d8ac cbbd 3f18 05be 2eb5 9c3e
00000290: 65e7 0c3e fccc c7bd f28a 943e 2eb0 803e
000002a0: a252 c9bd f5b5 c83c c94a 173e d772 4ebe
000002b0: e9bb a93d adb2 613e 138d a7bd cdbe 1d3e
000002c0: 755b 17be 2d14 64be cb9b 70be 8a60 903e
000002d0: a9d1 c8bd 4c33 7bbe 03c0 bebd e7d3 73be
000002e0: 13c2 99be 0839 2bbe e71a 75bd 0ad4 66be
000002f0: f7c0 c2bd 78e9 eabd c5a0 34bb ce95 22be
00000300: a9c4 4cbe ba9c 333e 34fd 3ebe e797 08be
00000310: 039e a23d 6dac 65be e324 413e 3533 42be
00000320: f948 7abe 61f8 5b3e 3355 4cbe 97cb 043c
00000330: 5836 fa3d 05a8 1b3c 0ba2 1abe 4a47 9fbe
00000340: 1f52 753e 16db fb3d 4d17 293e 1284 33be
00000350: bc70 853e 9a92 3cbd 6037 4ebd 1a5b abbe
00000360: ed26 063e b7b1 883e 8013 a0be c35c 6e3e
00000370: fd07 4a3e 61e7 92bd 0956 37be 0dce 46bd
00000380: e09c 353d dd0b 253d 9147 5dbe 7fe3 5a3e
00000390: bad5 18be 407c c9bb 6db8 c73d c880 1abe
000003a0: fda1 813e 4864 a23d 312c 823d 00f2 bfba
000003b0: 6484 76be 27e8 fdbd 2652 b23c d3e0 13be
000003c0: 4784 6a3d 5431 433b 1ff1 8cbc d654 5d3e
000003d0: 5683 30be 59e5 0abe 08b3 95bc b7a4 e0bd
000003e0: 2574 38bd 545d 50be 1d3b 023e cc75 a7bd
000003f0: 5a8f 3cbe c2e8 4d3e 6c5f 68be 37e2 c43d
0.13717797 -0.19022477 -0.104138754 0.24871528 -0.17038006 0.23045821 -0.16483614 0.0034826638
-0.27821374 0.22994569 0.08150073 0.21528442 -0.06343582 -0.30589226 -0.16258577 0.15544838
-0.23552574 -0.26301348 0.022073533 0.1491723 0.11717867 -0.18221393 0.25928122 0.30186868
0.305889 0.15528972 -0.11281948 -0.051709615 -0.20685083 -0.043896116 -0.23542129 -0.17152412
-0.11770718 0.021119189 -0.1510752 -0.049510673 -0.14680941 -0.13262753 0.12507384 0.25801167
0.29267448 -0.319972 0.13447024 -0.0668665 0.12849177 0.18184786 -0.10247688 -0.12580879
-0.110998996 -0.038747307 0.14573383 0.26765427 0.1324278 -0.054854367 -0.012119849 -0.21042322
-0.19873315 0.015597768 0.17235252 0.032362662 0.18735348 0.09528463 0.0069649736 0.037775215
0.061062813 -0.031719804 0.22666018 -0.3283097 -0.0037398934 0.100315936 -0.23241222 -0.07839226
-0.037322313 -0.005185224 -0.28554443 0.05400223 -0.10859412 0.20584396 0.016032996 0.11202846
-0.22080101 0.050187007 -0.22280617 0.197444 0.15033047 -0.010581289 -0.110708416 0.24988829
0.1493929 -0.035660144 0.23912819 0.15995064 0.1853355 -0.270979 -0.017257815 -0.14117843
-0.07328216 0.29680607 -0.31145626 -0.12574933 0.28755972 0.080532834 -0.07918163 0.09986139
0.11315528 -0.06825645 0.2604421 -0.11411024 0.1854641 0.18546088 -0.056826122 0.13391282
0.25971723 -0.1884815 0.15505725 0.15541151 0.09598312 -0.041253757 0.26931918 0.3034481
0.30662635 -0.21460363 0.25129554 0.18207882 -0.28079286 -0.25858936 -0.006002442 0.2916116
-0.22148843 0.11270515 0.25007603 -0.19637245 -0.07427628 -0.18373598 0.30678004 -0.055940486
0.10346136 -0.061952796 -0.29421535 0.17379004 -0.006019063 -0.01842584 0.22000721 0.070945665
-0.21773358 -0.02777603 0.14943352 -0.03956265 -0.26056305 0.16191903 0.0407094 0.20461121
0.30243555 -0.088921875 0.19496039 0.0025136785 0.23854408 0.071509644 0.031376366 -0.30218786
0.081361696 -0.09945077 -0.1299753 0.3060698 0.13760145 -0.097558945 0.29012257 0.25134414
-0.09830214 0.024500826 0.14774622 -0.20160995 0.08287794 0.22040816 -0.08181205 0.15404816
-0.14780982 -0.22273321 -0.2349693 0.28198653 -0.098056145 -0.24531287 -0.09313967 -0.23811303
-0.3003088 -0.16720974 -0.05984011 -0.22541824 -0.095094614 -0.11470312 -0.0027561646 -0.15877458
-0.19996895 0.17540255 -0.18651277 -0.13339196 0.079402946 -0.22429056 0.18861727 -0.18964846
-0.244419 0.21481468 -0.19954376 0.00810518 0.122173965 0.009500508 -0.15100877 -0.31109077
0.23957108 0.12297647 0.16512795 -0.1753085 0.26062572 -0.046038248 -0.05034578 -0.33467942
0.13100787 0.26698086 -0.31264877 0.23277573 0.1972961 -0.07173038 -0.17903914 -0.04853635
0.04433906 0.040294517 -0.21609332 0.21375845 -0.1492528 -0.006148845 0.09751973 -0.15088189
0.253189 0.079292834 0.06356085 -0.0014644265 -0.2407394 -0.12397795 0.021767687 -0.14441232
0.057255056 0.002978404 -0.01720482 0.21614394 -0.172376 -0.13564052 -0.018273845 -0.10968917
-0.04503264 -0.20348102 0.12717862 -0.08176765 -0.1841406 0.20108321 -0.2269265 0.096134596

context_encoder.0.bias f4 [32]
00000000: 9272 87be b3b5 0a3e cb79 9c3e 0f85 54be
00000010: d861 9bbe 1686 02bd 4661 6bbe c132 3ebe
00000020: 8c3b db3c 8009 9dbe c97c 8dbe de65 e7bd
00000030: cb05 92be e08b 4abe 4435 80be cede 363e
00000040: 37e4 773e f8d7 95be f1c8 24be 9b0e 72be
00000050: 7499 93be c529 503e 598f 0b3e a91c 2a3e
00000060: e504 9c3e 2658 a6bd 5f2a 1c3d 956e 8abe
00000070: f849 b53c a55a 543e eb04 a1be 67a5 a3bc
-0.26454598 0.13545875 0.3056167 -0.20753883 -0.30348086 -0.031866156 -0.22986326 -0.18574049
0.026761793 -0.3067131 -0.27634266 -0.112987265 -0.28520045 -0.1977992 -0.25040638 0.1785843
0.24208151 -0.29266334 -0.16092278 -0.23638384 -0.28828013 0.20328434 0.13628902 0.16612495
0.30472484 -0.08122282 0.038126346 -0.27037492 0.022129998 0.20737703 -0.31449065 -0.01997633

context_encoder.2.weight f4 [16, 32]
00000000: 1054 313e d5c2 d2bd a81d 323e 97bd a5bc
00000010: 360e f03d bc72 353d 738f 0dbe ea1a ca3c
00000020: 7f74 82bd e2a6 65bd e2e8 4a3e 6f2c 20bb
00000030: 6d60 303e 4cc2 dcbc d2cd 4a3e 99ff 633c
00000040: a8ff 183e 1f9f 5bbb a95c d5bd 5248 aebd
00000050: 235b 6e3d 6f0b 86bd 0248 21be bc15 13be
00000060: 2c5a 2f3e 3882 01bd 646b 4ebd e003 623d
00000070: 9af3 3d3e cf90 1bbe e7e7 cb3d 1e5a 083e
00000080: e532 383d 81cb 013e 27f8 5a3c e493 473d
00000090: 0fa5 bdbc 39b4 c3bd 36c1 4c3d 1c2c aa3d
000000a0: a878 18bd 4c0a 003e e0b8 0b3d 3c04 043e
000000b0: 0384 77bb 4f01 6b3d 74a0 953d 67d8 babc
000000c0: b695 94bc 7682 203d 3589 0abd 33c2 0e3d
000000d0: 2fdb efbd f3d1 32be 8c96 c2bd 47c5 05be
000000e0: a3e5 8c3d 44ba f93c 92ae 13be 63be 2c3d
000000f0: 8c5a 0c3e 71a6 62bc b503 4fbd 546b 263d
00000100: 1f02 0f3e adac 2b3d 7dd0 00be 2225 fd3d
00000110: 2c65 ce3d 1d3c 2fbe bb70 e5bd 9c8a cfbd
00000120: 9cc0 a4bd 5178 afbd 5014 313e 0c1d d0bc
00000130: 8a05 04bd 46d6 ecbd 6459 7bbc 79fa e33a
00000140: 09de 34be 86c5 fbbd d60e 093e 11dc 4a3d
00000150: 8652 28be 347e 29be 2048 e13d adc6 a03d
00000160: f5ce 3a3c c1be a63d e6bd c03d 0c17 a4bc
00000170: d338 a6bd e982 813c 78ae 15bc 41d0 3b3d
00000180: 3f17 24bd 6291 123d 8f67 25be b542 2d3d
00000190: 628e 26bd b2dc 9abd 1d61 843d 64a3 5a3c
000001a0: aeca cd3d cbab ed3d 363f 9c3d 240d 483d
000001b0: f979 c5bd 6672 0bbe 8dee 8fbd d8f6 833d
000001c0: 3cd3 fcbd f60f 04be 8bbc ee3d dd03 1a3e
000001d0: 5477 9b3b 9fbd 143e c1d3 0e3e cfc1 c0bd
000001e0: d2cf 123e cf52 f43b 58cd ebbd a6d4 75b9
000001f0: dffc a3bc bfe6 1a3e 86fc ecbc d850 1ebe
00000200: d6b4 08be 3038 10be 53f4 16bc 50e2 4f3d
00000210: 3569 ab3c 01c6 493c 59a0 51bd 11a8 2b3e
00000220: bc89 c93d da1a e7bd 6e71 3d3d d31a 273e
00000230: 3578 23be 8e71 c93a ad9c 803d f1aa d33d
00000240: 0c18 26bd 7fe3 013d 6570 e6bd 6b60 12be
00000250: 0fed e33d ac62 0fbe 34ec 06be a4b4 a93c
00000260: 0b11 ba3d 4c13 e3bc d638 d6bd 9df5 13be
00000270: e743 f7bd 516f 32be b76f a83d a778 e2bd
00000280: 6bf4 e5bd 2a7d 313e 528f a43d 31ec 83bd
00000290: 2ea4 813d d8e2 0ebc 85a8 12be 6023 14be
000002a0: ab0a c03b 43ae 773d 8d12 423d 1606 1b3e
000002b0: 3c37 c0bd e43a 1a3e a61c db3d f8f6 ed3c
000002c0: a714 e13d c7df df3d baa1 16be 4f09 2cbc
000002d0: 34a7 a3bd fe6c d1ba eb16 bdbd b275 11be
000002e0: 26a6 f5bd 298b 4c3e 97f4 213e 9ae5 413e
000002f0: fa32 0d3e 18df 2bbd 6a78 ba3d d80b 013e
00000300: 47ce f63d 22e2 2cbe 47eb 97bd 30ab c33d
00000310: 56ae ccbd 05c8 23be 8f75 dabd d0b6 45bd
00000320: 0a13 0c3e 4be8 153e f877 823d 0463 023e
00000330: aad4 23bc 6de7 063e 123e f63d 793d 3f3d
00000340: b70a d13d df88 303e 509d 2d3e 648c 133e
00000350: a23c 0cbe 7ada 473d 4070 2a3e e84e a93d
00000360: ce9e 513e c5e9 dcbd 2df5 cb3d 9e84 9e3d
00000370: a1ba 23be ea5e 0e3e 4ea5 e83c 9cf0 2b3d
00000380: ba07 2bbe db57 1abe 591c fd3d 3a21 693a
00000390: fd99 1b3d 1b1f 09be ab5a 2b3e 2cc7 373c
000003a0: 719a e03c 5e0e 28be cb53 fa3d 641a 1e3e
000003b0: 61ba 9a3d a7a4 093e b195 a73d 5fda fa3d
000003c0: c433 d8bd 48c6 99bd 8d2b 923d 60c7 09be
000003d0: 8a21 e43c 77ba a1bd df32 05bd 7fd7 913b
000003e0: a768 c6bd 14d5 1d3e bd3b b3bd e27b 24be
000003f0: 931a efbd bf36 1f3e 98c1 133d 8031 833d
0.17317224 -0.102910675 0.17394125 -0.020232005 0.117214605 0.044298872 -0.13824253 0.024671037
-0.06369876 -0.056067355 0.198154 -0.0024440547 0.17224284 -0.026948117 0.19805077 0.01391592
0.14941275 -0.0033511592 -0.10418064 -0.08509888 0.058192383 -0.065451495 -0.15750125 -0.1436376
0.17124242 -0.031618327 -0.050395384 0.055179477 0.18549958 -0.15191959 0.09956341 0.13315627
0.04497041 0.12675287 0.013364828 0.048725024 -0.023149995 -0.09555859 0.049988948 0.083091944
-0.03722444 0.12503928 0.034111857 0.1289224 -0.0037767894 0.057374295 0.07305995 -0.022808267
-0.018137794 0.039186917 -0.033822257 0.03485317 -0.11711728 -0.17462902 -0.09501371 -0.13063537
0.06879737 0.030484326 -0.14422062 0.042173754 0.13706416 -0.013833628 -0.050540645 0.0406297
0.13965653 0.041912723 -0.12579532 0.12360598 0.10077891 -0.17112775 -0.11203142 -0.101338595
-0.0804455 -0.085678704 0.17292905 -0.025404476 -0.032231845 -0.11564307 -0.015341137 0.0017393372
-0.17662825 -0.12293534 0.13384566 0.049526278 -0.1643773 -0.16552049 0.11000085 0.078503944
0.011401881 0.08141852 0.0941122 -0.02003052 -0.08116307 0.015809493 -0.009135835 0.045852903
-0.04006123 0.03578318 -0.16152786 0.042299945 -0.04066313 -0.075616255 0.064638354 0.013344619
0.10048424 0.116050325 0.07629244 0.048840657 -0.09642405 -0.13617858 -0.07027922 0.06443566
-0.12344977 -0.12896714 0.116570555 0.15040536 0.0047444496 0.1452546 0.13947965 -0.09411966
0.1433709 0.0074561606 -0.115137756 -0.00023444238 -0.02001804 0.15127085 -0.028929006 -0.15460527
-0.13350233 -0.14083934 -0.009213525 0.050752938 0.02092419 0.012315274 -0.05117831 0.16763331
0.09840724 -0.112844184 0.046250753 0.16318826 -0.15963824 0.0015368925 0.062798835 0.10335339
-0.040550277 0.031711098 -0.11251906 -0.14294593 0.111292 -0.14002484 -0.13176042 0.020716019
0.09085282 -0.027719162 -0.10460059 -0.14449163 -0.12073498 -0.17425276 0.08224433 -0.11058169
-0.1122826 0.17332903 0.08035149 -0.06441534 0.06330143 -0.008721076 -0.14322098 -0.1446662
0.0058606467 0.060468923 0.047380973 0.1513904 -0.09385535 0.15061527 0.10698824 0.029048428
0.10990267 0.10931354 -0.14710131 -0.010500266 -0.07990876 -0.0015977917 -0.09232887 -0.14205053
-0.11994581 0.1997496 0.1581596 0.18935242 0.13788977 -0.041960806 0.091049984 0.12602174
0.12051063 -0.16883138 -0.074179225 0.09554136 -0.099941894 -0.1599427 -0.10666954 -0.048270047
0.13679138 0.14639394 0.063705385 0.12733084 -0.0099994335 0.1317422 0.12023558 0.046689484
0.10207122 0.17239712 0.16954541 0.14409024 -0.13695005 0.04879234 0.16644382 0.08267003
0.20470735 -0.107867755 0.09958873 0.077401385 -0.15989162 0.13903394 0.028399136 0.04197751
-0.16702166 -0.15072577 0.123589225 0.0008893196 0.03798865 -0.13390772 0.16733806 0.01121692
0.027417393 -0.1641173 0.122230135 0.15439755 0.0755508 0.13441716 0.08182848 0.12248682
-0.105567485 -0.07508522 0.07137213 -0.13454962 0.027848024 -0.078968935 -0.032519218 0.004450738
-0.096879296 0.15413314 -0.087516285 -0.16062883 -0.116749905 0.15548228 0.036073297 0.06405926

context_encoder.2.bias f4 [16]
00000000: 6560 2fbc 6145 073d 1500 8ebd 7fa5 c8bc
00000010: 1d71 3f3d 0327 01be 75f8 1d3e 034a 2f3e
00000020: 82fd 9ebd 4a93 cfbd f666 06be 8e3f f63d
00000030: 090d 1dbd 3627 33bd 5194 a7bd b942 7abd
-0.010704135 0.03302515 -0.069336094 -0.024492977 0.046738733 -0.12612538 0.1542681 0.17118077
-0.077631965 -0.10135515 -0.13125214 0.12023841 -0.03834251 -0.043738566 -0.08182586 -0.061098788
