position_policy_2023_trained.pth (torch, 15121 bytes, 6 tensors)

network.0.weight f4 [64, 10]
0	0x3ee803d6	0.45315427
1	0x3d3799ce	0.044824414
2	0x3e6c370f	0.23067878
3	0x3e6fe783	0.23428158
4	0xbe35e373	-0.17762546
5	0x3cb0cc80	0.021581888
6	0x3e2d2fe2	0.16912797
7	0x3e754fe6	0.2395626
8	0x3df3f2ed	0.11911569
9	0x3e03ea0d	0.12882252
10	0x3e7ea057	0.24865852
11	0x3e11544b	0.14192311
12	0xbe4060a8	-0.18786871
13	0xbeaca707	-0.33721182
14	0x3e49d41b	0.19709818
15	0x3e74ad65	0.2389427
16	0xbd31a529	-0.0433704
17	0xbe423aba	-0.18967715
18	0x3e817429	0.25283936
19	0x3e805391	0.25063756
20	0xbd09e6a7	-0.033667233
21	0x3d2fd67c	0.042929158
22	0x3d34a984	0.044106975
23	0x3d43daff	0.047816273
24	0xbea3777b	-0.31927094
25	0xbe6f6db5	-0.23381694
26	0x3e930035	0.28711095
27	0xbe69c16d	-0.22827692
28	0xbe349690	-0.1763556
29	0xbc12f375	-0.0089691775
30	0xbe8a9503	-0.27066812
31	0x3dcafa17	0.09910982
32	0xbe758108	-0.23975003
33	0xbe8f0828	-0.2793591
34	0xbcba4c49	-0.022741454
35	0x3d86ea1a	0.0658762
36	0xbe5eade5	-0.21746023
37	0x3e943722	0.28948313
38	0x3d9b6556	0.07587688
39	0x3e57205c	0.21008438
40	0x3d01d35d	0.031695712
41	0xbea3a08a	-0.3195842
42	0x3def0904	0.116716415
43	0xbe8653a9	-0.26235703
44	0xbe6661df	-0.22498272
45	0x3e4b0512	0.19826153
46	0xbe9a0c1d	-0.30087367
47	0xbe02df3a	-0.12780467
48	0x3e966776	0.2937581
49	0x3e820969	0.25397804
50	0x3ea98726	0.33110923
51	0x3ea8489b	0.32867894
52	0xbe940baf	-0.28915164
53	0xbdc5bf59	-0.09655637
54	0xbdba7e6e	-0.09106146
55	0xbe789450	-0.24275327
56	0x3e996cc8	0.29965806
57	0x3ddf7874	0.109116465
58	0xbe5d18f0	-0.21591544
59	0xbe3cf18a	-0.18451515
60	0x3ea61d74	0.32444346
61	0xbd816014	-0.063171536
62	0xbe186aff	-0.14884566
63	0x3de57d5b	0.1120555
64	0x3e31ceb5	0.17364009
65	0xbe592e77	-0.21209131
66	0xbe73eb97	-0.23820339
67	0x3dab16c4	0.083539516
68	0x3de2dc61	0.1107719
69	0x3e98e9f7	0.29866
70	0x3de2ecc9	0.110803194
71	0xbe5a689e	-0.21328971
72	0x3e0959be	0.1341314
73	0xbd5e171a	-0.05422125
74	0xbe37bb98	-0.17942655
75	0x3de97437	0.11399119
76	0x3c1f46ab	0.009721438
77	0x3ebebfe6	0.37255782
78	0xbe3fd5f1	-0.18733956
79	0x3e54f732	0.20797423
80	0x3e1ec986	0.15506563
81	0x3ea02c8c	0.31283987
82	0x3c8fae7b	0.017539253
83	0xbe7e3d97	-0.24828182
84	0x3d877d5b	0.066157065
85	0xbd32a467	-0.043613818
86	0x3e87cb00	0.26522064
87	0x3da6584f	0.08122312
88	0x3e278b8f	0.16361831
89	0x3e9a406b	0.30127272
90	0x3e7e4927	0.24832593
91	0xbdad1bd2	-0.08452572
92	0xbe5ec273	-0.21753864
93	0xbd282925	-0.041054863
94	0xbe8cdac1	-0.27510646
95	0xbe11ae8e	-0.14226744
96	0x3d0fca87	0.035105255
97	0xbe3bef68	-0.18353045
98	0x3e28a121	0.16467716
99	0xbe6e5fc8	-0.23278725
100	0xbda5fbaf	-0.081046455
101	0xbe9ea581	-0.30985644
102	0x3db14c59	0.0865714
103	0x3da58f56	0.0808398
104	0x3e381927	0.17978345
105	0x3e4825c3	0.19545655
106	0xbe526257	-0.20545326
107	0xbda31668	-0.07963258
108	0x3e6df7cc	0.23239058
109	0xbe021c03	-0.12705998
110	0xbc69c629	-0.0142684365
111	0x3d099203	0.033586513
112	0x3e2c1305	0.1680413
113	0xbe20851a	-0.15675774
114	0x3d16eddb	0.03684793
115	0x3ca7a3e7	0.020463897
116	0x3e2dc58e	0.16969892
117	0xbdd35283	-0.10318472
118	0x3e11e496	0.14247355
119	0xbce0c17d	-0.027436012
120	0x3e2b7234	0.16742784
121	0x3ea07355	0.3133799
122	0x3e21ad2d	0.15788718
123	0x3df4cec3	0.11953499
124	0xbe92729d	-0.28603068
125	0xbe2ac071	-0.16674973
126	0xbd481452	-0.048847504
127	0x3ea6381e	0.3246469
128	0x3e55a9ef	0.20865606
129	0x3e00a61e	0.12563369
130	0xbdacacab	-0.08431371
131	0xbd9cd414	-0.07657638
132	0x3e04005e	0.12890765
133	0x3d934b8d	0.071921445
134	0xbe4277d1	-0.18991019
135	0x3cba9541	0.022776248
136	0xbdd67221	-0.10470987
137	0xbd2ddda7	-0.042447712
138	0xbe7c9a53	-0.24668245
139	0xbdd49c78	-0.103814065
140	0x3dd5137a	0.104041055
141	0xbdf0a2f7	-0.11749833
142	0xbdadaaa0	-0.0847981
143	0xbe72b875	-0.23703177
144	0x3e5b6226	0.2142416
145	0xbca54556	-0.020174664
146	0x3ce44d33	0.027868843
147	0x3da1b8ab	0.07896551
148	0x3ea12c05	0.31478897
149	0x3ee293f0	0.44253492
150	0x3dfcfebb	0.123532735
151	0x3df70a39	0.12062497
152	0xbea1eaf3	-0.31624565
153	0xbde40d64	-0.111353666
154	0x3dc4cc84	0.09609321
155	0xbe3fdcf7	-0.18736635
156	0x3d1cc463	0.038273226
157	0xbe5154b3	-0.20442466
158	0x3e0b0efc	0.13579935
159	0x3e58ea4c	0.21183127
160	0x3e690c92	0.22758701
161	0xbe8229dc	-0.2542256
162	0xbe8a1603	-0.2696992
163	0xbe829416	-0.25503606
164	0x3dbf983f	0.093552105
165	0xbe52fe4a	-0.20604816
166	0xbdf6a5ff	-0.1204338
167	0x3e8ce637	0.2751939
168	0xbe68bf68	-0.22729266
169	0x3e2f6eb0	0.17132068
170	0x3e7d72dd	0.24750848
171	0x3e5a6e6d	0.21331187
172	0x3e3ac79d	0.18240209
173	0x3de4b856	0.11167972
174	0x3e8f6e3f	0.280138
175	0xbdb05852	-0.08610596
176	0xbd021c2c	-0.031765148
177	0x3e494b36	0.19657597
178	0xbe9ef7cb	-0.31048426
179	0xbd1d814e	-0.038453393
180	0x3e46c814	0.19412261
181	0xbe2f74b7	-0.17134367
182	0xbd148dce	-0.036268048
183	0x3e2853c3	0.16438203
184	0x3d97bb37	0.07408755
185	0x3e250144	0.16113764
186	0x3dd406e8	0.1035288
187	0x3e5ca0b8	0.21545684
188	0xbe7cd41a	-0.24690285
189	0x3e3e4cb2	0.18583944
190	0x3e648727	0.22317182
191	0x3d72d3ed	0.05928414
192	0x3e8d53f0	0.27603102
193	0xbe876cdf	-0.2645025
194	0xbe2af427	-0.16694699
195	0x3e7acad6	0.24491438
196	0xbe1f8bc9	-0.15580668
197	0x3e8ee3db	0.27908215
198	0x3e368bd3	0.17826776
199	0xbd306d10	-0.04307276
200	0xbdebd1b3	-0.11514606
201	0xbcf8db02	-0.030377869
202	0xbe4c8461	-0.19972374
203	0x3d0070b1	0.03135747
204	0x3e8909ef	0.2676539
205	0xbe7cb8ac	-0.24679822
206	0xbde12518	-0.10993403
207	0xbe525924	-0.20541817
208	0x3e8fe23f	0.281023
209	0xbdfd809e	-0.123780474
210	0xbe5ff699	-0.21871413
211	0xbc66d558	-0.014088951
212	0x3d67bb99	0.05657539
213	0xbe4e3870	-0.20138717
214	0xbe0a17f7	-0.13485704
215	0xbdf8b859	-0.121445365
216	0xbe05b329	-0.13056625
217	0x3e987dfb	0.29783615
218	0xbe208641	-0.15676214
219	0x3e180ce4	0.14848667
220	0xbb8baa9c	-0.0042622816
221	0x3dab1be3	0.08354928
222	0xbe2bf2b2	-0.167918
223	0xbd8778cc	-0.06614837
224	0xbe2e217e	-0.17004964
225	0xbea15749	-0.31511906
226	0xbe59d5c7	-0.21272956
227	0x3e8af0b7	0.27136776
228	0x3e402098	0.18762434
229	0xbe00a351	-0.125623
230	0x3ecf7943	0.40522203
231	0xbe33fa7f	-0.17576025
232	0xbe44b010	-0.19207788
233	0x3e952e54	0.29136908
234	0x3e583eea	0.2111775
235	0x3ea5004e	0.32226795
236	0xbe642cd6	-0.22282729
237	0x3df207d3	0.118178986
238	0x3eb0f165	0.3455917
239	0x3e0ae3ca	0.13563457
240	0x3ec84df1	0.39121965
241	0x3e595628	0.21224272
242	0xbe17c9aa	-0.14823022
243	0x3e0246ae	0.12722275
244	0xbe7bf4bf	-0.24605082
245	0x3cd4f28d	0.025994563
246	0xbd142d60	-0.036176085
247	0xbe06f2d3	-0.13178568
248	0xbd868a1f	-0.06569313
249	0x3dee7829	0.116440125
250	0x3e034377	0.12818705
251	0xbe9aaa17	-0.30207893
252	0xbe4809d3	-0.19534998
253	0xbdad5903	-0.08464243
254	0xbe986cc1	-0.29770473
255	0x3e0f1824	0.13974053

network.0.bias f4 [64]
0	0x3e2d87a1	0.1694627
1	0xbd940d8c	-0.07229146
2	0xbdbb47f3	-0.091445826
3	0xbe30b6dd	-0.17257257
4	0x3e4918a5	0.19638307
5	0xbe0e8369	-0.13917316
6	0xbe40be37	-0.18822561
7	0x3ec76c38	0.38949752
8	0x3dc7917b	0.09744545
9	0xbe566145	-0.20935543
10	0xbdd0e6f0	-0.10200298
11	0x3d8db5b0	0.0691942
12	0x3e74a496	0.2389091
13	0x3d8805f4	0.066417605
14	0x3e90cdfd	0.28282157
15	0xbea4861c	-0.32133567
16	0x3e2c93af	0.16853212
17	0xb9d0b8b6	-0.00039810472
18	0x3d524826	0.051338337
19	0xbe477c1a	-0.19480935
20	0xbdf3bf90	-0.11901772
21	0x3e639ad7	0.22227035
22	0xbe09822d	-0.13428564
23	0x3e42608d	0.18982144
24	0x3e7b813f	0.24561022
25	0x3e440a96	0.19144663
26	0xbe8e356d	-0.27775136
27	0xbe037be6	-0.12840232
28	0x3e930bab	0.2871984
29	0xbe00d34b	-0.12580602
30	0x3e54a539	0.20766152
31	0x3e280bfc	0.16410822
32	0xbd5135bc	-0.051076636
33	0x3cd2bd10	0.025724918
34	0x3ded18c2	0.11576988
35	0xbe5ffa67	-0.21872865
36	0xbe73f0d9	-0.23822345
37	0xbdcd26ce	-0.10017167
38	0xbdad8a90	-0.08473694
39	0x3e5e4a34	0.21707994
40	0xbe85cb3b	-0.26131615
41	0x3e90f082	0.28308493
42	0xbdfef09e	-0.12448238
43	0xbe2a7264	-0.16645199
44	0xbe9bc5fc	-0.30424488
45	0x3e25d7a0	0.16195536
46	0xbe831a82	-0.2560616
47	0x3d7a23ed	0.061069418
48	0xbe702b1b	-0.23453943
49	0xbdec9d79	-0.11553473
50	0xbdbe32a0	-0.09287
51	0xbd9f22f2	-0.07770337
52	0x3cf2d58b	0.02964284
53	0x3eabf82c	0.33587778
54	0xbdc1b238	-0.09457821
55	0xbe514529	-0.20436539
56	0x3ea4e02d	0.32202283
57	0xbde93f99	-0.113890834
58	0xbe3a9d53	-0.18224077
59	0x3e4ee871	0.20205857
60	0xbdd60068	-0.10449296
61	0x3d9ebbc9	0.07750661
62	0xbe351811	-0.17684962
63	0x3dac2aed	0.08406625

network.2.weight f4 [32, 64]
0	0xbd17eb9b	-0.037089925
1	0xbd83d804	-0.06437686
2	0x3d5b9f02	0.05361844
3	0x3d568b28	0.052378803
4	0xbd2ba7c4	-0.04190804
5	0x3e247e57	0.1606382
6	0xbd0f599d	-0.03499757
7	0x3e17a578	0.14809215
8	0x3e395251	0.18097807
9	0x3d8752bf	0.066075794
10	0xba85ae80	-0.00101991
11	0x3d9dfbd2	0.077140465
12	0x3e04e72a	0.12978807
13	0xbdf4a140	-0.119448185
14	0x3e3ee3de	0.18641612
15	0xbd8b9bce	-0.06816827
16	0xbd974561	-0.0738628
17	0xbd1813b6	-0.037128173
18	0xbce20275	-0.027589062
19	0xbcc7e9dc	-0.024403505
20	0xbd9f5180	-0.07779217
21	0x3d924dab	0.0714372
22	0xbd5141d0	-0.051088154
23	0x3c8f421e	0.017487582
24	0x3e10438a	0.14088264
25	0x3d650e89	0.055922065
26	0xbd2b34d4	-0.041798428
27	0x3d80e23c	0.06293151
28	0x3d8979c9	0.06712682
29	0xbce89f5c	-0.028396301
30	0x3e359e6b	0.17736213
31	0x3e078444	0.13234049
32	0x3e35aeb5	0.17742427
33	0x3d728626	0.059209965
34	0x3ba230f0	0.0049496815
35	0x3cc15baf	0.023603288
36	0xbdbde968	-0.09273034
37	0xbdd16187	-0.1022368
38	0xbd691cb0	-0.056912124
39	0xbbed2f1c	-0.007238282
40	0x3e14d028	0.1453253
41	0xbdafd335	-0.085852064
42	0x3d63af1f	0.05558693
43	0x3c01029f	0.00787416
44	0x3d95dac7	0.07317119
45	0xbc94045a	-0.018068481
46	0xbcf051b8	-0.029335842
47	0xbcf72390	-0.030168325
48	0xbd8ca19d	-0.06866763
49	0x3e629742	0.22128013
50	0xbd1d1263	-0.038347613
51	0x3e1941a9	0.14966454
52	0xbe0c2945	-0.13687618
53	0xbe0e1c34	-0.13877946
54	0x3e0aa8c2	0.13540938
55	0xbda3cb54	-0.07997766
56	0x3e2666d3	0.16250162
57	0x3e4b0d47	0.19829284
58	0x3d648d69	0.05579892
59	0x3dbf3940	0.093370914
60	0x3dd3d9ad	0.10344253
61	0xbd6d59ed	-0.057947088
62	0x3d63f492	0.055653162
63	0xbc8ba30d	-0.017045522
64	0xbd71898c	-0.058969066
65	0x3ccab560	0.02474469
66	0xbdfc2e5a	-0.12313528
67	0xbd56c114	-0.052430227
68	0xbda43e26	-0.080196664
69	0x3db8f2d6	0.09030692
70	0xbd12f928	-0.035882145
71	0xbcfb3588	-0.030665174
72	0x3d993fa0	0.07482839
73	0xbdb71740	-0.089399815
74	0xbcf19470	-0.029489726
75	0xbc7774b0	-0.015103504
76	0xbdf1810e	-0.11792193
77	0xbae2e000	-0.0017309189
78	0x3da297e6	0.079391286
79	0xbd9c74aa	-0.076394394
80	0x3d04b2c8	0.03239706
81	0xbd1974d4	-0.03746493
82	0xbdfbbf8c	-0.12292394
83	0xbd6ebf88	-0.058288127
84	0x3dc791a2	0.09744574
85	0xbdf9c482	-0.12195684
86	0x3deaa706	0.114576384
87	0x3da7bdba	0.08190484
88	0x3dfa9d10	0.122369885
89	0x3db99944	0.09062436
90	0xbd334db8	-0.04377529
91	0xbdf72652	-0.12067856
92	0xbdd3ad82	-0.10335828
93	0x3d376e84	0.04478313
94	0x3dd4d6f8	0.103925645
95	0xbd65495c	-0.055978164
96	0x3c76aeb0	0.015056297
97	0xbd81d3da	-0.063392356
98	0xbcc21fe8	-0.023696855
99	0x3d9ba81e	0.07600425
100	0x3d495338	0.04915163
101	0x3d2bbfcc	0.04193096
102	0x3c9289a0	0.01788789
103	0xbdac8376	-0.08423512
104	0xbcba2b00	-0.022725582
105	0xbbd02380	-0.006351888
106	0xbdb8e0d4	-0.090272576
107	0x3db8ee38	0.090298116
108	0x3cdfeef0	0.027335614
109	0xbd9778f2	-0.07396115
110	0xbd969a38	-0.07353634
111	0xbd416460	-0.047214866
112	0x3d8ba7fe	0.06819151
113	0xbd362b5c	-0.044474944
114	0xbce32cc8	-0.027731314
115	0xbcafeae8	-0.021474317
116	0xbce9c928	-0.028538302
117	0xbda36a44	-0.07979253
118	0xbc7609d0	-0.015016988
119	0x3de2ca1c	0.110737056
120	0xbc86b000	-0.016441345
121	0xbce22538	-0.027605638
122	0xbb981440	-0.004641086
123	0xbc934420	-0.01797682
124	0x3b14b6c0	0.0022691935
125	0x3d4a1a9c	0.049341783
126	0xbd91e702	-0.07124139
127	0x3d8cd186	0.06875901
128	0x3d36ff0e	0.044676833
129	0xbd56843a	-0.052372195
130	0xbd72c394	-0.05926855
131	0x3df749b2	0.12074603
132	0x3d59189f	0.053001996
133	0xbb9857bc	-0.0046491306
134	0xbdc229c3	-0.09480622
135	0xbd4830cd	-0.048874665
136	0xbe00689c	-0.12539905
137	0x3d72524c	0.059160516
138	0x3c3ff800	0.011716843
139	0xbe03d370	-0.12873626
140	0x3c1e97e5	0.009679769
141	0x3db952f8	0.09049028
142	0x3c0f123b	0.008732374
143	0xbd016e38	-0.031599253
144	0x3cc6b80c	0.024257682
145	0xbdb72bf7	-0.089439325
146	0xbdee16b5	-0.11625425
147	0x3a632200	0.0008664429
148	0xbc834298	-0.016022965
149	0x3da4ded7	0.08050316
150	0xbdb576b0	-0.088605285
151	0x3cf03baf	0.029325334
152	0xbd907350	-0.07053244
153	0x3dc63dbf	0.09679746
154	0x3da86d8e	0.08224021
155	0xbd3bcf41	-0.04585195
156	0xbb9250c7	-0.004465196
157	0x3d1ff6e8	0.039053828
158	0x3dc1c35c	0.0946109
159	0xbcddbf3e	-0.02706873
160	0xbda76a2d	-0.08174548
161	0xbd340d22	-0.043957837
162	0xbd33f8f4	-0.043938592
163	0xbd7a8e88	-0.061171085
164	0xbd00df30	-0.03146285
165	0xbc55da59	-0.013052546
166	0x3d9d08b4	0.076676756
167	0xbdcc8c13	-0.099876545
168	0xbdf778ba	-0.12083574
169	0x3cb9075b	0.022586515
170	0x3da8073c	0.08204505
171	0xbd277c33	-0.04088993
172	0x3da09dba	0.07842584
173	0x3d5c0714	0.053717688
174	0xbde1144e	-0.10990201
175	0xbbdd44a0	-0.0067525655
176	0xbd605550	-0.05476886
177	0xbdea715c	-0.11447403
178	0x3d8b0272	0.06787576
179	0xbde87a1c	-0.113514155
180	0xbd187198	-0.037217706
181	0xbd985c5f	-0.074394934
182	0x3ce0b8ec	0.027431928
183	0xbc0f6f87	-0.008754618
184	0x3d692663	0.056921374
185	0xbcbd6a9e	-0.023122128
186	0x3cfb0b9b	0.030645182
187	0xbe026abb	-0.12736027
188	0x3d9c9eb8	0.07647461
189	0xbd039e44	-0.032133356
190	0xbdbd4edc	-0.09243557
191	0x3d628e2f	0.055311378
192	0xbd87e6eb	-0.06635841
193	0xbbcaeea7	-0.0061930004
194	0xbdd958b7	-0.10612624
195	0xbdb48bf0	-0.088157535
196	0xbdadd2ad	-0.08487449
197	0x3cda65c3	0.026659852
198	0x3d0e0361	0.03467119
199	0xbbc2b782	-0.005942286
200	0x3da7132b	0.08157953
201	0x3bd30b40	0.00644055
202	0xbc4fc4f0	-0.012681231
203	0x3d34b0d5	0.044113953
204	0x3c9a66ce	0.01884785
205	0xbd1a4770	-0.037665784
206	0x3d823489	0.063576765
207	0xbc66cfa1	-0.0140875885
208	0x3c9c35d6	0.01906864
209	0x3db973f4	0.090553194
210	0xbd99657c	-0.0749006
211	0x3d873175	0.0660123
212	0xbdb724ec	-0.08942589
213	0x3d94d131	0.072664626
214	0x3de0810e	0.10962115
215	0xbc9d4e42	-0.019202355
216	0x3dcc381e	0.09971641
217	0xbdba0bf2	-0.0908431
218	0xbc24d790	-0.01006116
219	0xbcbe459a	-0.023226548
220	0x3dc0d194	0.09414974
221	0x3de955e5	0.11393336
222	0x3d3bdb9d	0.045863736
223	0x3ddfb3db	0.109229766
224	0x3d61e0dd	0.055146087
225	0x3d8e8a63	0.06959989
226	0xbd2d73cc	-0.04234676
227	0x3d2df06c	0.042465612
228	0xbdde7479	-0.10862059
229	0x3dac374b	0.08408984
230	0xbd68acd4	-0.056805447
231	0x3e0b4375	0.13599952
232	0x3dc6a76c	0.09699902
233	0xbdf620b6	-0.12017958
234	0xbd8654e4	-0.0655916
235	0x3cebb769	0.02877398
236	0x3db21d65	0.08697013
237	0x3d1608cb	0.03662948
238	0x3d1c62dc	0.038180217
239	0xbdd0050e	-0.10157214
240	0x3e0482e1	0.12940551
241	0x3db19a1e	0.08671974
242	0x3d9586e2	0.073011175
243	0xbd925e98	-0.071469486
244	0x3d2c1194	0.04200895
245	0x3d764c05	0.06013109
246	0x3d4f903e	0.05067467
247	0xbda22e76	-0.07919018
248	0x3e057b2a	0.13035265
249	0xbc8ab79b	-0.016933253
250	0xbd70a82d	-0.058754135
251	0x3d603e36	0.05474683
252	0x3d5b04b9	0.0534713
253	0x3cd325bd	0.025774831
254	0x3dcad673	0.09904184
255	0xbc02f962	-0.007994028

network.2.bias f4 [32]
0	0x3ca8e3e8	0.020616487
1	0xbd58e8d4	-0.052956417
2	0x3d1296ac	0.035788223
3	0xbd948826	-0.07252531
4	0x3e0b1304	0.13581473
5	0xbdfbde5f	-0.12298273
6	0xbd36ce98	-0.044630617
7	0x3d33e022	0.04391492
8	0x3d8b6a51	0.068073876
9	0x3d92c1ec	0.07165894
10	0xbbd1d8c1	-0.006404013
11	0xbd68847b	-0.05676697
12	0xbc7acb6c	-0.015307289
13	0x3de09433	0.10965767
14	0xbd2e5b8b	-0.04256777
15	0x3df7704c	0.12081966
16	0x3dd224f2	0.10260953
17	0xbcefa028	-0.029251173
18	0xbdfc3914	-0.12315574
19	0x3ca319a3	0.019909685
20	0xbc916b22	-0.01775128
21	0xbd685efd	-0.056731213
22	0xbd4434fd	-0.047902096
23	0xbcb295aa	-0.021799881
24	0x3ded7e90	0.115964055
25	0x3d2dfb38	0.04247591
26	0x3d14ecb3	0.036358546
27	0x3e16a429	0.1471106
28	0xbd969fc0	-0.07354689
29	0x3a2ceada	0.0006596275
30	0xbdb4fe57	-0.08837574
31	0xbd930158	-0.07177991

network.4.weight f4 [4, 32]
0	0x3e877548	0.26456666
1	0xbe08aa53	-0.13346224
2	0x3dad19e2	0.084522024
3	0x3e2444e9	0.16041912
4	0xbe3f3c01	-0.18675233
5	0x3e07929e	0.13239524
6	0xbd44e9e2	-0.04807461
7	0x3ce1f911	0.027584584
8	0x3d57b286	0.052660488
9	0xbd8dbac6	-0.0692039
10	0x3d810fcb	0.063018404
11	0x3e3ace18	0.18242681
12	0x3e2ef5ad	0.17085905
13	0xbdcc416d	-0.099734165
14	0x3adaca70	0.0016692411
15	0xbc6d8924	-0.014498029
16	0x3c017ef0	0.007903799
17	0x3dbf59d4	0.09343305
18	0xbe25dba8	-0.16197073
19	0x3e11afa0	0.14227152
20	0x3e6c0010	0.23046899
21	0xbccfbf45	-0.02535976
22	0x3e3aa263	0.18226008
23	0x3dd2cc42	0.10292865
24	0x3cd8dbc4	0.02647198
25	0x3e1535a2	0.1457124
26	0x3d816bf7	0.06319421
27	0xbe0fd044	-0.14044291
28	0x3b7a080a	0.0038151764
29	0xbe20af16	-0.1569179
30	0xbc810e7b	-0.015753975
31	0x3ddf4695	0.10902134
32	0xbe51c4b8	-0.20485198
33	0x3d93b100	0.072114944
34	0x3daff0a4	0.085908204
35	0x3d242db2	0.04008264
36	0x3e0f0a7a	0.1396884
37	0x3d708008	0.05871585
38	0x3daa3016	0.08309953
39	0xbda5cf2e	-0.08096157
40	0x3da1c171	0.07898224
41	0xbe044676	-0.12917504
42	0xbd806963	-0.06270101
43	0xbc97fd26	-0.018553328
44	0x3e3e598a	0.18588844
45	0x3d812dd7	0.063075714
46	0xbdbb768c	-0.091534704
47	0xbdcf4db0	-0.101222396
48	0x3e207b13	0.15671949
49	0xbe127dc6	-0.14305791
50	0x3d9270bf	0.07150411
51	0x3d3b59cd	0.045739938
52	0x3c5e461a	0.013566518
53	0x3e0088b4	0.12552148
54	0x3d7615bb	0.060079318
55	0xbdfecb28	-0.12441093
56	0x3db87312	0.09006323
57	0x3a354c36	0.00069159584
58	0xbe19db11	-0.15024973
59	0x3c8a2a8c	0.016865991
60	0x3e1dfa54	0.15427524
61	0x3c67f0f8	0.0141565725
62	0xbd822a86	-0.06355767
63	0xbca538c9	-0.020168679
64	0xbd2dbf6d	-0.042418886
65	0xbbd3dc81	-0.006465495
66	0x3d683950	0.056695282
67	0xbcca0932	-0.024662588
68	0x3dc4187c	0.095749825
69	0xbe3dbbbb	-0.18528645
70	0xbe308441	-0.17237951
71	0x3e780dc9	0.24224009
72	0x3d8670db	0.06564494
73	0x3d932dee	0.07186495
74	0xbda545aa	-0.08069928
75	0x3e270bf1	0.16313149
76	0xbd82a641	-0.06379367
77	0xbb59c876	-0.0033231056
78	0x3d543f24	0.051818028
79	0x3e2c71ff	0.16840361
80	0xbde49224	-0.111606866
81	0x3daba72c	0.08381495
82	0xbd90f4cc	-0.07077941
83	0x3da3a808	0.07991034
84	0x3e1f5196	0.15558466
85	0x3d482bc2	0.048869856
86	0x3d604042	0.05474878
87	0xbe3c7349	-0.18403353
88	0x3df94bc6	0.12172656
89	0x3e5639d5	0.20920499
90	0xbdf91f66	-0.12164192
91	0x3e4ae215	0.19812806
92	0x3e185cc6	0.1487914
93	0x3c64570c	0.013936769
94	0x3d394a88	0.045237094
95	0x3dc0a2c2	0.094060436
96	0xbdd72d77	-0.105067186
97	0x3db96dfd	0.09054182
98	0x3dcfd696	0.10148351
99	0xbe0eb290	-0.13935304
100	0xbe501347	-0.20319854
101	0x3df76b45	0.12081007
102	0xbe01a2a9	-0.12659706
103	0x3d2cc5de	0.04218089
104	0xbe1d6aa1	-0.15372707
105	0xbce6b2d8	-0.028161451
106	0xbe25381f	-0.1613469
107	0xbe4264c3	-0.1898375
108	0xbe3b20d7	-0.18274246
109	0x3e2d3c22	0.1691747
110	0xbde185e2	-0.11011864
111	0xbe35ad31	-0.17741849
112	0xbcd6b70f	-0.026210336
113	0xbdaf3e77	-0.08556836
114	0xbe0e7274	-0.13910848
115	0xbe0ef62e	-0.13961098
116	0x3d56e1c4	0.0524614
117	0x3cf6fae6	0.030148935
118	0xbdc0cf14	-0.09414497
119	0x3d873bdb	0.066032134
120	0x3c992660	0.018695056
121	0xbdb33c5f	-0.08751749
122	0x3de2ad9c	0.110682696
123	0xbe290451	-0.16505553
124	0xbe2727eb	-0.16323821
125	0x3dabb33b	0.08383795
126	0xbe344eea	-0.17608228
127	0x3cf9e75a	0.030505825

network.4.bias f4 [4]
0	0x3e1b1195	0.15143426
1	0x3df69c19	0.12041492
2	0xbdb47f3a	-0.08813329
3	0xbd8c91fe	-0.06863783
